checkpoint_critic_agent_1.pth (torch_old, 324028 bytes, 9 tensors)

fc1.weight f4 [256, 52]
0	0xbed8e1d8	-0.42359805
1	0x3e9308ae	0.2871756
2	0xbe0a4313	-0.1350215
3	0x3eb27e49	0.34861973
4	0x3d944602	0.072399154
5	0xbe620c8b	-0.22075097
6	0xbe17abee	-0.1481168
7	0x3eb60b7d	0.3555564
8	0xbe6196ec	-0.22030228
9	0x3e8e5b45	0.27804008
10	0x3bfddab0	0.007747017
11	0xbe72c49b	-0.23707812
12	0xbdb34d4a	-0.08754976
13	0xbdace784	-0.084425956
14	0xbd60dbb2	-0.054897018
15	0xbe5344f0	-0.20631766
16	0xbd5c3260	-0.05375898
17	0x3e5b9be1	0.21446182
18	0xbe089c77	-0.13340937
19	0xbf29c43e	-0.66315067
20	0xbe9ba4a7	-0.30399057
21	0x3dc8447b	0.097786866
22	0xbe3d7c19	-0.18504371
23	0xbf45e9ff	-0.77310175
24	0x3e247182	0.16058925
25	0xbdaaf7cb	-0.08348044
26	0xbe8ed665	-0.27897945
27	0x3e89eba7	0.269376
28	0x3b9930b7	0.0046749967
29	0xbe5890a0	-0.2114892
30	0xbe76a19c	-0.24085087
31	0x3e8444e5	0.25833812
32	0x3e22214b	0.15833013
33	0x3da1a3aa	0.078925446
34	0xbe0ac3c4	-0.13551241
35	0x3e322943	0.17398553
36	0x3dd6ac84	0.104821235
37	0xbde54a58	-0.111958206
38	0xbe49832b	-0.19678943
39	0x3e1534fc	0.14570993
40	0x3e18e196	0.14929804
41	0x3cab3dd8	0.020903513
42	0xbeb344d5	-0.35013452
43	0x3ed64061	0.41845992
44	0x3ece198e	0.40253872
45	0x3d9aef01	0.075651176
46	0xbeb15892	-0.34637886
47	0x3efa46b4	0.48882067
48	0xbe3b0c1c	-0.18266338
49	0xbf88a078	-1.0673971
50	0x3f6fc31e	0.936571
51	0xbe34eac8	-0.17667687
52	0x3ed1dd4d	0.40989152
53	0x3f3d1c03	0.7387087
54	0xbd0396b9	-0.032126162
55	0xbdc0fa64	-0.09422758
56	0xbdec9043	-0.11550953
57	0xbec31085	-0.3809854
58	0xbd6630be	-0.056198828
59	0xbdc91ceb	-0.09819969
60	0x3e955207	0.29164144
61	0x3ea766ea	0.32695705
62	0xbd31625e	-0.0433067
63	0xbf1ec1ef	-0.6201467
64	0xbe3c5c26	-0.18394527
65	0xbdad7591	-0.0846969
66	0xbcec8b18	-0.028874919
67	0xbf1706f8	-0.5899501
68	0x3e0a9a2c	0.13535374
69	0x3c90759d	0.017634207
70	0xbbce3444	-0.0062928516
71	0xbecf16ec	-0.40447176
72	0xbe389300	-0.18024826
73	0xbcf4698a	-0.029835481
74	0xbbaff36e	-0.0053695953
75	0xbee13f3a	-0.4399355
76	0x3e94d91a	0.29071885
77	0x3ec817fa	0.39080793
78	0xbdfe5b34	-0.12419739
79	0xbeaf2079	-0.34204462
80	0x3de86d85	0.11349014
81	0xbee11882	-0.4396401
82	0xbe07399d	-0.13205571
83	0xbeb53442	-0.35391432
84	0x3e9686ea	0.29399806
85	0x3f0a73b4	0.540828
86	0xbdc2a14c	-0.09503421
87	0x3f2262b7	0.63431877
88	0x3e272c2c	0.16325444
89	0xbd238f15	-0.039931376
90	0xbe0da644	-0.13832957
91	0x3f1b4284	0.6064837
92	0x3e97eee0	0.29674435
93	0x3f06f64d	0.52719575
94	0xbdf3cea3	-0.11904647
95	0x3d6a8b0b	0.057261508
96	0x3e3b07c6	0.18264684
97	0x3d4561de	0.048189037
98	0xbdd1f684	-0.10252097
99	0x3cd6644a	0.026170868
100	0x3f6511c1	0.89480215
101	0x3dd7e8f1	0.10542477
102	0xc00f4f96	-2.2392325
103	0xbf5ed9e3	-0.8705122
104	0x3ebf32c3	0.37343416
105	0x3d57c21f	0.052675363
106	0xbdb1e19a	-0.08685608
107	0x3c4038fb	0.011732335
108	0x3d910f33	0.07082977
109	0xbeb7b8a1	-0.35883048
110	0xbd5b5188	-0.05354455
111	0x3ce2e26d	0.027695859
112	0x3f093806	0.5360111
113	0x3dae9770	0.08524978
114	0x3e5729d3	0.21012048
115	0xbea91e09	-0.33030728
116	0x3e31184a	0.17294422
117	0xbec196b6	-0.37810296
118	0x3e4ac2ea	0.19800916
119	0xbe9a83cd	-0.3017868
120	0x3ee6a183	0.450451
121	0xbbb04b15	-0.005380044
122	0x3ae96696	0.0017807062
123	0xbe0d730b	-0.13813417
124	0x3dad688a	0.08467205
125	0x3e100047	0.14062606
126	0x3ca4d97f	0.020123241
127	0xbe2370b5	-0.15960963
128	0x3ec5e8bc	0.38654125
129	0xbd269bf1	-0.04067606
130	0xbdfdae03	-0.12386706
131	0xbe77707e	-0.24164006
132	0xbd71a626	-0.058996342
133	0xbec274bd	-0.3797969
134	0xbdb741d2	-0.08948101
135	0xbe170838	-0.14749229
136	0x3ef36a1a	0.47541887
137	0x3d911c7a	0.070855096
138	0x3e765c53	0.24058656
139	0x3dea0737	0.11427157
140	0xbe057fbb	-0.13037007
141	0xbebd2525	-0.36942402
142	0x3e327292	0.17426518
143	0x3d53c22d	0.051698852
144	0x3f14ec63	0.581732
145	0xbe4702c5	-0.1943465
146	0x3e866262	0.26246935
147	0xbf2b9739	-0.6702762
148	0xbd9a14bb	-0.07523485
149	0x3dd01824	0.101608545
150	0x3e4c2f8c	0.19940013
151	0xbf18d385	-0.59697753
152	0xbf1035c4	-0.5633204
153	0xbf089089	-0.53345543
154	0xbfcb2e7c	-1.5873561
155	0xbf76bd72	-0.9638282
156	0xbe36e98e	-0.17862532
157	0x3dedc617	0.11610048
158	0x3d45b506	0.04826834
159	0xbd8af08b	-0.06784161
160	0xbeededc5	-0.46470466
161	0xbca4f8a4	-0.020138092
162	0x3bfa0971	0.00763052
163	0xbd4bd7ef	-0.049766477
164	0x3ec80449	0.3906577
165	0x3e200dc9	0.15630259
166	0x3d86c497	0.06580465
167	0xbd1002ab	-0.035158794
168	0xbf8359c4	-1.0261769
169	0xbdb6c22d	-0.08923755
170	0xbd07ed4d	-0.033185292
171	0x3d06970b	0.03285889
172	0x3f3eeef5	0.7458337
173	0xbd8e8adf	-0.06960081
174	0xbcc8d24c	-0.02451434
175	0x3d469605	0.048482914
176	0xc09b117b	-4.845884
177	0xbd2e41da	-0.04254327
178	0xbd39adb1	-0.04533166
179	0xbd03d84d	-0.032188702
180	0xbd0aafb1	-0.03385896
181	0x3dd3f62a	0.103496864
182	0x3ca7394c	0.020413063
183	0x3da10c37	0.07863658
184	0x3ef5be31	0.47996667
185	0xbda578b9	-0.08079667
186	0xbd4528ff	-0.0481348
187	0xbb895033	-0.0041904687
188	0xbb63b381	-0.0034744444
189	0x3e0fd205	0.1404496
190	0x3cdc9604	0.026927002
191	0x3dbe4e7f	0.09292316
192	0x3f8f5ac7	1.1199578
193	0xbd121ae8	-0.03567019
194	0xbc522c8c	-0.012828004
195	0x3e42d58e	0.19026777
196	0x3d55b695	0.052176077
197	0x3db19825	0.086715974
198	0xbb46b960	-0.0030322894
199	0xbd8481bb	-0.064700566
200	0x409c389f	4.8819118
201	0xbdd4eac4	-0.103963405
202	0x3b60ef8e	0.0034322473
203	0x3bf41583	0.0074488535
204	0x3de9d219	0.11417026
205	0xbdfa7c11	-0.12230695
206	0x3e5a6f1f	0.21331452
207	0xbe926aff	-0.28597257
208	0x3f2d3677	0.6766123
209	0x3df68487	0.12036996
210	0x3cdffb2c	0.027341448
211	0xbebdfc99	-0.3710678
212	0x3dbe4a0a	0.092914656
213	0xbf4423ac	-0.7661693
214	0xbccd0c7d	-0.025030369
215	0xbedfae47	-0.4368765
216	0x3f0b50cc	0.5442016
217	0x3e5a00ae	0.21289322
218	0xbdf71394	-0.12064281
219	0xbdf3c17c	-0.119021386
220	0x3d9d88ec	0.076921314
221	0xbf694b2a	-0.91130316
222	0xbe0b4530	-0.13600612
223	0xbd098497	-0.033573713
224	0x3f04668e	0.51718986
225	0x3e469d92	0.19396046
226	0x3d1a5b06	0.037684463
227	0xbcb20a8b	-0.021733543
228	0x3e59f059	0.21283092
229	0xbf0ed88b	-0.5579917
230	0xbd161130	-0.036637485
231	0x3cb0a422	0.02156264
232	0x3e9cee82	0.30650717
233	0x3f058dfe	0.5216979
234	0xbcb6ad2a	-0.022299368
235	0xbd864270	-0.06555641
236	0xbdb870a2	-0.09005858
237	0xbf4b71c0	-0.79470444
238	0xbd726aca	-0.059183873
239	0x3c983f16	0.01858477
240	0x3ec6e6e5	0.38848034
241	0x3ec19fd4	0.37817252
242	0x3e963601	0.29338077
243	0x3e507054	0.2035535
244	0xbdd0a3c0	-0.10187483
245	0xbf5906a5	-0.84775764
246	0x3e974c3d	0.29550353
247	0x3e516896	0.20450053
248	0x3f1720df	0.5903453
249	0x3e91b88d	0.28461114
250	0x3e1b8586	0.15187654
251	0x3d53ecfe	0.051739685
252	0xbe775606	-0.24153909
253	0xbf004872	-0.5011054
254	0x3de56964	0.11201742
255	0x3d854f40	0.06509256

fc1.bias f4 [256]
0	0xbec809de	-0.39070028
1	0xbea37322	-0.31923777
2	0xbdf10481	-0.11768437
3	0x3d25c32e	0.04046934
4	0xbee0789a	-0.43842012
5	0xbf3814a8	-0.7190652
6	0xbeb66cc2	-0.3562985
7	0xbf13ed6b	-0.57784146
8	0xbe8ec5f9	-0.27885416
9	0xbce52b54	-0.027974762
10	0xbeea6ff3	-0.45788535
11	0xbe4fea5f	-0.20304249
12	0xbf3e406b	-0.74317044
13	0xbefa80ad	-0.48926297
14	0xbeb36d38	-0.35044265
15	0xbe8eaa40	-0.27864265
16	0xbf46c0cc	-0.77637935
17	0xbea71500	-0.3263321
18	0xbf192312	-0.5981914
19	0xbe9b6840	-0.30352974
20	0x3cd93c2f	0.026517956
21	0x3e747ff6	0.23876938
22	0xbe0f96eb	-0.14022414
23	0x3e6f7e10	0.23387933
24	0xbec4c220	-0.38429356
25	0xbf850d7e	-1.0394742
26	0xbeb2f0ef	-0.34949443
27	0xbc8431f1	-0.016137095
28	0xbee93e85	-0.4555551
29	0xbd9e1841	-0.0771947
30	0xbeeb7e3c	-0.45994747
31	0xbec685cb	-0.3877395
32	0xbea315e5	-0.31852642
33	0x3d833847	0.064072184
34	0xbf1177d8	-0.5682349
35	0x3d7db20f	0.061937388
36	0xbef885a2	-0.48539454
37	0xbe822a4b	-0.25422892
38	0xbea917e5	-0.33026043
39	0xbe875b18	-0.26436687
40	0xbea61336	-0.32436532
41	0xbe828305	-0.25490585
42	0xbf2f72fa	-0.68534815
43	0xbe9022fe	-0.28151697
44	0x3dcccdaa	0.10000165
45	0xbedca655	-0.4309565
46	0xbf08b2d5	-0.53397876
47	0xbe418912	-0.18899944
48	0xbe1cdc23	-0.1531835
49	0xbe1346ce	-0.14382479
50	0xbe9a8f9e	-0.30187696
51	0xbdcc9000	-0.09988403
52	0xbec7ea87	-0.39046118
53	0xbec5494c	-0.38532484
54	0xbe3e2637	-0.18569265
55	0x3e1b842c	0.15187138
56	0xbf8f95c5	-1.1217581
57	0xbf183640	-0.5945778
58	0xbf0cd6ac	-0.55015063
59	0xbf41f272	-0.7576057
60	0xbe38a23a	-0.18030635
61	0xbeac8dc1	-0.337019
62	0xbe8a777c	-0.27044284
63	0xbf023d42	-0.5087472
64	0xbefe4f74	-0.49669993
65	0xbef8da22	-0.48603922
66	0xbf16badc	-0.58878875
67	0xbc0a1d51	-0.008429841
68	0xbe49721e	-0.19672439
69	0xbe55c2b5	-0.20875056
70	0xbf110c66	-0.56659544
71	0xbe8df2e9	-0.27724388
72	0xbf74fce5	-0.95698386
73	0xbe84d0d7	-0.25940582
74	0xbf1683ed	-0.5879505
75	0xbebbf6eb	-0.3671182
76	0xbc256695	-0.010095258
77	0xbeee122a	-0.46498233
78	0xbe08143c	-0.13288969
79	0xbe30ae57	-0.17254005
80	0xbed77e48	-0.42088532
81	0x3e2c8f3f	0.16851519
82	0xbe58bb20	-0.21165133
83	0xbe4c2bc9	-0.19938578
84	0xbf2393d4	-0.6389744
85	0xbea95b30	-0.33077383
86	0xbeb9994b	-0.36249766
87	0xbe598a54	-0.21244174
88	0xbc985e44	-0.018599637
89	0xbed26f9a	-0.4110077
90	0xbda38fdd	-0.07986424
91	0xbec5d83a	-0.3864153
92	0xbedd4d42	-0.43223006
93	0xbccb2b12	-0.024800811
94	0xbf00c73f	-0.50304025
95	0xbea0d684	-0.31413662
96	0xbdb0db0d	-0.086355306
97	0xbe041e49	-0.12902178
98	0xbef6062b	-0.4805158
99	0xbe74da11	-0.2391131
100	0xbeb0d850	-0.34540033
101	0xbf2b2750	-0.6685686
102	0xbf1cca40	-0.6124611
103	0xbf1a09db	-0.6017129
104	0xbf096814	-0.53674436
105	0xbe4134f5	-0.18867858
106	0xbd72de20	-0.059293866
107	0xbe3b59b6	-0.18295941
108	0xbecd7a10	-0.4013219
109	0xbe9ea5ef	-0.30985972
110	0xbeb27dab	-0.34861502
111	0xbed12957	-0.40851852
112	0xbd683f5a	-0.05670104
113	0xbea275d2	-0.31730515
114	0xbf033af9	-0.5126186
115	0xbe543676	-0.207239
116	0xbf1e3b8c	-0.6180961
117	0xbe8d04c4	-0.27542698
118	0xbe68de1c	-0.22740978
119	0xbd27a6e5	-0.040930647
120	0xbdc96db4	-0.09835377
121	0xbf03181f	-0.5120868
122	0xbef411d1	-0.47669843
123	0xbda671d7	-0.08127182
124	0xbf0b0f56	-0.54320276
125	0xbf2a0b13	-0.6642315
126	0xbe8564c2	-0.26053435
127	0xbdbe480d	-0.09291086
128	0xbd9ab002	-0.07553102
129	0xbea88f74	-0.32921946
130	0xbefdd23c	-0.4957446
131	0xbe837250	-0.2567315
132	0xbf293d06	-0.6610874
133	0xbf3e066d	-0.74228555
134	0xbe05de35	-0.13073047
135	0xbf2a500f	-0.6652841
136	0xbeddcb7b	-0.43319306
137	0xbea50ecb	-0.3223785
138	0xbe753c24	-0.23948723
139	0xbea2fc37	-0.3183305
140	0xbf040640	-0.51572037
141	0xbe2c6959	-0.16837062
142	0xbe3146d0	-0.17312169
143	0xbe234f11	-0.1594813
144	0xbf7012af	-0.9377851
145	0xbe9320dd	-0.2873601
146	0xbfb3b85e	-1.4040639
147	0xbeb43dc0	-0.35203362
148	0xbe959030	-0.2921157
149	0xbe819f79	-0.2531698
150	0xbd2a2ca8	-0.041546494
151	0xbee7b7da	-0.45257455
152	0xbedd4899	-0.4321945
153	0xbea776b8	-0.32707763
154	0xbeaa065a	-0.3320797
155	0x3cbd7640	0.023127675
156	0xbe1cf1ce	-0.15326616
157	0xbe9bdbe8	-0.30441213
158	0xbefce9b4	-0.4939705
159	0xbebc1cb8	-0.3674066
160	0xbeb450b8	-0.35217834
161	0x3dcdb1ec	0.100437015
162	0xbe4c5bc3	-0.1995688
163	0xbeabb63a	-0.33537465
164	0xbe934eba	-0.28771
165	0xbeb3c739	-0.35112932
166	0xbf29b869	-0.6629701
167	0xbf0539fc	-0.520416
168	0xbd912e7d	-0.07088945
169	0xbf100f6e	-0.56273544
170	0xbe74ca24	-0.23905236
171	0xbef3398e	-0.47504848
172	0xbf71e87d	-0.94495374
173	0xbe6fba11	-0.23410822
174	0xbe2cb4af	-0.168658
175	0xbd6de577	-0.058080163
176	0xbe923db2	-0.28562695
177	0xbe6500e9	-0.22363628
178	0xbf1c7291	-0.61112314
179	0xbf47a660	-0.77988243
180	0xbe7c7592	-0.24654225
181	0xbead9308	-0.33901238
182	0xbe33020c	-0.1748125
183	0x3d1f4ba4	0.038890496
184	0xbf204669	-0.6260744
185	0xbe46669e	-0.19375083
186	0xbef24b74	-0.4732319
187	0xbf760075	-0.9609445
188	0x3d50007a	0.050781704
189	0xbf1595c1	-0.5843163
190	0xbea95f87	-0.33080694
191	0xbeae0366	-0.33986968
192	0xbf252a76	-0.64517915
193	0xbdb17396	-0.086646244
194	0xbedcc77a	-0.4312094
195	0xbeacdb2f	-0.33760974
196	0xbed8fe94	-0.42381728
197	0xbe208683	-0.15676312
198	0xbe680c73	-0.22660999
199	0xbf0246f6	-0.5088953
200	0xbef46899	-0.47736052
201	0xbeeeaf54	-0.4661814
202	0xbf874070	-1.056654
203	0xbecc9819	-0.3995979
204	0x3d134667	0.035955813
205	0xbf274d6e	-0.65352523
206	0xbe6f238d	-0.23353405
207	0xbee4b80e	-0.44671673
208	0xbe7e3ab3	-0.2482708
209	0xbe325c79	-0.17418088
210	0xbe9110e1	-0.2833319
211	0xbe94105b	-0.28918728
212	0x3d13f7db	0.036125045
213	0xbe4ee7c1	-0.20205595
214	0xbeb41eba	-0.35179693
215	0xbe68a6ba	-0.22719851
216	0xbe29c432	-0.16578749
217	0x3dde5604	0.1085625
218	0xbd4a5ca5	-0.04940476
219	0xbeba796a	-0.36420757
220	0xbf07e356	-0.5308126
221	0x3d65842c	0.056034252
222	0xbeb35128	-0.35022855
223	0xbea29016	-0.31750554
224	0xbf3bc04c	-0.73340297
225	0xbecfc552	-0.4058023
226	0xbe971cf0	-0.29514265
227	0xbdea936b	-0.11453899
228	0xbeb9b519	-0.3627098
229	0xbee8ce7f	-0.45470044
230	0xbeb6e18e	-0.3571896
231	0xbf15466f	-0.583106
232	0xbebd651e	-0.3699121
233	0x3e9048ad	0.28180447
234	0xbeb9488e	-0.36188167
235	0xbf568f22	-0.83812153
236	0x3e14426b	0.14478461
237	0xbe5b620f	-0.21424125
238	0xbf09292b	-0.5357844
239	0xbde02185	-0.10943893
240	0xbeb7b40d	-0.35879555
241	0xbed9e5ca	-0.42558128
242	0xbf00bc05	-0.50286895
243	0x3c8a78e0	0.01690334
244	0xbef62e0e	-0.48082012
245	0xbe531090	-0.20611787
246	0xbe542674	-0.20717794
247	0xbe11753d	-0.14204879
248	0xbf445f76	-0.7670816
249	0xbf687244	-0.90799356
250	0xbe6be66c	-0.23037118
251	0xbf0fd4cf	-0.56184095
252	0xbf1b28ee	-0.6060933
253	0xbf0f3a20	-0.55948067
254	0xbe872ced	-0.26401463
255	0xbeb16f57	-0.34655258

fc2.weight f4 [256, 256]
0	0x3d865ac0	0.06560278
1	0x3c12f627	0.00896982
2	0xbd22a169	-0.039704714
3	0xbd085f75	-0.03329416
4	0xbdb6cb58	-0.089255035
5	0xbc4da012	-0.012550371
6	0xbdbeb574	-0.09311953
7	0xbd6de736	-0.058081828
8	0x3d9f0f0a	0.0776654
9	0x3d895022	0.06704737
10	0x3d8a3701	0.067487724
11	0xbd46810b	-0.04846291
12	0x3cdf111e	0.027229842
13	0xbd611e0d	-0.0549603
14	0x3d65abce	0.05607205
15	0xbbb51c63	-0.0055270656
16	0x3c1cc549	0.009568521
17	0xbd794a70	-0.060862005
18	0xbe1e7ae6	-0.1547657
19	0xb999d72a	-0.00029342744
20	0xbe677141	-0.22601797
21	0xbd830639	-0.06397671
22	0xbd1bcd83	-0.038037788
23	0xbd5fc50f	-0.05463129
24	0xbde50d89	-0.11184222
25	0xbbec35af	-0.007208548
26	0xbd90e40a	-0.07074745
27	0xbd943a3c	-0.0723767
28	0x3cbbf49c	0.022943787
29	0xbda36fdd	-0.079803206
30	0xb91db436	-0.0001503982
31	0x3c649db7	0.013953618
32	0xbe201db0	-0.15636325
33	0xbce1cbf4	-0.027563073
34	0xbe2edf92	-0.17077473
35	0xbe469036	-0.1939095
36	0xbdc5ea6b	-0.09663852
37	0xbc4e6f62	-0.012599798
38	0xbd2a6563	-0.041600596
39	0xbdb31e06	-0.08745961
40	0x3c3413fb	0.010991092
41	0xbd267156	-0.04063543
42	0xbca9d7d5	-0.0207328
43	0x3d242453	0.040073704
44	0x3d2db3a4	0.042407647
45	0xbdb9b885	-0.090683974
46	0xbb157815	-0.002280717
47	0xbc1be6d2	-0.009515481
48	0x3d2f5dd3	0.042814087
49	0xbe584f5f	-0.21124028
50	0xbd125465	-0.035725016
51	0x3daeb0b5	0.08529798
52	0xbd841450	-0.06449187
53	0x3e061860	0.13095236
54	0x3df43de7	0.119258694
55	0xbe37dbd9	-0.17954959
56	0x3c9fd96e	0.019512858
57	0xbc04b8f1	-0.008100734
58	0xbc27c6a9	-0.010240235
59	0xbcb74ead	-0.022376383
60	0xbd76d83b	-0.060264807
61	0xbd78b533	-0.06071968
62	0xbd3b1065	-0.045669932
63	0xbd501ebc	-0.05081056
64	0x3deca23c	0.11554381
65	0xbdbd6811	-0.09248365
66	0x3ab3a91e	0.0013707017
67	0xbe3ee0e7	-0.18640481
68	0x3cc93f63	0.024566358
69	0xbdca0de7	-0.09865933
70	0x3ced3e28	0.028960302
71	0xbd69aa17	-0.057046976
72	0xbe07f7a6	-0.13278064
73	0x3e35019b	0.17676394
74	0xbe50b878	-0.20382869
75	0x3c8184e9	0.015810447
76	0x3d69948e	0.05702644
77	0x3d89ea3d	0.067341305
78	0xbd269db0	-0.040677726
79	0xbea2028e	-0.31642574
80	0xbbeeedca	-0.0072915303
81	0xbd725022	-0.05915845
82	0x3cb03bfc	0.021512978
83	0xbe138de1	-0.14409591
84	0xbd24f797	-0.040275183
85	0xbdadf8c5	-0.08494715
86	0xbd4c5c75	-0.04989286
87	0xbdea4629	-0.11439163
88	0xbd53643a	-0.051609255
89	0x3dba7dbb	0.091060124
90	0xbd81378c	-0.06309423
91	0xbd4e2c66	-0.05033531
92	0xbda613a4	-0.08109215
93	0x39a9dc48	0.00032398314
94	0xbdf71d22	-0.120661035
95	0xbe685a57	-0.22690712
96	0xbb00d56f	-0.0019658466
97	0x3df7fc9a	0.12108727
98	0xbcd3d1a9	-0.02585681
99	0x3e2018c9	0.15634455
100	0xbe7fb831	-0.24972607
101	0xbddf138b	-0.108923994
102	0xbdefcc5f	-0.117089026
103	0xbe005346	-0.12531766
104	0xbd068b01	-0.03284741
105	0x3d971b89	0.07378299
106	0xbd3477ed	-0.044059683
107	0x3d0944c9	0.033512864
108	0xbd3002ec	-0.042971537
109	0xbd6eaaa7	-0.058268216
110	0xbe5722e7	-0.21009408
111	0xbd33ed30	-0.04392737
112	0x3e089770	0.13339019
113	0x3d8cc67b	0.06873795
114	0xbd0f9fb8	-0.03506443
115	0xbdc1fa24	-0.09471539
116	0xbce0cad6	-0.02744047
117	0xbda10130	-0.078615546
118	0xbcc16b8b	-0.02361085
119	0x3cfb6ec6	0.03069247
120	0x3b65812d	0.0035019622
121	0xbc9c785b	-0.019100359
122	0x3dcff17d	0.10153482
123	0xbd25bf8d	-0.04046588
124	0x3d32a383	0.04361297
125	0xbe18bf88	-0.14916813
126	0xbd765129	-0.060135994
127	0xbd07b1ca	-0.033128537
128	0xbe701b7e	-0.23447987
129	0xbe3fbfa4	-0.18725449
130	0xbd8fc13e	-0.0701928
131	0x3caf1308	0.02137138
132	0xbe0e82e0	-0.13917112
133	0xbe4b47fb	-0.19851677
134	0xbb38d693	-0.0028204068
135	0xbdfd5ae1	-0.123708494
136	0xbda1e812	-0.07905592
137	0xbdabb79f	-0.08384632
138	0xbd54e57f	-0.051976677
139	0x3c80d5ba	0.015726913
140	0xbd9e50b6	-0.07730238
141	0x3b853e78	0.0040662847
142	0xbdb4a1d1	-0.088199265
143	0x3e463afa	0.19358435
144	0xbe4f8eaf	-0.20269273
145	0xbe29e8e8	-0.16592753
146	0xbdd985b0	-0.10621202
147	0x3d50d03d	0.05097984
148	0xbc90b1e4	-0.01766295
149	0xbe09304e	-0.13397333
150	0x3da6e935	0.081499495
151	0xbc7fed1d	-0.015620497
152	0xbd02c36a	-0.031924643
153	0xbe0b9e63	-0.13634638
154	0x3db2a145	0.08722166
155	0x3d5355ae	0.051595382
156	0xbd538075	-0.051636178
157	0xbbef6316	-0.007305513
158	0xbe0cfad4	-0.13767558
159	0x3af3b6da	0.0018593923
160	0x3ce69b83	0.028150326
161	0x3d05e166	0.03268566
162	0x3e00452e	0.1252639
163	0x3d289cb4	0.04116507
164	0xbc3e3afc	-0.011610743
165	0xbccfd274	-0.025368907
166	0xbdb56a8b	-0.08858212
167	0xbd38f8b7	-0.045159068
168	0x3d600447	0.05469158
169	0xbcd4fd5d	-0.02599972
170	0xbc6aa044	-0.014320437
171	0xbd09aa2a	-0.033609547
172	0xbe83307d	-0.2562293
173	0xbb8d0762	-0.0043038586
174	0x3d9fde48	0.07806069
175	0x3d2c19a7	0.04201665
176	0x3cf40bde	0.029790815
177	0xbd8fc4d6	-0.07019965
178	0x3bfa42f1	0.0076373746
179	0xbe11dc2b	-0.14244144
180	0xbd5f0945	-0.0544522
181	0xbe3389d8	-0.17533052
182	0xbda27275	-0.07931987
183	0x3b27f221	0.0025626498
184	0xbdf43577	-0.1192426
185	0xbd0dca77	-0.034616914
186	0xbdbe125c	-0.092808455
187	0xbe1a6cf3	-0.15080623
188	0x3d3cf234	0.04612942
189	0x3d46634a	0.048434533
190	0xbdaf3efb	-0.085569344
191	0x3bed391e	0.007239475
192	0xbcba1e38	-0.022719488
193	0xbd939d70	-0.07207763
194	0xbd6515e2	-0.055929072
195	0xbe060b49	-0.13090242
196	0xbda71917	-0.081590824
197	0x3ddaa59c	0.10676119
198	0xbd5669f1	-0.052347127
199	0xbe0333a4	-0.12812668
200	0x3c94aefd	0.018149847
201	0xbd1c2cd5	-0.038128693
202	0xbd557327	-0.05211177
203	0xbd78a959	-0.060708378
204	0xbe120a82	-0.14261821
205	0xbe2a4d9d	-0.1663117
206	0xbe213bda	-0.15745488
207	0xbda12f09	-0.07870299
208	0xbdd688e8	-0.104753315
209	0x3d1ea3e9	0.038730536
210	0xbce4d6b7	-0.027934415
211	0x3d18fdfb	0.03735159
212	0xbcb247dd	-0.021762783
213	0xbe0d7167	-0.13812791
214	0x3db87853	0.09007325
215	0xbca1d532	-0.01975498
216	0xbe14491e	-0.14481017
217	0x3b9a216f	0.0047036926
218	0x3d90b705	0.07066158
219	0xbe23072d	-0.15920706
220	0xbe11ec0f	-0.14250205
221	0x3c092ace	0.008372022
222	0xbde68f9b	-0.11257859
223	0xbc62aeba	-0.013835603
224	0xbd7d1cc9	-0.06179503
225	0x3b8f7f0f	0.0043791602
226	0xbccc6111	-0.024948629
227	0x3d90e69f	0.070752375
228	0xbd17e7f5	-0.037086446
229	0xbc996532	-0.018725011
230	0xbcfdd458	-0.030985042
231	0xbd53df8b	-0.05172686
232	0xbe1410d7	-0.14459549
233	0x3bd040c1	0.0063553755
234	0xbc880724	-0.016604967
235	0xbd9fb86c	-0.077988476
236	0xbce2258e	-0.027605798
237	0xbdf356d4	-0.118817955
238	0x3e1151df	0.14191388
239	0xbd3dabef	-0.046306547
240	0x3d305bc3	0.04305626
241	0x3cb6f99a	0.022335816
242	0xbd3ef560	-0.046620727
243	0xbdd09f81	-0.10186673
244	0xbd8854ae	-0.06656776
245	0xbe5324b0	-0.20619464
246	0xbbca07f1	-0.0061654975
247	0x3d10b7b2	0.035331436
248	0xbe60bae8	-0.21946299
249	0xbda1f844	-0.07908681
250	0x3c67ecf3	0.014155614
251	0xbc3b9b27	-0.011450565
252	0xbd5f2ca2	-0.054485925
253	0x3ac82880	0.0015270859
254	0x3e0de9ff	0.13858794
255	0xbd3603c5	-0.04443719

fc2.bias f4 [256]
0	0xbe378f14	-0.17925674
1	0xbe050925	-0.1299177
2	0xbdc8e38d	-0.09809027
3	0xbe268dd8	-0.16265047
4	0xbdffcfa1	-0.12490774
5	0xbe3faa79	-0.18717374
6	0xbdabc4ca	-0.08387144
7	0xbe01d553	-0.12679033
8	0xbe7bac84	-0.24577528
9	0xbe47dada	-0.19517079
10	0xbdd26550	-0.1027323
11	0xbe1c6812	-0.15274075
12	0xbe2aa9b9	-0.16666307
13	0xbe11fba4	-0.1425615
14	0xbe35eeda	-0.17766896
15	0xbd9ac257	-0.07556599
16	0xbe25a655	-0.16176732
17	0xbdd44094	-0.1036388
18	0xbd81abd1	-0.063315995
19	0xbdf68974	-0.12037936
20	0xbe265d60	-0.16246557
21	0xbe10034f	-0.14063762
22	0xbe52993f	-0.20566271
23	0xbd58d3ec	-0.05293648
24	0xbe5d636a	-0.21619955
25	0xbe25b151	-0.16180922
26	0xbe006367	-0.12537919
27	0xbe571599	-0.21004333
28	0xbdf936e6	-0.12168674
29	0xbe13a200	-0.14417267
30	0xbe187064	-0.14886624
31	0xbdef7232	-0.11691703
32	0xbd26062c	-0.04053323
33	0xbe9b9b26	-0.30391806
34	0xbdce99f3	-0.10087957
35	0xbde8f537	-0.11374896
36	0xbe69ea6e	-0.22843334
37	0xbe06a150	-0.13147473
38	0xbe05032b	-0.1298949
39	0xbe4d62f9	-0.20057286
40	0xbdecba0b	-0.115589224
41	0xbe13ceca	-0.14434353
42	0xbe2e7d72	-0.17040041
43	0xbe2538d2	-0.16134956
44	0xbdae6bae	-0.08516632
45	0xbde4994f	-0.11162054
46	0xbd9bbcb2	-0.0760435
47	0xbd8af477	-0.06784909
48	0xbe7de022	-0.24792531
49	0xbe22abd9	-0.15885867
50	0xbdfae224	-0.12250164
51	0xbe21f6a6	-0.15816745
52	0xbe0f0586	-0.13966951
53	0xbddfec5b	-0.10933753
54	0xbe206cb0	-0.15666461
55	0xbea23b57	-0.31685898
56	0xbdca9325	-0.09891347
57	0xbdd4c0cf	-0.10388338
58	0xbea7386a	-0.32660228
59	0xbe4b340d	-0.19844075
60	0xbd4f23f9	-0.050571416
61	0xbdfe5f22	-0.12420489
62	0xbe002200	-0.1251297
63	0xbe81bb68	-0.25338292
64	0xbe82a2b7	-0.25514767
65	0xbded43ff	-0.11585235
66	0xbdb26201	-0.08710099
67	0xbe06988e	-0.13144132
68	0xbde19e1d	-0.11016486
69	0xbe5a99d9	-0.2134775
70	0xbe1a0954	-0.15042621
71	0xbe19c51b	-0.15016596
72	0xbe8240d4	-0.25440085
73	0xbdc85388	-0.09781557
74	0xbd927512	-0.07151236
75	0xbe018f07	-0.12652217
76	0xbe5e5dbe	-0.21715447
77	0xbde5bbd3	-0.11217465
78	0xbdf5b3a9	-0.11997158
79	0xbe97d296	-0.29652852
80	0xbde522da	-0.11188288
81	0xbdeaecba	-0.11470933
82	0xbe2cb5da	-0.16866246
83	0xbe48f5b5	-0.1962498
84	0xbdc34569	-0.09534723
85	0xbe86a47a	-0.2629736
86	0xbe0f6313	-0.14002638
87	0xbe491b7e	-0.19639394
88	0xbda8b785	-0.082381286
89	0xbe680d5c	-0.22661346
90	0xbdeef617	-0.11668032
91	0xbe322658	-0.1739744
92	0xbe45dc7b	-0.19322388
93	0xbdf1c9eb	-0.11806091
94	0xbe871dd5	-0.26389948
95	0xbe33d4d0	-0.1756165
96	0xbe08ae8e	-0.13347837
97	0xbe25e37e	-0.16200063
98	0xbe5ef87f	-0.21774481
99	0xbe144a13	-0.14481382
100	0xbe286940	-0.164464
101	0xbca35a29	-0.019940453
102	0xbe01c0ce	-0.12671205
103	0xbdb2d968	-0.08732873
104	0xbe905cf9	-0.28195933
105	0xbde5831b	-0.11206647
106	0xbf08cc5a	-0.53436816
107	0xbdcabd4b	-0.09899386
108	0xbdbb1b48	-0.09136063
109	0xbe00dc7c	-0.12584108
110	0xbe674f49	-0.22588839
111	0xbe8de874	-0.2771641
112	0xbe40ada0	-0.18816233
113	0xbe1ffd3c	-0.15623945
114	0xbdac3852	-0.0840918
115	0xbe2bae5f	-0.16765736
116	0xbe25ab72	-0.16178682
117	0xbe274297	-0.16333996
118	0xbd8efc28	-0.06981689
119	0xbe2cc6b9	-0.16872682
120	0xbdee377e	-0.11631678
121	0xbe085df1	-0.13317086
122	0x3e2b75c7	0.16744147
123	0xbe36578b	-0.17806832
124	0xbde2b549	-0.11069734
125	0xbe5d73ba	-0.21626177
126	0xbdc12b5e	-0.094321
127	0xbe2fdbfc	-0.17173761
128	0xbd4e8488	-0.05041936
129	0xbd89905d	-0.06716988
130	0xbdebbeab	-0.115109764
131	0xbd768b23	-0.060191285
132	0xbe290e46	-0.16509351
133	0xbe14fb2a	-0.14548936
134	0x3c838196	0.016053002
135	0xbde177f5	-0.11009208
136	0xbe46710b	-0.1937906
137	0xbe1b2eef	-0.15154622
138	0xbe361681	-0.17782022
139	0xbe106c51	-0.1410382
140	0xbe0db33e	-0.13837907
141	0xbde3517b	-0.110995255
142	0xbdbc2954	-0.0918757
143	0xbe5d37ae	-0.21603271
144	0xbdcef15c	-0.101046294
145	0xbe20009f	-0.15625237
146	0xbe192c67	-0.14958344
147	0xbdad5d12	-0.084650174
148	0xbe004b32	-0.12528685
149	0xbe5f06f2	-0.21779993
150	0xbd5e8158	-0.05432257
151	0xbe6b5a7b	-0.22983734
152	0xbe17acd2	-0.1481202
153	0xbdbae38d	-0.09125433
154	0xbe8a7c36	-0.2704789
155	0xbe47b4d7	-0.19502579
156	0xbe11ff35	-0.1425751
157	0xbe3d2475	-0.18470939
158	0xbe018c4c	-0.12651175
159	0xbdb3b5fe	-0.08774947
160	0xbe679ada	-0.22617665
161	0xbdd3e6b2	-0.10346736
162	0xbe023444	-0.1271525
163	0xbd1b1fc7	-0.037872102
164	0xbddbe6b9	-0.10737366
165	0xbe4c35f7	-0.19942461
166	0xbe598bb2	-0.21244696
167	0xbe7e93f1	-0.24861123
168	0xbe6a7c24	-0.22898918
169	0xbe06307d	-0.13104434
170	0xbe385024	-0.17999321
171	0xbe5521b3	-0.20813636
172	0xbe02feda	-0.1279253
173	0xbe10b06c	-0.141298
174	0xbdd16795	-0.10224835
175	0xbe05cbaa	-0.13065973
176	0xbdb2105f	-0.08694529
177	0xbda470fc	-0.080293626
178	0xbe3f90fc	-0.18707651
179	0xbdb921f6	-0.09039681
180	0xbd92e764	-0.071730405
181	0xbe3aaed1	-0.1823075
182	0xbd9fa50e	-0.077951536
183	0x3d0d3d71	0.034482423
184	0xbe5f86f4	-0.21828824
185	0xbd3a5a2b	-0.045496147
186	0xbe137acb	-0.1440231
187	0xbe1ff715	-0.15621598
188	0xbe475528	-0.19466078
189	0xbe5516c2	-0.20809463
190	0xbdbe8d04	-0.0930424
191	0xbe4207c2	-0.18948272
192	0xbd880b7e	-0.06642817
193	0xbe0aa120	-0.13538027
194	0xbdb84192	-0.089968815
195	0xbdb81d56	-0.089899704
196	0xbdbbda73	-0.09172525
197	0xbe3ae397	-0.18250881
198	0x3c28bacb	0.010298441
199	0xbe0a317b	-0.13495438
200	0xbe34a7da	-0.17642155
201	0xbe3aff73	-0.18261509
202	0xbe0b2cb1	-0.13591267
203	0xbe226f33	-0.15862732
204	0xbe2a6eef	-0.1664388
205	0xbe640458	-0.22267282
206	0xbe96331d	-0.2933587
207	0xbda66a79	-0.08125777
208	0xbddf76d9	-0.1091134
209	0xbd8e62be	-0.06952427
210	0xbe00f0e9	-0.125919
211	0xbe0f6f5f	-0.14007328
212	0xbdaca975	-0.08430759
213	0xbe2999eb	-0.16562621
214	0xbe2a8244	-0.16651255
215	0xbe4204b7	-0.18947111
216	0xbdf79b09	-0.120901175
217	0xbde84063	-0.11340406
218	0xbe440e79	-0.19146146
219	0xbda65a71	-0.08122719
220	0xbda11f5e	-0.07867311
221	0xbe107e28	-0.14110625
222	0xbe2485b1	-0.16066624
223	0xbe99ac65	-0.3001434
224	0xbe683273	-0.22675495
225	0xbdc97e6a	-0.09838565
226	0xbe870452	-0.26370484
227	0xbdd31e23	-0.103084825
228	0xbe2f1338	-0.17097175
229	0xbe1e9a25	-0.15488489
230	0xbdbbfa6d	-0.09178624
231	0xbdc0e302	-0.09418298
232	0xbdb2f097	-0.08737295
233	0xbea5fd9b	-0.32420048
234	0xbe02fa2d	-0.12790747
235	0xbe2dfd92	-0.1699126
236	0xbdf798ec	-0.120897144
237	0xbe5196bb	-0.20467655
238	0xbe44d9d3	-0.19223718
239	0xbe28ba51	-0.16477324
240	0xbe0bdaca	-0.1365768
241	0xbe3af4ac	-0.18257397
242	0xbe482f39	-0.19549264
243	0xbe469908	-0.19394314
244	0xbdf39d5a	-0.11895247
245	0xbe01dfa5	-0.1268297
246	0xbe3ff1dc	-0.18744606
247	0xbe8e1e30	-0.27757406
248	0xbe285817	-0.16439854
249	0xbe0a0115	-0.13476975
250	0xbe518343	-0.20460229
251	0xbe559070	-0.2085588
252	0xbe1f1547	-0.1553546
253	0xbd9e6be1	-0.0773542
254	0xbe4c2502	-0.19935992
255	0xbe85ba1d	-0.26118556

fc3.weight f4 [1, 256]
0	0xbc84a92a	-0.016193945
1	0xb91ab0e0	-0.00014752476
2	0xbcc8631a	-0.024461318
3	0x3bd0f337	0.0063766497
4	0xbbe78256	-0.007065098
5	0xbb5d74a3	-0.0033791445
6	0xbbea67dd	-0.0071534947
7	0x3c2a1cb7	0.010382823
8	0xbcb51dc2	-0.022108916
9	0xbd0d12a8	-0.03444162
10	0xbc00b735	-0.00785618
11	0xbc6d1e5f	-0.014472573
12	0xbaae68ba	-0.0013306357
13	0x3b4fe7c4	0.0031723836
14	0x3ab12734	0.0013515712
15	0x3bf55264	0.0074866284
16	0x39c55260	0.00037636142
17	0xbbe2ea03	-0.006924869
18	0xba87efbf	-0.0010371133
19	0xbb6bce18	-0.0035980996
20	0xbc676e62	-0.014125438
21	0xbb857177	-0.004072364
22	0xbc91743f	-0.017755626
23	0x3c514f4f	0.012775256
24	0x3c9f5bb8	0.019452915
25	0xba07d981	-0.0005182252
26	0xbc9ef607	-0.019404424
27	0x3c7755d9	0.015096151
28	0x3a7b168e	0.0009578251
29	0x3b1727f1	0.0023064578
30	0xbcadbfe3	-0.021209663
31	0x3c3fa569	0.011697152
32	0x3bad6210	0.005291231
33	0xbddadb9c	-0.106864184
34	0xbc1b19c7	-0.009466595
35	0xbc1f13f2	-0.009709345
36	0xbd2d70d1	-0.04234392
37	0xba3f9247	-0.0007307869
38	0x3c019f54	0.007911522
39	0x3b3702d1	0.0027925263
40	0xbd0768b6	-0.033058845
41	0xbb845375	-0.004038269
42	0xbbe865e4	-0.0070922244
43	0x3cba3ca7	0.022734
44	0xbc41a82c	-0.01181988
45	0x3c43c9cc	0.011949968
46	0xbcc6be60	-0.0242607
47	0x3b5e9455	0.0033962924
48	0xbd14b464	-0.036304846
49	0xbc288d42	-0.010287585
50	0x3cd884c7	0.0264305
51	0x3bb4a7be	0.0055131605
52	0x3b72137b	0.003693788
53	0x3b695478	0.0035603326
54	0x3b9b1489	0.0047326726
55	0x3aa10614	0.0012285137
56	0x3cdd9eb3	0.027053213
57	0xba49628e	-0.00076822273
58	0xbd3d531d	-0.04622184
59	0xbe2a20fb	-0.16614144
60	0xbd4eec3b	-0.050518256
61	0xbc87430d	-0.016511464
62	0x3d4c6890	0.049904406
63	0x3c5860f5	0.01320671
64	0xbc1bb8ee	-0.00950454
65	0x3d5e6920	0.054299474
66	0x3c1c79b5	0.009550502
67	0x3b8e20ba	0.0043373974
68	0x3c4136ac	0.01179282
69	0xbd2c7a55	-0.042108852
70	0xbde08275	-0.10962383
71	0x3c0ffb46	0.008787936
72	0xbd94d52b	-0.07267221
73	0x3c8d6af8	0.01726292
74	0x3c1bebd5	0.009516676
75	0xbc8e5a1d	-0.017376954
76	0x3d69fc98	0.057125658
77	0xbc6ad9e7	-0.0143341785
78	0x3c4e2ce8	0.012583949
79	0x3d89f27c	0.06735703
80	0xbcd9d1a7	-0.026589228
81	0xbc9ef207	-0.019402517
82	0x3bc1c7d7	0.0059137153
83	0x3c89feab	0.016845068
84	0x3dd55d24	0.10418156
85	0xbd25803c	-0.040405497
86	0xbd684f3b	-0.056716185
87	0x3bd41d50	0.006473221
88	0xbcafd0d6	-0.021461885
89	0x39ed356b	0.00045243962
90	0xbdc72573	-0.0972394
91	0x3c047ba3	0.008086118
92	0xbcab6c27	-0.020925594
93	0x3a1a7958	0.00058927154
94	0x3cc3f974	0.02392266
95	0x398a2246	0.00026346947
96	0xbdef6f79	-0.116911836
97	0xbd57b859	-0.052666042
98	0xbc6f96b3	-0.014623332
99	0x3bf89199	0.007585716
100	0xbbd6ea2d	-0.0065586776
101	0x3df74d85	0.120753326
102	0xbc384f67	-0.0112494
103	0x3c8562e5	0.016282508
104	0xbc19e4b2	-0.009392904
105	0x3c8d8877	0.017276986
106	0xbd86a115	-0.06573693
107	0xbd3dfad4	-0.046381786
108	0x3c5be761	0.013421864
109	0x3c8cb3ba	0.017175544
110	0x3ca9ebe8	0.020742372
111	0x3c28cef8	0.010303251
112	0xbc32fbff	-0.010924338
113	0x3d6c7c2e	0.057735614
114	0xbc28e70f	-0.010308995
115	0xbc25869c	-0.010102894
116	0xbdba1170	-0.09085357
117	0xbd0c05c5	-0.03418519
118	0x3c847fe4	0.016174264
119	0x3c54bf6d	0.012985093
120	0x3bb25cd3	0.0054431944
121	0xbbd2bee3	-0.006431447
122	0xbd095e73	-0.03353734
123	0x3c89b913	0.016811883
124	0xbb87d805	-0.0041456246
125	0x3cc67be7	0.024229003
126	0x3c623752	0.013807135
127	0x3c820d16	0.01587538
128	0x3c76f3c5	0.015072768
129	0xbc24c61e	-0.010057
130	0x3c5383b3	0.0129098175
131	0xbbcf23c6	-0.006321403
132	0xbd1554da	-0.036457874
133	0xbb937477	-0.0044999677
134	0x3d0f7a58	0.035028785
135	0xbb43fa07	-0.0029903667
136	0x3c24b59a	0.010053063
137	0x3ce3bf3f	0.027801154
138	0xbc77b027	-0.015117682
139	0x3c4d3514	0.012524862
140	0xbc2472b6	-0.010037115
141	0x3c2d7093	0.010585922
142	0x3ca1a39f	0.01973134
143	0xbc9cdcef	-0.019148318
144	0xbc55bf06	-0.013046032
145	0x3b6358f1	0.0034690464
146	0xbce256e2	-0.02762932
147	0xbc100634	-0.008790541
148	0xbc3526ec	-0.011056643
149	0x3cc34d74	0.023840643
150	0x3d1d131c	0.038348302
151	0xbaa13a46	-0.0012300692
152	0xbb938107	-0.0045014652
153	0xb9c50836	-0.00037580886
154	0x3d316ce5	0.04331674
155	0xbc317585	-0.0108312415
156	0xbc0f9574	-0.00876366
157	0x3bcb206b	0.006198933
158	0x3c8298ad	0.015941942
159	0x3c0d1e5e	0.008613197
160	0xbbdd3e7d	-0.006751834
161	0x3b9eac6b	0.004842331
162	0xbb7b67f7	-0.0038361528
163	0x3cee1851	0.02906433
164	0xbac97014	-0.0015368485
165	0x3b5b3bad	0.0033452318
166	0x3b41b5d1	0.0029557834
167	0x3c29b1c0	0.01035732
168	0xbc3f31a0	-0.011669546
169	0x3ca67e0a	0.020323772
170	0xbb7f7bfc	-0.0038983813
171	0x3bd999d8	0.006640654
172	0x3e0f4701	0.1399193
173	0xbcf1e746	-0.029529225
174	0xbd0b67c6	-0.034034513
175	0xbc8ff9c0	-0.017575145
176	0x3d88fd64	0.066889554
177	0xbccbead4	-0.024892248
178	0x3c03b135	0.008037855
179	0xbc9f9d7c	-0.019484274
180	0xbc668cd0	-0.014071658
181	0x3b8743a5	0.004127937
182	0xbc0b8b26	-0.008517062
183	0x3d8314f2	0.064004794
184	0xbc2f13f3	-0.010685909
185	0xbc9b8ddb	-0.01898854
186	0x3c4e6565	0.0125974165
187	0xbcbb9bbd	-0.02290141
188	0xbd6ed491	-0.058308188
189	0x3caab98b	0.020840427
190	0xbcce699d	-0.025196845
191	0x3bd7134c	0.0065635797
192	0x3abf2150	0.0014582071
193	0x3d1717a9	0.0368878
194	0xbc8476b1	-0.016169878
195	0x3cc4f1e6	0.024041127
196	0xba21eb44	-0.000617672
197	0xbce86f4e	-0.028373387
198	0xbd4800db	-0.04882894
199	0x3b25c0d0	0.0025291927
200	0x3bebe841	0.0071993177
201	0xbbd9bf15	-0.006645093
202	0xbc52c006	-0.012863165
203	0x3ca59094	0.020210542
204	0x39904a6d	0.00027521272
205	0xbc8d8611	-0.017275842
206	0x3c40dcd7	0.011771402
207	0xbd5d5935	-0.054040153
208	0xba9f728e	-0.0012164877
209	0x3c16a728	0.009195127
210	0xbc1dca21	-0.009630711
211	0x3b14b12f	0.0022688617
212	0xbc587a55	-0.01321276
213	0x3c291dc5	0.010322039
214	0x3cc3434c	0.0238358
215	0xbc21fd09	-0.009886988
216	0xbbbce2c1	-0.005764336
217	0xbd18077f	-0.037116524
218	0xbc303809	-0.010755547
219	0xba8c0125	-0.0010681493
220	0xbd2f3b41	-0.04278112
221	0x3c6397e1	0.013891191
222	0xbb890a3b	-0.004182128
223	0x3db8cd8d	0.09023581
224	0xba0b9a45	-0.0005325417
225	0xba91f546	-0.0011135719
226	0xbc8dc32e	-0.017304983
227	0xb936f662	-0.00017448657
228	0x3baa887e	0.0052042594
229	0x3cdbc057	0.026825113
230	0x3c832e9d	0.016013438
231	0x3ce845b8	0.028353557
232	0x3c8acb37	0.016942604
233	0xbcb68632	-0.022280786
234	0x3c22f906	0.009947067
235	0x3cd1750f	0.025568513
236	0xbbf47ac3	-0.0074609234
237	0x3cb35d8d	0.021895194
238	0xbbe9dcd2	-0.0071369195
239	0x3d3074ca	0.04308013
240	0x3c5ef21c	0.013607528
241	0x3ca83d65	0.020537088
242	0x3cb1f4ad	0.021723116
243	0x3d525965	0.051354785
244	0x3b305635	0.0026906852
245	0x3c127ffe	0.0089416485
246	0x3cbe3981	0.02322078
247	0x3bf1e3af	0.0073818783
248	0xbe132f1e	-0.14373443
249	0x3c86e5c4	0.016466983
250	0xbc2e785c	-0.010648813
251	0x3ca9cae8	0.020726636
252	0xbdac7fe7	-0.08422833
253	0x3cbf8515	0.023378888
254	0x3d4b0caf	0.049572643
255	0x3c9c8881	0.019108059

bn1.weight f4 [256]
0	0x3de264eb	0.11054405
1	0x3e180a7e	0.14847752
2	0x3ec58459	0.38577536
3	0x3f9322da	1.1495011
4	0x3e531c5a	0.20616284
5	0x3e14c0ac	0.14526623
6	0x3ef797c8	0.48357987
7	0x3e0e9bd0	0.13926625
8	0xbacbe4da	-0.0015555874
9	0x3e0c06e5	0.13674505
10	0x3ebcddaf	0.3688788
11	0x3e1843ea	0.14869657
12	0x3e7e4ee5	0.24834783
13	0x3e2fb35c	0.17158264
14	0x3d9d47fe	0.07679747
15	0x3e09e5ce	0.1346657
16	0x3e66d031	0.22540356
17	0x3dff6afe	0.12471579
18	0x3e0e9181	0.13922693
19	0x3e3c09f4	0.18363172
20	0x3e3a897a	0.18216506
21	0x3e9116b9	0.2833765
22	0x3da64934	0.08119431
23	0x3ea4e231	0.3220382
24	0x3dba42ad	0.09094749
25	0x3f3dcd22	0.7414113
26	0x3e8108fd	0.2520217
27	0x3e28771e	0.1645169
28	0x3e337715	0.17525895
29	0x3e8c298f	0.27375457
30	0x3e127a95	0.14304574
31	0x3df1949d	0.11795924
32	0x3c8125e7	0.015765144
33	0x3e1cb874	0.15304738
34	0x3e082a6e	0.13297436
35	0x3dfd3c68	0.12365037
36	0x3e8f2629	0.279588
37	0x3d8abba0	0.06774068
38	0x3ee1c59b	0.44096074
39	0x3e159536	0.146077
40	0x3e290ece	0.16509554
41	0x3eb58d04	0.3545915
42	0x3d9254a5	0.07145051
43	0x3e32756a	0.17427602
44	0x3e20c673	0.15700702
45	0x3e9bc087	0.30420324
46	0x3e87c78d	0.26519433
47	0x3f34f4e9	0.70686203
48	0x3dfb84fa	0.12281223
49	0x3e55a74f	0.20864604
50	0x3e4757f5	0.19467147
51	0x3dd109a9	0.10206921
52	0x3e85cdd2	0.2613359
53	0x3e85294d	0.26008072
54	0x3dab8eb0	0.08376825
55	0x3da9ad23	0.08284976
56	0x3e51056d	0.20412226
57	0x3ed84ac5	0.42244545
58	0x3ea2ea5b	0.31819424
59	0x3ea4f230	0.32216024
60	0x3e69814b	0.22803228
61	0x3e2df2bb	0.16987126
62	0x3e90a613	0.28251705
63	0x3e5cc68f	0.21560119
64	0x3e671f52	0.22570542
65	0x3dcf6138	0.10125965
66	0x3e7b8b9c	0.24564976
67	0x3e61aba1	0.22038127
68	0x3edfbb2a	0.43697482
69	0x3eb109c8	0.34577775
70	0x3eada1d8	0.3391254
71	0xbda1af41	-0.07894755
72	0x3ec6668a	0.38750106
73	0xbe1d7542	-0.15376762
74	0x3e2f10f2	0.17096308
75	0x3e88adf2	0.2669521
76	0x3e0852ec	0.13312882
77	0x3e3771e4	0.1791454
78	0x3da1b007	0.07894903
79	0x3efbef3c	0.4920596
80	0x3ea48130	0.32129812
81	0x3eb5feda	0.35546
82	0x3e79deb9	0.24401368
83	0x3da3b293	0.07993045
84	0x3e8bdab9	0.2731531
85	0x3c1e96c2	0.009679498
86	0x3e1f62af	0.15564989
87	0x3d9091c0	0.070590496
88	0x3a713a10	0.00092020724
89	0x3e277a7f	0.16355322
90	0x3eed50e8	0.4635079
91	0x3e1baec5	0.15203388
92	0x3e8fee5f	0.2811155
93	0x3e0c0211	0.13672663
94	0x3e8e64b5	0.27811208
95	0x3edd15c2	0.43180662
96	0xbb04e040	-0.0020275265
97	0x3e5a2b2d	0.21305533
98	0x3e2cae3e	0.16863343
99	0x3e28244d	0.16420098
100	0x3e619caf	0.22032426
101	0x3e2f1028	0.17096007
102	0x3def6d0b	0.1169072
103	0x3e86d6b1	0.26335672
104	0x3e75919f	0.23981331
105	0xbd6175cf	-0.05504399
106	0x3de58681	0.11207295
107	0xbda2a623	-0.07941844
108	0x3e68be51	0.2272885
109	0x3e8f27ed	0.27960148
110	0x3cc7d753	0.024394667
111	0x3e3e9395	0.18610986
112	0xbe48c6ea	-0.1960713
113	0x3e0f1a7f	0.13974951
114	0x3e0286a7	0.12746678
115	0x3d9f059b	0.07764741
116	0x3e6aefbb	0.22943012
117	0x3f3d291d	0.7389086
118	0x3ed23596	0.41056508
119	0x3f0ee77e	0.5582198
120	0x3db8b80b	0.090194784
121	0x3e11bc02	0.14231876
122	0x3eb79cfe	0.35861963
123	0x3e078b8e	0.1323683
124	0xbd88fe2f	-0.06689107
125	0x3f35e4da	0.71052325
126	0x3d847125	0.06466893
127	0x3e55145d	0.20808549
128	0x3de064de	0.10956739
129	0x3e99f871	0.30072358
130	0x3e753262	0.23945001
131	0xbe0ce681	-0.13759805
132	0x3e5c22ad	0.21497603
133	0x3ec640d3	0.38721332
134	0x3d247bf9	0.040157292
135	0x3e61eca5	0.22062929
136	0x3d116bf2	0.035503335
137	0x3e847278	0.25868583
138	0x3e43da1e	0.19126174
139	0xbd2d3b7b	-0.042293053
140	0x3e0dc5c3	0.13844971
141	0x3b05dbc6	0.0020425185
142	0x3e77ed41	0.24211599
143	0x3de39a59	0.11113424
144	0x3ec2d426	0.3805248
145	0x3d3b5bd1	0.04574186
146	0x3eb5de4c	0.35521162
147	0x3e300b45	0.17191799
148	0x3eb1f0a6	0.34753913
149	0x3ed7c9cb	0.42146143
150	0x3e8e4505	0.27787033
151	0x3df86080	0.12127781
152	0x3e70b547	0.23506652
153	0x3e35510c	0.17706698
154	0xbe0e2c8a	-0.13884178
155	0x3eaa954d	0.33317032
156	0x3e8ec40d	0.2788395
157	0x3d8cdce2	0.068780676
158	0x3e4ee6e4	0.20205265
159	0xbda169e8	-0.07881528
160	0x3ce41291	0.027840884
161	0x3e2da4b9	0.16957368
162	0x3e2f3b92	0.17112568
163	0x3eeff45d	0.46866122
164	0x3e920b9f	0.2852449
165	0x3e464dc9	0.1936561
166	0x3f05fa4b	0.5233504
167	0x3f7448fe	0.9542388
168	0x3f04d93f	0.5189399
169	0x3e1792e8	0.14802134
170	0x3e4b8cda	0.1987795
171	0x3dcdf1d4	0.10055891
172	0x3ebc09fc	0.36726367
173	0x3ddbf6fa	0.107404664
174	0x3e8fce24	0.2808696
175	0x3e320077	0.1738299
176	0x3db35403	0.08756258
177	0x3ea3be35	0.31981054
178	0x3ef2d9ff	0.47431943
179	0x3e4d21ff	0.200325
180	0x3d3812fc	0.04493998
181	0x3e3d35f9	0.1847762
182	0x3e2a59a6	0.1663576
183	0x3e0a5dd7	0.1351236
184	0x3e5303c5	0.20606907
185	0x3e6b468a	0.22976127
186	0x3e88ca34	0.2671677
187	0x3e0e8f72	0.13921908
188	0x3e028f48	0.1274997
189	0x3e1869ea	0.14884153
190	0x3e43b886	0.19113359
191	0x3de3d404	0.11124423
192	0x3e960feb	0.2930902
193	0x3d9c7e5d	0.076412894
194	0x3b11d6c6	0.002225326
195	0x3c4e9c37	0.012610487
196	0x3f2639a1	0.64931685
197	0x3dfeca40	0.1244092
198	0x3d5ed453	0.054401707
199	0x3d90dd02	0.07073404
200	0x3e157b6c	0.14597863
201	0x3e4a3299	0.19745864
202	0x3f56f294	0.83963895
203	0x3ea2e835	0.31817785
204	0x3d9a63e5	0.075385846
205	0x3e22ff5e	0.15917727
206	0x3e93c597	0.28861687
207	0x3df2acc5	0.118493594
208	0x3e670044	0.22558695
209	0x3f3be1e9	0.73391587
210	0x3e764cc4	0.24052721
211	0x3dc05545	0.09391264
212	0x3ecdf720	0.40227604
213	0xba53316c	-0.00080563757
214	0x3dd3f8a7	0.10350161
215	0x3eaea01b	0.34106526
216	0xbd43f259	-0.047838543
217	0x3b1a3513	0.002353017
218	0x3e09be24	0.13451439
219	0xbd508c0d	-0.050914813
220	0x3eaa1103	0.33216104
221	0x3edc5d3a	0.43039876
222	0x3e6ec850	0.233186
223	0x3edc63b6	0.43044823
224	0x3e99ba56	0.30024976
225	0x3e9b20aa	0.30298358
226	0x3e8a4d69	0.27012184
227	0x3eaef3bc	0.3417033
228	0x3dc3ce5d	0.09560845
229	0x3e5d6bea	0.21623197
230	0x3dd31adf	0.1030786
231	0x3e2fff92	0.17187336
232	0x3e0400ba	0.12890902
233	0x3e8ce4e3	0.27518377
234	0x3d68e5c0	0.05685973
235	0x3e87cee7	0.2652504
236	0x3e8a5994	0.27021468
237	0x3e5348f9	0.20633306
238	0x3e30c3dc	0.17262214
239	0x3e597c63	0.21238856
240	0x3e19f43d	0.15034576
241	0x3e5b04ac	0.21388501
242	0x3e15bb0b	0.14622132
243	0x3e4cf76f	0.20016263
244	0x3dfe59fc	0.12419507
245	0x3da12452	0.07868256
246	0x3dbba9a9	0.091632195
247	0x3e6124de	0.2198672
248	0x3ecf5d61	0.4050093
249	0x3e1d9a4c	0.15390891
250	0x3e0b0401	0.13575746
251	0x3e4120c8	0.18860161
252	0x3e1423bb	0.14466755
253	0x3e3ef892	0.1864951
254	0x3d878025	0.066162385
255	0x3e0964f1	0.13417412

bn1.bias f4 [256]
0	0x3b20b8ab	0.0024524133
1	0x3ca4d36c	0.020120345
2	0x3e87b290	0.2650342
3	0x3ed07660	0.40715313
4	0x3d837a00	0.06419754
5	0x3d0f1ab5	0.03493758
6	0x3e915175	0.2838246
7	0x3c9193ab	0.017770609
8	0x3ae313d8	0.001732464
9	0x3d3726f3	0.04471488
10	0x3e8e025c	0.27736175
11	0x3ccb52f7	0.024819834
12	0x3dd16a0b	0.10225304
13	0x3d8970eb	0.067109905
14	0x3cce9d02	0.025221352
15	0x3c975659	0.018473791
16	0xbc16e9eb	-0.009211044
17	0x3e127a92	0.1430457
18	0x3d6146d0	0.054999173
19	0x3e36803f	0.1782236
20	0x3e5b079b	0.2138962
21	0x3cdf8144	0.027283318
22	0x3c45d892	0.01207556
23	0x3dfbc50d	0.12293444
24	0x3ccd0fe8	0.025031999
25	0x3e9dd350	0.3082528
26	0x3d75118d	0.05983119
27	0x3d47f7a0	0.048820138
28	0x3d661a62	0.056177504
29	0x3ca857ef	0.020549743
30	0x3d31f49a	0.04344616
31	0x3d16b15f	0.036790248
32	0x3be6d155	0.0070439973
33	0x3d2c707e	0.04209947
34	0x3d512493	0.05106027
35	0x3e02bffd	0.1276855
36	0x3df57c35	0.11986581
37	0x3c96eeaa	0.01842435
38	0x3e47dd6f	0.19518064
39	0x3d756913	0.05991466
40	0x3c91deee	0.017806496
41	0x3daadc47	0.08342796
42	0x3c2b9204	0.010471825
43	0x3de530ac	0.11190924
44	0x3d2dfaf7	0.042475667
45	0x3d66dc07	0.05636218
46	0x3d8af147	0.06784301
47	0x3e84b44a	0.259188
48	0xbe23e0a1	-0.16003658
49	0x3db3727e	0.08762072
50	0x3d925be8	0.07146436
51	0x3cd2f318	0.025750682
52	0x3de5db8e	0.11223517
53	0x3da29fc3	0.079406284
54	0x3c90b119	0.017662572
55	0x3dbab37b	0.091162644
56	0x3d23a62a	0.03995339
57	0x3d1e0b0b	0.03858475
58	0x3e3b0bff	0.18266295
59	0x3e0bb8ec	0.13644761
60	0x3dde1d7d	0.10845468
61	0x3d713a23	0.058893334
62	0x3e042385	0.12904175
63	0x3d6cbdc9	0.05779818
64	0x3d40355c	0.046925887
65	0x3d3e08de	0.046395175
66	0x3d821e0b	0.063533865
67	0x3d85b835	0.06529275
68	0x3e170432	0.14747694
69	0x3ddb02f0	0.1069392
70	0x3e42e6c1	0.19033338
71	0xbd9e61c0	-0.07733488
72	0x3db87726	0.09007101
73	0xbe0227e7	-0.12710534
74	0x3e189d7e	0.14903829
75	0x3db27422	0.08713557
76	0x3dacfce4	0.084466726
77	0x3c5dbbe4	0.013533566
78	0x3dc766a8	0.09736377
79	0x3e11e8e1	0.14248993
80	0x3e60116a	0.21881643
81	0x3dd0965a	0.10184927
82	0x3e005e8a	0.12536064
83	0x3ce3ee64	0.027823634
84	0x3d6d7c16	0.057979666
85	0x3c22de02	0.009940626
86	0x3d4ed5f8	0.050497025
87	0x3c9fc296	0.019501965
88	0xbb06555c	-0.0020497655
89	0x3c65ceae	0.014026327
90	0x3e2fe770	0.1717813
91	0x3d0906de	0.033453815
92	0x3dd0f43d	0.10202835
93	0x3d3dbd8c	0.046323344
94	0x3cd4b15b	0.025963476
95	0x3e9fc154	0.31202185
96	0xb99fa682	-0.000304509
97	0x3e2fa87b	0.17154114
98	0x3e176b8d	0.14787121
99	0x3d0b6235	0.034029204
100	0x3de28bfb	0.110618554
101	0x3e0a3a0f	0.1349871
102	0x3cbdb7fe	0.023159023
103	0x3d43ab79	0.04777095
104	0x3e681e5c	0.22667831
105	0xbce8867c	-0.02838444
106	0x3d38fe14	0.045164183
107	0xbce802b9	-0.02832161
108	0x3dabccf9	0.08388705
109	0x3d8776f6	0.06614487
110	0x3c7d54d4	0.015462119
111	0x3d2eeb6c	0.042704985
112	0xbd6dcf2e	-0.05805891
113	0x3d7fbbaa	0.06243483
114	0x3d99b8d2	0.07505955
115	0x3d11ae30	0.03556651
116	0x3e1f522e	0.15558693
117	0x3d8e107f	0.0693674
118	0x3deee3bd	0.116645314
119	0x3e08ff56	0.13378653
120	0xb9bde88c	-0.0003622215
121	0x3e62e731	0.22158505
122	0x3e3b1cec	0.18272752
123	0x3cb428a4	0.021992035
124	0xbc88db63	-0.016706174
125	0x3ec774b0	0.38956213
126	0x3b396952	0.0028291536
127	0x3db25ebf	0.08709478
128	0x3d0844d6	0.033268772
129	0x3e595975	0.21225531
130	0x3d8c18ca	0.06840666
131	0xbcb96428	-0.022630766
132	0x3dfdd6ca	0.123944834
133	0x3e41b973	0.189184
134	0x3c1cae10	0.009562984
135	0x3e0156f3	0.12630825
136	0x3a48ad45	0.00076552137
137	0x3d526ad2	0.051371403
138	0x3d47f43e	0.048816912
139	0xbb985027	-0.004648227
140	0x3ca679ee	0.020321812
141	0xbadeddd1	-0.0017003362
142	0x3da92865	0.08259658
143	0x3ce0afe7	0.027427627
144	0x3e235505	0.15950401
145	0x3d044f25	0.03230204
146	0xbd97f275	-0.07419292
147	0x3d80fe12	0.0629846
148	0x3e1b3e58	0.15160501
149	0x3ddedf7c	0.1088247
150	0x3dded1f7	0.10879891
151	0x3d279581	0.040914062
152	0x3cf440ac	0.029815994
153	0x3d7e8d31	0.06214637
154	0xbd611f5e	-0.054961555
155	0x3cfa6ac9	0.030568497
156	0x3d47621e	0.048677556
157	0x3d221f01	0.03958035
158	0x3df77076	0.12081997
159	0xbc03078e	-0.007997407
160	0xbb705a36	-0.0036674864
161	0x3d10ab36	0.03531953
162	0x3e4d6f71	0.20062043
163	0x3e2fcf3a	0.17168894
164	0x3da1da16	0.07902925
165	0x3d0f7477	0.03502318
166	0x3cded4f4	0.027201153
167	0x3e785333	0.24250488
168	0x3e674baf	0.22587465
169	0x3cc4428c	0.023957513
170	0x3d88d883	0.06681921
171	0x3da12206	0.078678176
172	0x3e6c28e1	0.23062469
173	0x3cdbd4da	0.026834894
174	0x3dc48c7c	0.09597108
175	0x3d14c1a0	0.036317468
176	0x3ca354f3	0.019937968
177	0x3dea45c1	0.11439086
178	0x3e4a8a08	0.19779217
179	0x3e0f2a58	0.13980997
180	0x3d5396f1	0.05165762
181	0x3d5f6f4b	0.054549497
182	0x3e2684ba	0.16261569
183	0x3c1ff51e	0.00976303
184	0x3ddb7342	0.10715343
185	0x3dcc109f	0.09964108
186	0x3dda2062	0.10650708
187	0x3dad52fa	0.08463092
188	0x3d1e23f7	0.038608517
189	0x3d4d320d	0.05009656
190	0x3e0f88d3	0.14017038
191	0x3d89c77a	0.067275
192	0x3d34874f	0.044074353
193	0x3c440907	0.011965043
194	0x3aa30679	0.0012437842
195	0xba9d5cdc	-0.0012005824
196	0x3e60bad4	0.2194627
197	0x3d22516c	0.03962843
198	0x3d089913	0.033349108
199	0x3cc6590e	0.024212386
200	0x3d7b0068	0.061279684
201	0x3de0dac0	0.10979223
202	0x3e30fcfa	0.17284003
203	0x3dddeb82	0.10835935
204	0x3dcd8560	0.10035205
205	0x3df33d0f	0.118768804
206	0x3daf1bc6	0.08550219
207	0x3d21831d	0.03943168
208	0x3e118b92	0.14213398
209	0x3e8ae741	0.27129558
210	0x3dc596ec	0.09647927
211	0xbc8e8fcc	-0.017402552
212	0x3e8d1469	0.27554634
213	0x3c2faaa3	0.010721835
214	0x3c7a90d5	0.01529332
215	0x3e844110	0.2583089
216	0xbbe5ce51	-0.00701312
217	0xb9efe2e6	-0.00045754685
218	0xbcf9b773	-0.030482983
219	0xbcb33fa3	-0.02188093
220	0x3e57164a	0.21004596
221	0x3e3655df	0.17806195
222	0x3de17200	0.11008072
223	0x3e40522f	0.1878135
224	0x3d812c08	0.063072264
225	0x3de3c2d1	0.11121143
226	0x3d9d8dc0	0.07693052
227	0x3e1022ec	0.14075822
228	0x3d6a2881	0.057167534
229	0x3dba4c5c	0.09096596
230	0x3c388031	0.011261032
231	0x3d9873da	0.07443972
232	0x3dd93578	0.106059015
233	0x3d266f87	0.040633705
234	0x3aa0ae13	0.0012258909
235	0x3e0038ff	0.12521742
236	0x3db2d086	0.08731179
237	0x3d2c29ba	0.04203198
238	0x3d770fba	0.060317732
239	0x3d916632	0.0709957
240	0x3d231c1d	0.039821733
241	0x3e11c9b4	0.142371
242	0x3cb8d874	0.02256415
243	0x3d9a1880	0.07524204
244	0xba8d88b6	-0.0010798189
245	0x3d1fa749	0.038977895
246	0x3c57d0e2	0.01317236
247	0x3dade3f8	0.08490747
248	0x3ec41b75	0.38302198
249	0x3c342253	0.010994512
250	0x3d3fc9af	0.0468232
251	0x3e2183f1	0.15772988
252	0x3d9de7eb	0.077102505
253	0x3dbee1c0	0.09320402
254	0x3af3ae88	0.0018591443
255	0x3cf5cd36	0.030005079
