checkpoint_actor_agent_0.pth (torch_old, 296361 bytes, 10 tensors)

fc1.weight f4 [256, 24]
0	0x3d9368a7	0.07197695
1	0x3ce41a4d	0.027844572
2	0xbb7ea24a	-0.0038854056
3	0xbc96e0fc	-0.018417828
4	0xbd3a776f	-0.045524057
5	0xbdd4cb6c	-0.10390362
6	0x3d051a26	0.03249564
7	0xbd545761	-0.051841144
8	0x3d066b1b	0.032816987
9	0x3c603343	0.013684097
10	0x3d367034	0.0445406
11	0xbc028d52	-0.007968264
12	0xbabd3bd0	-0.0014437381
13	0xbc358b12	-0.01108052
14	0x3d5994fc	0.0531206
15	0x3c710a28	0.014711894
16	0x3cf190f0	0.029488057
17	0x3c13aa70	0.009012803
18	0xbc1eba06	-0.009687906
19	0xbbc6824a	-0.006058012
20	0x3cd6a48a	0.026201505
21	0x3d076132	0.033051677
22	0x3d2421e9	0.0400714
23	0xbb408542	-0.0029376303
24	0x3ddce3dc	0.10785648
25	0x3d1e42ee	0.038638048
26	0x3d27af6d	0.040938783
27	0xbdc1c8a9	-0.09462101
28	0xbd395b12	-0.045252867
29	0xbe25d9f7	-0.16196428
30	0xbd3bae75	-0.045820672
31	0xbc3a0325	-0.011353289
32	0x3d57caf8	0.0526838
33	0x3d25b617	0.040456858
34	0xbc0546ab	-0.008134524
35	0xbd9fa11e	-0.077944025
36	0xbcd3f3ad	-0.02587303
37	0xbd4888ed	-0.048958708
38	0xbc31b056	-0.010845264
39	0xbcd38c11	-0.025823625
40	0x3ccecb4d	0.025243426
41	0x3d1db6dd	0.03850447
42	0xbc73b2e8	-0.014874198
43	0xbc99d8fd	-0.018780226
44	0xbd46d85a	-0.048546173
45	0xbe09d647	-0.13460647
46	0x3c483afa	0.012221092
47	0xbcefe3d2	-0.029283438
48	0x3d78ad1b	0.06071196
49	0x3e421106	0.18951806
50	0xbce45164	-0.027870841
51	0x3d6559b9	0.05599377
52	0xbd3468bd	-0.0440452
53	0xbd097f18	-0.03356847
54	0x3c7c0d38	0.015384011
55	0xbbcf7267	-0.0063307765
56	0x3dca3014	0.098724514
57	0x3e2d4de0	0.16924238
58	0x3cc0ef37	0.023551567
59	0x3c9530d3	0.018211758
60	0x3cbc7200	0.023003578
61	0x3dd38cc0	0.1032958
62	0xbc4a6e4c	-0.012355398
63	0x3beeb339	0.0072845486
64	0x3d9fb912	0.07798971
65	0x3de9af34	0.114103705
66	0xbc9c6067	-0.019088937
67	0x3bbc7443	0.005751164
68	0xbc09ca63	-0.008410069
69	0x3e0dc3f4	0.13844281
70	0x3d07e446	0.033176683
71	0x3d29a623	0.041418206
72	0x3d6f06b0	0.058355987
73	0x3d530836	0.051521502
74	0x3bba90b9	0.005693522
75	0x3bf7792c	0.0075522866
76	0x3d4d2df9	0.05009267
77	0x3da7e504	0.08197978
78	0x3be73b9c	0.0070566665
79	0x3dc2c765	0.09510688
80	0x3d13dc6d	0.036098886
81	0x3c98bfda	0.01864617
82	0x3d4b0165	0.049561877
83	0xbd499aa1	-0.04921973
84	0xbc007a9f	-0.007841735
85	0xbcfbcb8f	-0.030736713
86	0xbc7994bf	-0.015233218
87	0x3cc49e8a	0.024001379
88	0x3df123e4	0.11774424
89	0x3de41c66	0.11138229
90	0x3cd2b77f	0.025722263
91	0x3e08a5aa	0.13344446
92	0x3dc4cb1f	0.09609055
93	0x3cfded87	0.03099705
94	0xbca3a52a	-0.019976217
95	0x3dcc43ca	0.09973867
96	0x39968baa	0.00028714287
97	0xbb986214	-0.0046503637
98	0xbc91f2de	-0.017816003
99	0x3c1372bb	0.008999522
100	0xbe017896	-0.12643656
101	0x3d1bd332	0.03804321
102	0x3caed042	0.02133954
103	0xbc60a4f3	-0.013711202
104	0x3d457430	0.04820651
105	0xbd01cfe6	-0.031692408
106	0x3d0863e8	0.033298403
107	0x3cf4a169	0.029862123
108	0xbe2f87fa	-0.17141715
109	0x3d8a32d5	0.06747977
110	0xbcb95021	-0.022621216
111	0x3ba73a4c	0.005103385
112	0x3d04029b	0.032229047
113	0x3d0ee5fd	0.034887303
114	0x3c2a3404	0.010388378
115	0xbd7fa415	-0.06241234
116	0xbdf0e8c8	-0.117631495
117	0x3d4c8a68	0.049936682
118	0xbba7e882	-0.0051241526
119	0xbda939bc	-0.08262965
120	0x3c90e43a	0.017686952
121	0xbcb1ceea	-0.02170511
122	0xbcb7ef33	-0.022452926
123	0x3c49b8a0	0.012312084
124	0xbdf24cf3	-0.11831083
125	0x3d7ec652	0.06220085
126	0x3d245dcc	0.040128514
127	0x3d370094	0.044678286
128	0x3d20c28f	0.039248046
129	0x3d3c8d8e	0.046033435
130	0x3cd44817	0.025913281
131	0x3dad3907	0.08458143
132	0x3c92aa43	0.017903453
133	0x3c1b45e7	0.009477115
134	0x3cf79d13	0.030226266
135	0x3ce440d8	0.027862951
136	0x3da50620	0.08057809
137	0x3d4cdf7c	0.05001782
138	0x3da74b1e	0.08168624
139	0x3cfeaedf	0.031089244
140	0xb9be77ca	-0.00036328874
141	0xbc000e88	-0.0078159645
142	0x3c2e3ae7	0.010634161
143	0xbd1d4868	-0.03839913
144	0xbd20dfcd	-0.039275933
145	0xbd8df393	-0.06931224
146	0xbd202581	-0.039098267
147	0x3d041169	0.032243166
148	0xbc9f400b	-0.019439718
149	0xbd01634c	-0.031588838
150	0x3cb4456a	0.022005755
151	0x3c662a78	0.014048211
152	0xbd69796a	-0.057000555
153	0xbd07374c	-0.03301172
154	0x3d10297d	0.035195816
155	0xbbfdc7c3	-0.0077447607
156	0x3981d7a1	0.00024765453
157	0xbdd09c2b	-0.10186037
158	0x3cd6f1f9	0.026238428
159	0xbd48951a	-0.04897032
160	0x3bbba4e5	0.005726444
161	0x3cddc6f0	0.0270724
162	0x3ce9ba6d	0.028531278
163	0xbd839b16	-0.06426065
164	0xbd874aee	-0.066060886
165	0xbe165da1	-0.14684154
166	0xbd6269db	-0.055276733
167	0xbdec4a4d	-0.11537609
168	0xbc134f7d	-0.008991119
169	0x3d1388f7	0.03601929
170	0xbda8a550	-0.08234656
171	0x3dbac607	0.09119802
172	0x3c35be07	0.011092669
173	0xbcdfa37a	-0.027299631
174	0xbd8d8afe	-0.06911276
175	0x3cc9d614	0.024638213
176	0x3c83676b	0.016040524
177	0xbcfce04a	-0.030868668
178	0x3d0b42df	0.03399932
179	0xbb86c7cf	-0.0041131745
180	0xbd0379b7	-0.0320985
181	0x3c892c2a	0.016744692
182	0xbc5aa7b6	-0.0133456495
183	0x3b28b69f	0.0025743616
184	0xbcddf1d3	-0.02709285
185	0xbd26cc20	-0.040722013
186	0xbd3d613c	-0.046235308
187	0xbd8b2897	-0.06794851
188	0xbd435d6a	-0.04769651
189	0xbcb65bcb	-0.022260567
190	0x3d70b182	0.058763035
191	0xbc387336	-0.011257937
192	0xbcd699c0	-0.02619636
193	0x3cab21c1	0.020890119
194	0xbd63f5a0	-0.055654168
195	0xbd9b9d75	-0.07598392
196	0xbdd3c9c6	-0.103412196
197	0xbcd7dc18	-0.026350066
198	0x3d2ff1a5	0.04295506
199	0xbd4225ac	-0.047399208
200	0xbc68c2aa	-0.014206568
201	0xbc388bad	-0.01126377
202	0xbd67bafb	-0.056574803
203	0xbdbc0a53	-0.09181657
204	0xbd59bb67	-0.053157236
205	0xbd9391d6	-0.072055504
206	0x3c1420a1	0.009040982
207	0xbdceac67	-0.10091477
208	0x3cf7213f	0.03016722
209	0x3d07cfbb	0.03315709
210	0xbb831124	-0.003999846
211	0xbcc95f33	-0.024581527
212	0xbd361e7e	-0.044462673
213	0xbbd7a6d1	-0.0065811654
214	0xbc71bd1e	-0.014754562
215	0xbca551fd	-0.020180697
216	0xbcfcd1ba	-0.030861724
217	0x3d436716	0.047705732
218	0x3cbef44e	0.023309853
219	0x3cbb76f8	0.022883877
220	0x3dd29306	0.10281949
221	0xbd3e9dbf	-0.046537157
222	0xbcdd028e	-0.026978757
223	0x3d3dc361	0.046328906
224	0x3c87f141	0.016594531
225	0xbc9f8962	-0.019474689
226	0x3c92f01a	0.017936755
227	0x3d6906e3	0.056891333
228	0x3d488d1d	0.0489627
229	0xbe198a37	-0.14994131
230	0xbcca1ace	-0.024670985
231	0xbce77bbe	-0.028257247
232	0x3d293aa6	0.041315697
233	0x3d48ed5b	0.049054485
234	0x3c957ab4	0.018246986
235	0x3c94e6ca	0.018176455
236	0xbd0a3bb5	-0.033748347
237	0xbe3e1d32	-0.18565825
238	0xbcb1c161	-0.021698656
239	0xbc7d65cc	-0.015466165
240	0x3ae4e924	0.0017464501
241	0xbd454117	-0.048157778
242	0xbb8d0673	-0.0043037473
243	0x3c46c0d9	0.012130939
244	0x3e7e79bd	0.24851127
245	0xbd9c6942	-0.07637264
246	0xbc326c62	-0.010890098
247	0x3d1ddbbd	0.038539637
248	0xbd0714a8	-0.032978684
249	0xbd34c89f	-0.04413664
250	0xbd24178c	-0.04006152
251	0x3c9ccaf4	0.019139744
252	0x3da02650	0.078198075
253	0xbc8fce7a	-0.01755451
254	0x3d2a62d6	0.041598164
255	0xba9313a9	-0.0011221069

fc1.bias f4 [256]
0	0xbe1e2f6f	-0.15447782
1	0x3d5ac9c7	0.053415086
2	0xbe01b950	-0.12668347
3	0x3c977690	0.018489152
4	0xbe2ade60	-0.16686392
5	0xbe607edc	-0.21923393
6	0xbe6ec08f	-0.23315643
7	0xbd4c62e4	-0.049898997
8	0xbe6079f4	-0.21921521
9	0xbe300abd	-0.17191596
10	0x3c44b37f	0.012005686
11	0xbd0d0f55	-0.03443845
12	0x3d2925ee	0.04129594
13	0xbe862b8a	-0.26205093
14	0xbd2db585	-0.04240944
15	0x3dd6b82a	0.10484345
16	0xbdb58551	-0.08863319
17	0x3cc35dbb	0.023848405
18	0xbe27b525	-0.16377695
19	0xbe8917a1	-0.2677584
20	0x3df4d8fc	0.11955449
21	0xbe8e8645	-0.27836815
22	0xbc8d8797	-0.017276568
23	0xbe74265e	-0.23842761
24	0x3cf55ee7	0.02995248
25	0xbe87fdcb	-0.26560816
26	0x3d4fe383	0.05075408
27	0xbcfda8f6	-0.030964356
28	0xbe6acb01	-0.22929002
29	0xbd5f7a4b	-0.054559987
30	0xbdd812e2	-0.105504766
31	0xbdc2a8af	-0.0950483
32	0xbe21412e	-0.1574752
33	0xbda30475	-0.079598345
34	0xbda6afd4	-0.08139005
35	0x3a4cca9d	0.0007812174
36	0xbe17208c	-0.1475851
37	0x3e146fd6	0.14495787
38	0xbe1cbb66	-0.15305862
39	0x3d1d0631	0.038335983
40	0xbe5512bc	-0.20807928
41	0xbe2cbfb0	-0.16869998
42	0x3da2f8f5	0.07957641
43	0xbe482f6a	-0.19549337
44	0xbdc4b323	-0.0960448
45	0xbe223740	-0.15841389
46	0xbe214638	-0.15749443
47	0xbe5a37d7	-0.21310364
48	0x3d4ee6ec	0.050513193
49	0x3df6cc5f	0.120506994
50	0xbdff5841	-0.12468005
51	0x3e16672b	0.14687793
52	0xbe38cc57	-0.180467
53	0xbe5360bb	-0.20642368
54	0x3d4e4fbb	0.050369006
55	0xbd4db4f3	-0.050221395
56	0x3dc26cd0	0.094934106
57	0xbdf0acac	-0.117516845
58	0xbe66e9ab	-0.22550075
59	0x3d017a76	0.03161093
60	0x3dc615aa	0.09672101
61	0x3c18b071	0.009319411
62	0xbda35aa5	-0.079762734
63	0xbe881421	-0.26577857
64	0xbd9319fc	-0.071826905
65	0xbd8efe59	-0.06982107
66	0xbe666546	-0.2249957
67	0xbc1d5f65	-0.009605263
68	0xbe472d98	-0.19450986
69	0xbe85815c	-0.26075256
70	0xbdd74c48	-0.10512596
71	0xbe33bb8d	-0.17552014
72	0xbe3cecd4	-0.18449718
73	0xbe0bff34	-0.13671571
74	0xbd1dba57	-0.038507786
75	0x3e124ef5	0.14287932
76	0xbd80d19f	-0.06289982
77	0x3e3e0c46	0.1855937
78	0x3d586ffb	0.052841168
79	0xbd36f7e0	-0.044669986
80	0xbd87b89d	-0.06627009
81	0xbd06d28c	-0.032915637
82	0xbe229878	-0.15878475
83	0xbea77e70	-0.32713652
84	0x3cb1449e	0.021639165
85	0xbdd40857	-0.10353153
86	0xbe03871b	-0.12844507
87	0x3d452987	0.048135307
88	0xbe2a56c5	-0.16634662
89	0xbada0e83	-0.0016636405
90	0x3d1e2c64	0.038616553
91	0x3d34ad08	0.044110328
92	0xbe6e3041	-0.23260595
93	0x3dccd3d3	0.1000134
94	0xbe932cc5	-0.28745094
95	0xbe661d58	-0.22472131
96	0x3c86cff7	0.016456587
97	0xbe70ae2a	-0.23503938
98	0x3de06785	0.10957245
99	0x3c3cc73c	0.011522111
100	0xbca89305	-0.020577917
101	0xbe39c36c	-0.18140954
102	0xbdba2599	-0.090892024
103	0xbcf0d47d	-0.029398197
104	0xbdcfadb9	-0.10140557
105	0x3d063e24	0.032774106
106	0x3de33bcf	0.11095392
107	0xbe2bc0d9	-0.16772784
108	0x3d3cda27	0.046106484
109	0xbd54970a	-0.051901855
110	0xbd3a343d	-0.045459975
111	0xbe85224f	-0.26002738
112	0xbdeee568	-0.116648495
113	0xbe8dee98	-0.27721095
114	0xbda095c0	-0.078410625
115	0x3ce3ae30	0.02779302
116	0x3de32d7a	0.11092658
117	0xbe7bedf4	-0.2460249
118	0xbe6e804e	-0.23291132
119	0x3db2a264	0.0872238
120	0xbc90e21c	-0.017685942
121	0xbd33732b	-0.043811005
122	0xbdc19e54	-0.09454027
123	0x3e0efcbb	0.13963597
124	0xbcab72c0	-0.02092874
125	0xbc460986	-0.0120872315
126	0xbd07a0f9	-0.0331125
127	0x3c81e298	0.015855119
128	0xbbca9bbd	-0.006183116
129	0xbe8de859	-0.2771633
130	0xbe8e3c4e	-0.27780384
131	0x3cc29d0a	0.023756523
132	0xbe75585b	-0.23959486
133	0x3e024685	0.12722214
134	0x3df8e4dd	0.12153027
135	0xbcb0ee88	-0.021598116
136	0xbd650ffa	-0.05592344
137	0x3bb4668d	0.005505389
138	0x3df35c94	0.11882892
139	0x3d0d9461	0.034565333
140	0xbda6d0d8	-0.081453025
141	0xbe34d6b9	-0.17660035
142	0x3d3e5ae6	0.046473406
143	0x3c8d6476	0.017259818
144	0x3dd203d0	0.102546334
145	0xbe223f5c	-0.15844482
146	0xbccfdd4a	-0.025374074
147	0xbe53ed48	-0.20695984
148	0xbd79fd68	-0.061032683
149	0x3e1b1806	0.15145883
150	0xbbeda985	-0.0072528743
151	0x3dd7889a	0.105241016
152	0x3e060ca9	0.13090767
153	0xbe0db103	-0.13837056
154	0x3e14abe0	0.1451869
155	0x3c986175	0.018601159
156	0x3dd89d76	0.10576908
157	0xbd45eae5	-0.048319716
158	0xbda7a02c	-0.08184847
159	0x3dd76623	0.10517528
160	0xbe2189c7	-0.15775214
161	0xbcc7a2dc	-0.02436965
162	0xbdebf124	-0.11520603
163	0xbd30cf00	-0.04316616
164	0xbdfd0ef9	-0.123563714
165	0x3dd8494b	0.105608545
166	0xbcb2c560	-0.021822631
167	0x3dc1ef0c	0.09469423
168	0x3d5f3e8e	0.054503016
169	0x3e123b27	0.14280377
170	0x3d9f851a	0.07789059
171	0xbea2fa41	-0.31831554
172	0xbe44115f	-0.19147252
173	0xbe6ccada	-0.23124257
174	0xbe97e925	-0.29670063
175	0xbe160171	-0.14648987
176	0xbda513c7	-0.08060413
177	0x3e581016	0.21099886
178	0xbe590550	-0.21193433
179	0xbd54f485	-0.051991004
180	0xbe3ff5ce	-0.18746111
181	0x3be6b5e8	0.007040728
182	0x3e0305ea	0.12795225
183	0x3d01e3ad	0.03171127
184	0x3e11af64	0.14227062
185	0xbe415a6c	-0.1888215
186	0xbe58812d	-0.21143027
187	0xbdd155eb	-0.10221466
188	0xbbb2b0b3	-0.005453193
189	0x3dfb76e7	0.12278538
190	0x3d3a2f0a	0.045455016
191	0xbd3fd424	-0.046833172
192	0xbda6b3e1	-0.08139778
193	0xbe577728	-0.21041548
194	0x3e91b99c	0.2846192
195	0xbe51704d	-0.20452996
196	0xbe152a14	-0.14566833
197	0xbc50ba43	-0.012739721
198	0x3e0418d4	0.12900096
199	0x3b834d3e	0.0040070107
200	0xbdba4faf	-0.0909723
201	0xbd3a551a	-0.045491315
202	0xbd2d6deb	-0.042341154
203	0xbdea484a	-0.11439569
204	0x3ddea5e1	0.10871483
205	0x3e08a0b7	0.13342558
206	0xbdda7d73	-0.10668459
207	0x3e260afc	0.16215128
208	0xbda152d3	-0.078771256
209	0xbe814426	-0.25247306
210	0xbdf92907	-0.121660285
211	0xbdaefdd1	-0.085445054
212	0x3e109553	0.14119463
213	0xbce508a2	-0.027958218
214	0xbe3ea098	-0.18615949
215	0xbe7ebb3d	-0.24876113
216	0x3d92848e	0.07154189
217	0x3d168868	0.03675118
218	0xbc7e1d5e	-0.015509931
219	0xbd705ec6	-0.058684133
220	0xbe0314a8	-0.12800848
221	0xbd62083b	-0.05518363
222	0x3e1b8643	0.15187936
223	0xbcfb35bd	-0.030665273
224	0xbbde078a	-0.006775801
225	0xbe01ff05	-0.12694938
226	0xbd0f69a2	-0.03501285
227	0xbde7b5d7	-0.1131398
228	0xbdd8a98f	-0.10579216
229	0xbe7c6201	-0.2464676
230	0x3e57fa2a	0.21091524
231	0x3d69e0fd	0.05709933
232	0xbe12c43b	-0.14332668
233	0xbd3ee4ed	-0.04660504
234	0xbcddd631	-0.027079673
235	0xbd8010fb	-0.06253239
236	0xbe2114ab	-0.1573054
237	0x3b743cb1	0.003726762
238	0x3c88ddc5	0.01670731
239	0x3db0df76	0.08636372
240	0xbe236cbd	-0.15959449
241	0xbe754e3c	-0.23955625
242	0x3db89ff6	0.09014885
243	0xb9cc55fe	-0.0003897398
244	0xbd920f66	-0.07131843
245	0x3db3a6a9	0.08772022
246	0xbdcdfa13	-0.100574635
247	0xbe558917	-0.20853077
248	0xbdbc2cbb	-0.09188219
249	0xbe213186	-0.15741548
250	0xbdc1db57	-0.09465664
251	0xbe2cc132	-0.16870573
252	0x3d35d4d1	0.04439241
253	0x3dcf7523	0.10129764
254	0xbe814dc9	-0.25254658
255	0x3cb7a970	0.022419661

fc2.weight f4 [256, 256]
0	0xbdcbe764	-0.09956244
1	0x3cb5e236	0.022202592
2	0xbd2da3fa	-0.04239271
3	0xbc811a45	-0.015759597
4	0x3e0dadc4	0.13835818
5	0x3cb7aebe	0.02242219
6	0x3db86cfd	0.09005163
7	0x3dc4a2cb	0.09601363
8	0xbcc3f45b	-0.023920229
9	0xbc22e30c	-0.0099418275
10	0xbe00774a	-0.12545505
11	0x3e0d51af	0.13800691
12	0xbda1fd04	-0.07909587
13	0xbbd9d250	-0.0066473857
14	0xbe002bd6	-0.12516722
15	0xbcc1aa7f	-0.02364087
16	0x3dd836e2	0.10557343
17	0x3d05531a	0.032549955
18	0x3b5b64c0	0.00334768
19	0x3e05ac9d	0.13054128
20	0xbdabbfb3	-0.08386173
21	0x3d7b1886	0.061302684
22	0xbe0efd6b	-0.13963859
23	0xbdd3355e	-0.10312913
24	0xbc6eaada	-0.014567101
25	0xba07235c	-0.000515511
26	0xbd59ae42	-0.0531447
27	0x3cddb69f	0.02706462
28	0xbd91bc0a	-0.07115944
29	0x3d6d121e	0.057878606
30	0x3dad0f87	0.08450227
31	0x3e41dd95	0.18932183
32	0xbc95e05a	-0.018295456
33	0x3e4d9e15	0.20079835
34	0xbc3c4fee	-0.011493666
35	0x3cddc4a7	0.02707131
36	0x3c393031	0.011302994
37	0xbd8aa0b4	-0.06768933
38	0xbdbc1083	-0.09182837
39	0x3e279d64	0.16368634
40	0xbe2f941c	-0.17146343
41	0x3c954524	0.018221445
42	0x3dc37a7e	0.09544848
43	0x3e461cea	0.19346967
44	0xbc01975b	-0.007909621
45	0x3d33d09e	0.043900125
46	0x3d9347ad	0.071914054
47	0x3d25ee87	0.04051068
48	0xbd915ade	-0.0709741
49	0x3db5afec	0.08871445
50	0xbd7b6cd0	-0.06138307
51	0xbb71f5c1	-0.0036920162
52	0x3d0645e5	0.0327815
53	0xbd0ba33c	-0.03409122
54	0x3dc8188a	0.097703055
55	0x3da2fcc2	0.07958366
56	0xbd1eb634	-0.03874798
57	0x3d176a0a	0.03696636
58	0xbd8312a3	-0.06400039
59	0x3c57ee78	0.013179414
60	0xbd82e1ac	-0.063907
61	0xbdaf03c8	-0.08545643
62	0xbdaaa590	-0.0833236
63	0x3d480256	0.048830353
64	0xbd4565c5	-0.048192758
65	0x3ca16aeb	0.019704303
66	0x3d4c5f1c	0.04989539
67	0x3d4687d8	0.048469394
68	0xbd355688	-0.044271976
69	0x3e4c1fd4	0.19934016
70	0xbb533f64	-0.0032233829
71	0xbbdeb7d6	-0.0067968173
72	0x3d7d00a0	0.061768174
73	0xbcdf7de1	-0.027281703
74	0xbca333ab	-0.019922098
75	0x3d03ccfa	0.032177903
76	0x3cd69a55	0.026196638
77	0xbd65716a	-0.056016363
78	0x3d0f4335	0.034976203
79	0x3d743d9f	0.05962908
80	0xbabb9ae6	-0.0014313131
81	0x3d48ec3a	0.04905341
82	0xbd035d4e	-0.032071404
83	0xbd671f0b	-0.05642609
84	0x3b560d26	0.0032661646
85	0xbca0bab2	-0.019620273
86	0x3cc5cd13	0.024145639
87	0x3d9ddc74	0.07708064
88	0x3d6035ec	0.054738924
89	0xbbffce7b	-0.007806597
90	0xbe111492	-0.14168003
91	0x3d997068	0.07492143
92	0x3dbfdcb4	0.09368268
93	0x3cca7b10	0.024716884
94	0xbd86841b	-0.06568166
95	0x3dba59f1	0.09099186
96	0x3d598da9	0.053113613
97	0xbdc714f6	-0.09720795
98	0xbdbd462d	-0.092419006
99	0xbc7e1db7	-0.015510014
100	0x3d8383a7	0.06421595
101	0x3df165f8	0.11787027
102	0xbd03ff50	-0.032225907
103	0xbd783b6e	-0.06060355
104	0x3c6500de	0.013977258
105	0x3d0d61ef	0.034517225
106	0xbca008de	-0.019535478
107	0x3dbdfd0b	0.0927678
108	0xbddfb9d6	-0.10924117
109	0xbd0d52ae	-0.034502678
110	0x3d0c077f	0.034186836
111	0x3d8452fe	0.06461142
112	0x3e84496c	0.25837266
113	0xbdd1f50a	-0.102518156
114	0x3ce23f9f	0.027618228
115	0x3be27cd1	0.006911852
116	0x3daa969a	0.08329506
117	0xbcf38e89	-0.029731052
118	0xbd3d29d3	-0.046182465
119	0x3deb0b77	0.11476796
120	0x3c4d440c	0.012528431
121	0xbd1a6715	-0.037695963
122	0x3de9b8de	0.11412214
123	0xbd7f89bd	-0.062387217
124	0xbd0e149c	-0.034687623
125	0xbdaa317e	-0.08310221
126	0xbc980712	-0.018558059
127	0xbd4ca02a	-0.04995743
128	0x3e4975c6	0.19673833
129	0x3da890cf	0.08230745
130	0x3e0764a8	0.13221991
131	0x3c81a441	0.015825393
132	0xbcc26b52	-0.023732815
133	0xbd8b9562	-0.06815602
134	0x3c803d1c	0.01565414
135	0xbc034051	-0.00801094
136	0x3d1a1d9c	0.037625894
137	0x3bf3030d	0.007416135
138	0x3d3c2477	0.045933213
139	0xbb9585b2	-0.004563057
140	0xbd2b0755	-0.04175504
141	0x3d5e68b2	0.054299064
142	0x3da225a3	0.07917335
143	0x3d00a7e1	0.0314101
144	0x3d06b3b4	0.032886222
145	0x3e1fb5e2	0.15596727
146	0x3d235c85	0.039883155
147	0x3dc911b6	0.09817831
148	0x3df66946	0.12031798
149	0xbe28fba0	-0.16502237
150	0x3d1f2c05	0.03886034
151	0xbe03ecc8	-0.12883294
152	0xbd7ec1a9	-0.062196407
153	0xbdc6a409	-0.09699256
154	0x3d793b10	0.060847342
155	0x3c3829b1	0.011240409
156	0x3d2a7d02	0.041623123
157	0x3dabb6b9	0.08384461
158	0xbcf8b803	-0.030361181
159	0xbdd32d15	-0.10311333
160	0x3b8444bd	0.0040365146
161	0x3d809670	0.06278694
162	0xbc5402da	-0.012940133
163	0x3dc26ab3	0.094930075
164	0xbd8d4f4a	-0.06899889
165	0x3d8fdbee	0.0702437
166	0xbdb901ba	-0.090335324
167	0xbc6096e7	-0.013707853
168	0xbd8e10d3	-0.06936803
169	0x3d3de0ad	0.046356846
170	0x3cc1410c	0.023590587
171	0x3d662323	0.056185853
172	0x3dc5bb83	0.09654906
173	0xbe511f8b	-0.20422189
174	0x3d9454a0	0.072427034
175	0xbc462b65	-0.012095307
176	0xbdfd7305	-0.12375454
177	0x3d68337f	0.056689736
178	0x3d76d533	0.060261916
179	0x3de44cd9	0.1114747
180	0xbdc86794	-0.09785381
181	0x3dba28e1	0.09089828
182	0xbdd14738	-0.10218662
183	0xbd757945	-0.059930105
184	0x3d84ddc5	0.06487612
185	0x3e038192	0.12842396
186	0x3d5059cf	0.0508669
187	0x3d5735ef	0.05254167
188	0x3de5406e	0.111939296
189	0xbdef127e	-0.11673449
190	0x3db39544	0.087687045
191	0xbd7742e7	-0.060366537
192	0x3d4e6200	0.05038643
193	0x3d4ed87f	0.050499436
194	0xbb9790e0	-0.0046254247
195	0xbbb961b0	-0.005657397
196	0x3b13999a	0.0022521974
197	0xbd2c2f8d	-0.042037535
198	0xbc795e4b	-0.015220235
199	0xbd1fa0e4	-0.038971797
200	0x3d61c023	0.055114876
201	0xbd88a0d6	-0.06671302
202	0xbdc5d696	-0.0966007
203	0x3d828425	0.06372861
204	0xbd0e8acd	-0.03480034
205	0xbc1b63ad	-0.009484214
206	0x3d3f6f58	0.046737045
207	0x3d41dd62	0.047330268
208	0x3ce6c85e	0.028171714
209	0xbd849ec2	-0.06475593
210	0x3e4942a9	0.19654335
211	0xbe1552be	-0.14582345
212	0xbceded1c	-0.029043727
213	0xbe02812f	-0.12744592
214	0x3d391734	0.045188144
215	0x3ca28e29	0.019843178
216	0xbd663bbe	-0.05620932
217	0x3cb12d52	0.021628056
218	0x3cb792bc	0.022408836
219	0xbd2d0eec	-0.04225056
220	0xbda6a757	-0.08137386
221	0xbd273e76	-0.04083105
222	0x3da8fb76	0.08251087
223	0x3c50445d	0.012711612
224	0x3b8f8c8a	0.0043807672
225	0xbc9274bf	-0.017877935
226	0x3ccb9ce4	0.024855085
227	0x3d8e9290	0.06961548
228	0xbd4e894e	-0.050423913
229	0x3d903bfc	0.07042691
230	0x3da1f4dc	0.07908031
231	0xbdc1bb18	-0.094595134
232	0xbd0e1d09	-0.03469566
233	0xbd7176b5	-0.0589511
234	0x3da48893	0.08033862
235	0xbd029aa5	-0.03188576
236	0xbd6bc3ee	-0.0575599
237	0x3dacd945	0.084398784
238	0x3e014079	0.1262225
239	0x3d9f1554	0.0776774
240	0xbd894c02	-0.067039505
241	0xbc5d39f2	-0.013502585
242	0x3db86394	0.09003368
243	0x3d1ce7c5	0.03830697
244	0xbbb98c54	-0.0056624804
245	0xbd67638c	-0.05649142
246	0x3e14df03	0.14538197
247	0xbd7651ab	-0.06013648
248	0xbc79b8e9	-0.01524184
249	0x3d836d7e	0.06417368
250	0xba84dace	-0.001013601
251	0x3daca7e8	0.08430463
252	0xbd889310	-0.06668675
253	0x3d8a947a	0.06766601
254	0xbd82f35d	-0.06394074
255	0x3c87c8e4	0.016575284

fc2.bias f4 [256]
0	0x3dfead98	0.12435454
1	0x3d440ded	0.047864843
2	0x3bb633dd	0.005560382
3	0x3d817ee9	0.06323034
4	0x3d595b8b	0.053065818
5	0x3dcd7741	0.100325115
6	0x3d008019	0.031372163
7	0xbcbd5c12	-0.023115192
8	0x3ddf0782	0.10890104
9	0x3d749638	0.059713572
10	0x3d618282	0.055056103
11	0x3d27a7d6	0.040931545
12	0x3db84126	0.08996801
13	0x3dcfd7f4	0.10148612
14	0x3d287573	0.041127633
15	0xbd979c1f	-0.074028246
16	0x3d8e400e	0.06945811
17	0xbb88ea85	-0.0041783475
18	0xb9d5f5d0	-0.0004080967
19	0x3cc83890	0.024441034
20	0x3cf73f62	0.03018159
21	0x3e219f70	0.15783477
22	0x3d522e39	0.051313613
23	0x3dffec71	0.124962695
24	0x3d42464a	0.047430314
25	0x3c9380ad	0.018005693
26	0x3d82c5ea	0.06385405
27	0x3d8536ff	0.0650463
28	0x3c2f9f64	0.010719154
29	0x3b32186f	0.0027175208
30	0xbbf5fc0b	-0.0075068525
31	0x3d32719a	0.04356537
32	0x3ca96602	0.020678524
33	0x3d083620	0.033254743
34	0x3d43f85f	0.047844287
35	0x3db93b33	0.090444945
36	0x3d3cbee1	0.046080474
37	0xbc446d80	-0.011988997
38	0x3daaea47	0.08345466
39	0x3d7a38a3	0.06108917
40	0x3d8a6112	0.06756796
41	0xbb8e50b7	-0.004343118
42	0x3caba9c9	0.020954983
43	0x3d523a7b	0.051325303
44	0xbd5c973c	-0.053855166
45	0x3d923900	0.07139778
46	0x3d7cb9bc	0.061700568
47	0x3d02bb8d	0.031917144
48	0x3cd92735	0.026507953
49	0x3e0ca651	0.1373532
50	0x3d08f509	0.03343681
51	0x3d419cf1	0.04726881
52	0xbc7352c8	-0.01485128
53	0xb9d0d861	-0.00039834066
54	0x3e06b93c	0.13156599
55	0x3dd014fe	0.10160254
56	0x3e2a7eb5	0.16649897
57	0x3c198705	0.00937057
58	0x3e018a44	0.126504
59	0x3d5bee80	0.05369425
60	0x3d498a9b	0.04920445
61	0x3cf67003	0.030082708
62	0x3dc257d2	0.09489407
63	0xbcb25fff	-0.02177429
64	0x396e0088	0.00022697647
65	0x3d6b1c88	0.057400256
66	0x3dedd51c	0.11612913
67	0x3e33644b	0.17518727
68	0x3d57680c	0.05258946
69	0x3e080766	0.13284072
70	0x3da8329f	0.0821278
71	0x3dff109a	0.12454338
72	0xbc643580	-0.013928771
73	0xbaaa769b	-0.0013005318
74	0xbd982130	-0.07428205
75	0x3db32e18	0.08749026
76	0x3dacc0ac	0.08435187
77	0x3d17f7fa	0.037101723
78	0x3d917b9a	0.07103653
79	0x3e32242e	0.17396614
80	0xbd90ed96	-0.07076566
81	0x3d47e4c4	0.048802152
82	0xbda003bb	-0.078132115
83	0xbd2f9da3	-0.042874943
84	0x3d87bccf	0.06627809
85	0x3d8285d7	0.06373184
86	0x3db09511	0.08622182
87	0x3d108cef	0.035290655
88	0x3d035b88	0.032069713
89	0x3cdb6196	0.026779931
90	0xbd0342f3	-0.03204627
91	0x3e0291a1	0.12750866
92	0x3b3e1cd1	0.0029008875
93	0xbc8bc437	-0.017061336
94	0xbce5d82a	-0.028057177
95	0x3c0200e1	0.00793478
96	0xbb700daf	-0.003662925
97	0x3d86df30	0.065855384
98	0x3d4d768f	0.050161894
99	0xbd4f7b51	-0.050654713
100	0x3dc7647c	0.09735963
101	0x3dc18fc0	0.09451246
102	0x3dacdf3a	0.084410146
103	0xbd8074c1	-0.06272269
104	0xbcc2d224	-0.023781843
105	0x3d648ad1	0.05579645
106	0xbca2ae44	-0.019858487
107	0xbd01fb9f	-0.031734105
108	0x3d99a8f5	0.07502929
109	0x3b79fe64	0.0038146013
110	0xbce01815	-0.027355233
111	0x3d5c6322	0.053805478
112	0x3ca647db	0.020297935
113	0xbba96155	-0.0051690736
114	0x3d0a110c	0.033707663
115	0x3c2d92f9	0.010594123
116	0x3e0ac6c4	0.13552386
117	0x3d9dfc13	0.07714095
118	0x3e2c1390	0.16804338
119	0x3e2cc46f	0.16871808
120	0x3dc39dc1	0.095515735
121	0x3d3be135	0.04586907
122	0x3c0ffbdf	0.008788078
123	0x3d4db159	0.05021796
124	0x3d3c96bc	0.04604219
125	0x3c3c5b5a	0.011496389
126	0x3d9f397a	0.07774635
127	0x3d5b6233	0.053560447
128	0x3d1a2be5	0.037639517
129	0x3d44a6f8	0.048010796
130	0xbd8fc008	-0.07019049
131	0x3cf6471d	0.030063206
132	0x3d93e5e4	0.072215825
133	0xbb82745c	-0.0039811563
134	0x3cc0448b	0.023470184
135	0x3d6d144f	0.057880696
136	0x3dc78747	0.09742599
137	0x3db59b16	0.08867471
138	0x3db37a73	0.0876359
139	0x3d0a1856	0.033714615
140	0x3d8374e0	0.064187765
141	0x3ad59f6b	0.0016298121
142	0x3ca73a84	0.020413645
143	0xbd9e8d61	-0.0774181
144	0x3d62b94d	0.055352498
145	0x3d4a129f	0.049334165
146	0x3d468aaa	0.048472084
147	0x3d837ebf	0.06420659
148	0x3d0280cc	0.03186111
149	0x3e283f48	0.1643039
150	0x3cecb93a	0.028896917
151	0xbd01406e	-0.031555586
152	0xbc429be1	-0.011877985
153	0x3b3e5b7a	0.0029046223
154	0x3d3a1bb6	0.045436583
155	0x3e0394af	0.12849687
156	0x3d8ef146	0.06979613
157	0x3d9e66b0	0.0773443
158	0x3c3b4937	0.01143103
159	0xbd464893	-0.048409056
160	0x3de638de	0.11241315
161	0x3e00357c	0.12520403
162	0x3c26178c	0.01013745
163	0x3bc555b7	0.006022181
164	0x3bca5b8d	0.0061754645
165	0xbd3c5486	-0.045979045
166	0x3dea86cc	0.11451492
167	0x3b9d2abc	0.004796354
168	0x3e17e689	0.14834036
169	0x3df1d96d	0.11809049
170	0x3d9cd1bd	0.07657192
171	0x3dbd76b4	0.092511564
172	0x3da8b1ef	0.08237063
173	0x3d4fd991	0.050744597
174	0xbdaf3d75	-0.08556644
175	0xbcd5e38d	-0.026109481
176	0xbd5b581d	-0.05355083
177	0xbd29995f	-0.04140603
178	0x3e35ae92	0.17742375
179	0x3cc83d8c	0.02444341
180	0x3d789255	0.060686428
181	0x3e10561b	0.14095347
182	0x3dc23431	0.09482611
183	0x3d0859ab	0.03328864
184	0x3ded5e33	0.11590233
185	0x3d845782	0.06462003
186	0x3cf6af33	0.030112838
187	0xbb435e23	-0.0029810749
188	0x3d99287e	0.074784264
189	0x3dc966a3	0.098340295
190	0x3c29be9f	0.010360389
191	0x3c9a4cda	0.018835474
192	0x3d168e55	0.036756832
193	0x3cd2e6a5	0.025744746
194	0x3cf02bd8	0.029317781
195	0x3d99c269	0.07507784
196	0x3e27f600	0.16402435
197	0x3c4b8a05	0.012423043
198	0x3beddcb8	0.0072589777
199	0x3d5bf552	0.053700753
200	0x3da23daa	0.07921918
201	0x3e083922	0.13303044
202	0x3db34b78	0.08754629
203	0x3cb694dd	0.02228778
204	0xbca6f41a	-0.020380069
205	0x3c692f55	0.014232476
206	0x3da03808	0.07823187
207	0xbd4b5fc6	-0.049651884
208	0xbbbf3f88	-0.005836431
209	0x3e009da4	0.12560135
210	0x3cc5c465	0.0241415
211	0xbbb64fe4	-0.005563723
212	0x3d2e0acd	0.04249077
213	0x3d06293e	0.032754175
214	0x3e0918e4	0.13388401
215	0xbd785ce8	-0.060635477
216	0xbcbddffe	-0.023178097
217	0x3d87ddfa	0.066341355
218	0x3dfc72ee	0.123266086
219	0x3d2631b1	0.040574733
220	0x3b9af35a	0.004728717
221	0x3d7da9b6	0.061929427
222	0x3d197571	0.037465516
223	0x3d9fec34	0.07808724
224	0xbd38d540	-0.045125246
225	0x3e001ed8	0.12511766
226	0x3e5db8fa	0.21652594
227	0x3d98abf5	0.07454673
228	0x3dfcad55	0.12337748
229	0x3d1e0ea8	0.038588196
230	0x3db03e74	0.08605662
231	0x3d9b115c	0.075716704
232	0x3d1336ce	0.035940938
233	0x3d20488d	0.03913169
234	0x3c1046df	0.0088059595
235	0x3cb8dd71	0.022566529
236	0x3d657b35	0.056025703
237	0x3db0f001	0.08639527
238	0x3d958fb8	0.07302803
239	0x3e16a032	0.14709547
240	0x3d6f1a15	0.058374483
241	0x3d838cb4	0.06423321
242	0x3d50d59f	0.050984975
243	0x3d17b287	0.03703549
244	0x3d98846b	0.07447132
245	0x3d9bc338	0.076055944
246	0x3db92088	0.09039408
247	0x3df46dc5	0.119349994
248	0x3d49fb00	0.049311638
249	0x3c8b3ff4	0.016998269
250	0x3d9156f4	0.07096663
251	0x3de13be3	0.109977506
252	0xbd0432f9	-0.032275174
253	0x3d911bec	0.07085404
254	0x3dc8c639	0.09803433
255	0x3c76679b	0.01503935

fc3.weight f4 [2, 256]
0	0xbe21d0b8	-0.15802276
1	0x3e297d5c	0.16551727
2	0x3e22c1aa	0.1589419
3	0x3df20279	0.11816878
4	0xbe27f045	-0.1640025
5	0xbe2cdcb7	-0.16881071
6	0x3e4928ff	0.19644545
7	0x3e4ea67b	0.20180695
8	0xbe3bb0da	-0.18329182
9	0xbe1b805b	-0.15185682
10	0xbe24eb1a	-0.16105309
11	0x3e0c2fc9	0.13690104
12	0xbdd44e69	-0.10366518
13	0x3e8f4e4b	0.2798942
14	0x3e5b198a	0.21396461
15	0x3e23f535	0.16011508
16	0xbe17458b	-0.14772622
17	0x3d392249	0.045198712
18	0x3e755aeb	0.23960464
19	0x3e051671	0.12996842
20	0x3e746f1d	0.23870511
21	0xbe079612	-0.13240841
22	0xbdec639d	-0.11542437
23	0xbe0962fb	-0.13416664
24	0x3e558f76	0.20855507
25	0x3e0d8421	0.13819934
26	0xbe21dd23	-0.15807013
27	0xbd8d4d37	-0.06899493
28	0x3e70286c	0.2345292
29	0x3d952caa	0.072839096
30	0x3ea0a859	0.3137844
31	0xbe2a7939	-0.16647805
32	0x3e28fa9e	0.16501853
33	0x3df47d6b	0.11937984
34	0x3e19e4e5	0.15028723
35	0x3e126aa4	0.14298493
36	0x3e1c9b88	0.15293705
37	0x3e5c1c5d	0.21495195
38	0xbdf98d80	-0.12185192
39	0x3e75f1dc	0.24018043
40	0x3e1a7de8	0.15087092
41	0x3e2c0a3b	0.16800778
42	0x3e14119b	0.14459841
43	0xbe0c18af	-0.13681291
44	0x3e78719f	0.24262093
45	0x3e70d112	0.23517254
46	0xbe1d1693	-0.15340643
47	0x3dd11a13	0.102100514
48	0x3e46a72b	0.19399707
49	0xbe593ba7	-0.21214162
50	0x3d8884ed	0.066659786
51	0x3e504a39	0.20340814
52	0x3dc5a892	0.09651293
53	0x3da76262	0.08173062
54	0x3b9a0523	0.0047003194
55	0x3d5a0090	0.053223193
56	0xbe4f1e67	-0.20226441
57	0x3d9ff1e8	0.07809812
58	0xbdee9d05	-0.11651043
59	0xbe299fb2	-0.16564825
60	0x3e579917	0.21054493
61	0x3e75925b	0.23981611
62	0xbd5a9aa1	-0.053370122
63	0xbe0f6c5a	-0.14006177
64	0x3e772b6d	0.2413766
65	0x3dfc7ea9	0.12328846
66	0xbe2ebb2b	-0.17063586
67	0xbe1f60cd	-0.1556427
68	0x3df5f76a	0.12010081
69	0xbde41b20	-0.11137986
70	0xbe474cc4	-0.19462878
71	0xbc6142b7	-0.013748816
72	0x3e0e02c9	0.1386825
73	0x3e87d546	0.26529902
74	0x3e6f46fc	0.23366922
75	0x3e26a2c6	0.1627303
76	0x3e920d78	0.285259
77	0x3e0d4102	0.1379433
78	0x3eb98099	0.36230925
79	0xbe72094a	-0.23636356
80	0x3e8f1124	0.27942765
81	0x3e07f13d	0.13275619
82	0x3e194743	0.1496859
83	0x3e56e90d	0.2098734
84	0x3dfd80b1	0.123780616
85	0x3e2f9fca	0.17150798
86	0xbdf24369	-0.11829264
87	0x3e01666b	0.12636726
88	0xbdb4e8d2	-0.088334695
89	0x3e17dcff	0.14830397
90	0x3e5f0cee	0.21782276
91	0xbe14cf80	-0.1453228
92	0x3e59e1f1	0.21277596
93	0x3e3255ed	0.1741559
94	0x3dc8ae06	0.09798817
95	0x3dbaa1b9	0.091128774
96	0x3e2a42a1	0.1662698
97	0xbdddb7a0	-0.10826039
98	0xbdcc09ae	-0.09962784
99	0x3e2dbc97	0.16966473
100	0xbde82259	-0.11334676
101	0x3ec1dc94	0.378636
102	0xbe213805	-0.15744026
103	0x3e7dd4ba	0.2478818
104	0x3df44205	0.11926655
105	0xbe117d02	-0.14207843
106	0x3ddaf622	0.10691477
107	0x3e7c562b	0.24642245
108	0x3e84afbd	0.25915328
109	0xbdd075dc	-0.1017873
110	0x3e0e8658	0.13918436
111	0x3e3fa03c	0.18713468
112	0x3e0c9b97	0.13731228
113	0x3dcc101a	0.09964009
114	0xbdf566d5	-0.11982504
115	0x3e72f789	0.2372724
116	0x3c4a0fd0	0.012332872
117	0xbe011e38	-0.12609184
118	0xbe7ad748	-0.24496186
119	0xbe2917ac	-0.16512936
120	0x3df05d6d	0.117365696
121	0x3e8624e1	0.2620001
122	0x3e18e4b8	0.14931
123	0xbda34ade	-0.07973264
124	0x3e56f68a	0.20992485
125	0x3e5f3d26	0.2180067
126	0x3e60e627	0.21962796
127	0x3cfea897	0.03108625
128	0x3d40dab2	0.047083564
129	0xbe05b4bc	-0.13057226
130	0x3e0d274e	0.13784525
131	0x3e53282b	0.20620792
132	0x3e940c84	0.289158
133	0x3dd0803e	0.1018071
134	0x3e2903ef	0.16505407
135	0x3e7bce62	0.24590448
136	0xbde6938f	-0.11258613
137	0xbdec92dc	-0.11551449
138	0x3e596c86	0.21232805
139	0x3da1fb98	0.07909316
140	0x3e8541cc	0.26026762
141	0x3d9099a2	0.07060553
142	0x3d9fd252	0.07803787
143	0x3e7c9248	0.24665177
144	0x3b8d194d	0.0043059946
145	0xbe26c3b3	-0.16285591
146	0x3e336cea	0.17522016
147	0xbe044ea1	-0.1292062
148	0x3e158c0d	0.14604206
149	0xbe09800e	-0.13427755
150	0x3e48325b	0.19550459
151	0x3e55a08f	0.2086203
152	0x3e85ade2	0.26109225
153	0x3c10034e	0.00878985
154	0x3e5bd393	0.21467428
155	0xbe0cc207	-0.1374589
156	0x3e5f23f7	0.21791063
157	0x3d9654e8	0.07340413
158	0x3e446e5d	0.19182725
159	0x3e171749	0.14754976
160	0x3e5eff7d	0.21777149
161	0xbbb9d9c7	-0.005671713
162	0x3e76e6d0	0.24111485
163	0x3e1663ee	0.14686558
164	0x3dbf3909	0.093370505
165	0x3e7da6cf	0.24770664
166	0x39e51603	0.00043694684
167	0x3e4980b5	0.19678004
168	0xbe03cb59	-0.1287054
169	0xbe191daa	-0.14952722
170	0xbe3cf850	-0.18454099
171	0x3eb0edc5	0.34556404
172	0xbdf82072	-0.121155635
173	0x3e50a4a8	0.20375311
174	0x3c863270	0.016381472
175	0x3e159612	0.14608029
176	0x3e5833c0	0.21113491
177	0x3e3e2e2a	0.18572298
178	0xbe21c835	-0.15799029
179	0x3dbb4540	0.09144068
180	0x3e886414	0.26638854
181	0x3eb79242	0.35853773
182	0xbddd9072	-0.108185664
183	0x3da801cb	0.08203467
184	0x3e9c10e1	0.30481628
185	0x3e59aca8	0.2125727
186	0xbe1b512c	-0.15167683
187	0x3e54a7a8	0.20767081
188	0x3e202308	0.15638363
189	0xbde48a2d	-0.111591674
190	0x3e572a1c	0.21012157
191	0x3e71bd62	0.236074
192	0xbe1aa06c	-0.15100259
193	0xbe0490cb	-0.12945859
194	0x3e6d3e40	0.23168278
195	0xbdf2d7b1	-0.11857546
196	0x3da569df	0.08076834
197	0x3e40948c	0.18806666
198	0x3e557906	0.20846948
199	0x3e02a2a2	0.12757352
200	0xbdf45c14	-0.11931625
201	0xbe83b778	-0.25725913
202	0xbe178d88	-0.14800084
203	0x3e27ae3f	0.16375063
204	0x3e08217e	0.13294026
205	0x3e416281	0.18885233
206	0xbe1203a6	-0.14259204
207	0x3e456dad	0.19280119
208	0x3e1b2433	0.15150528
209	0x3c9300da	0.017944742
210	0x3e401aab	0.18760173
211	0x3dc64b53	0.09682336
212	0x3dca8d70	0.09890258
213	0x3d4ce97a	0.050027348
214	0xbddff7c6	-0.10935931
215	0x3e3c3f3b	0.18383496
216	0x3e42ff4f	0.19042705
217	0xbdaa2ca8	-0.08309299
218	0x3e2b7139	0.1674241
219	0xbd40b38e	-0.047046237
220	0x3dc70920	0.09718537
221	0xbe02f733	-0.12789612
222	0xbc0050f7	-0.0078318035
223	0x3de86d0c	0.11348924
224	0x3e972fca	0.29528648
225	0xbdc1673b	-0.09443518
226	0xbe3d07df	-0.18460034
227	0xbe142be7	-0.14469872
228	0xbe46e321	-0.1942258
229	0x3df18032	0.117920294
230	0x3ea2323d	0.31678954
231	0xbe31891e	-0.17337462
232	0x3d6af1f0	0.057359636
233	0x3e19d0be	0.15021035
234	0x3e7b8b81	0.24564935
235	0x3d0a1184	0.03370811
236	0xbe19a263	-0.15003352
237	0x3c8cff27	0.01721151
238	0x3e0c4350	0.13697553
239	0xbe20c5d5	-0.15700467
240	0x3e2801ea	0.1640698
241	0xbe00d20f	-0.12580131
242	0x3e36c072	0.1784685
243	0x3e27b614	0.16378051
244	0x3e96fd8b	0.29490313
245	0xbdd9e5ce	-0.10639535
246	0xbdecd610	-0.11564267
247	0x3c9c6674	0.019091822
248	0x3e3e6b77	0.18595682
249	0x3e450567	0.19240342
250	0x3e5e3c51	0.21702696
251	0xbde39a15	-0.11113373
252	0x3e278b05	0.16361625
253	0x3e44ff8b	0.19238107
254	0x3e786724	0.24258095
255	0x3e816858	0.2527492

fc3.bias f4 [2]
0	0xbc91ea02	-0.017811779
1	0x3a86287f	0.0010235457

bn.weight f4 [256]
0	0x3f8ac97b	1.0842737
1	0x3f2245fb	0.6338803
2	0x3f631ddd	0.8871744
3	0x3f884c92	1.0648367
4	0x3f465342	0.7747079
5	0x3eb945fd	0.3618621
6	0x3f8ce4ad	1.1007286
7	0x3de22b13	0.11043372
8	0x3f11bd87	0.5692982
9	0x3f8a15dc	1.0787921
10	0x3f125d75	0.57173854
11	0x3f1388bf	0.5763053
12	0x3ea47e02	0.32127386
13	0x3ec047eb	0.3755487
14	0x3f21fb2d	0.6327389
15	0x3ea20c60	0.31650066
16	0x3f110841	0.5665322
17	0x3f24dd0a	0.6439978
18	0x3eb90bc1	0.3614178
19	0x3eab8fda	0.33508188
20	0x3eeaf369	0.45888832
21	0x3f2e78ca	0.6815306
22	0x3e990138	0.29883742
23	0x3f76bf68	0.9638581
24	0x3f512428	0.81695795
25	0x3f05b233	0.52225035
26	0x3f6cd099	0.92505795
27	0x3f69208c	0.9106529
28	0x3f509edd	0.81492406
29	0x3eb1a18d	0.34693566
30	0x3f3f8980	0.74819183
31	0x3ea6b4be	0.3255977
32	0x3f2ab0af	0.6667585
33	0x3e75126e	0.23932812
34	0x3f759c08	0.9594121
35	0x3f8a233a	1.0792
36	0x3f8a99cc	1.0828185
37	0x3f7330b7	0.9499621
38	0x3f21cba8	0.6320138
39	0x3e5f7056	0.21820197
40	0x3f22c040	0.635746
41	0x3eb43bfe	0.3520202
42	0x3f85917f	1.0435027
43	0x3e556a31	0.2084129
44	0x3f8a5258	1.0806379
45	0x3f5e70f5	0.8689111
46	0x3f0ba02b	0.5454127
47	0x3e9273ff	0.28604123
48	0x3ee7c867	0.45270082
49	0x3f5ba540	0.85799026
50	0x3eec98e7	0.46210405
51	0x3f16994a	0.5882765
52	0x3f7f29d6	0.9967321
53	0x3f84e1e9	1.0381442
54	0x3f49ed3e	0.7887763
55	0x3eeb47f8	0.45953345
56	0x3f181c67	0.5941834
57	0x3f5405c3	0.8282129
58	0x3f4a2585	0.789635
59	0x3ed2fd77	0.41209003
60	0x3f4045a3	0.7510626
61	0x3f112f2c	0.56712604
62	0x3e4ff7df	0.20309399
63	0x3e938230	0.28810263
64	0x3f82be6d	1.0214363
65	0x3ef20d4f	0.4727578
66	0x3ebdce5e	0.37071508
67	0x3f2e3bb9	0.6805988
68	0x3f43bc22	0.7645894
69	0x3e75a30e	0.23987982
70	0x3f7f3d14	0.9970257
71	0x3f148ca9	0.5802713
72	0x3f5a75b6	0.8533586
73	0x3f7eb2b5	0.99491435
74	0x3e753d3e	0.23949143
75	0x3eaf0a19	0.3418739
76	0x3f52a775	0.8228677
77	0x3eedc2cb	0.46437678
78	0x3f49c4fd	0.78816205
79	0x3ecd7a93	0.4013258
80	0x3e0a0068	0.13476717
81	0x3e9ecd71	0.31016114
82	0x3e99b01e	0.3001718
83	0x3f22d95e	0.63612926
84	0x3f80f636	1.0075138
85	0x3f398174	0.72463155
86	0x3f3d6fb2	0.7399856
87	0x3e560b2c	0.20902699
88	0x3e84684a	0.25860816
89	0x3f2302af	0.6367597
90	0x3edf9c58	0.43673968
91	0x3f6dad48	0.9284253
92	0x3e99a2e6	0.30007094
93	0x3e9a8f56	0.30187482
94	0x3ed6f9fe	0.41987604
95	0x3f3ee840	0.74573135
96	0x3ebd36dc	0.36955917
97	0x3f3f8b36	0.74821794
98	0x3f7cecec	0.98799014
99	0x3e80605c	0.25073516
100	0x3f98e2d8	1.1944227
101	0x3f7896eb	0.9710528
102	0x3f00092d	0.50014
103	0x3eed79f1	0.46382096
104	0x3f07d537	0.53059715
105	0x3ea91054	0.3302027
106	0x3f2144d5	0.62995654
107	0x3f827565	1.0192076
108	0x3f730877	0.9493479
109	0x3f7c0541	0.98445517
110	0x3ee29a76	0.4425847
111	0x3f5e20a4	0.86768556
112	0x3ec71dea	0.3889001
113	0x3eb6dce9	0.35715416
114	0x3f80d05f	1.006359
115	0x3edd3527	0.43204615
116	0x3ec599d9	0.3859394
117	0x3f0b95f5	0.5452569
118	0x3f6ea15b	0.9321496
119	0x3f90b0b5	1.1303927
120	0x3f694edb	0.9113595
121	0x3f28a546	0.6587719
122	0x3f9463de	1.1592977
123	0x3f6b927f	0.9202041
124	0x3ee90e6c	0.45518816
125	0x3f50c709	0.81553704
126	0x3f6f59f9	0.9349666
127	0x3f66d03f	0.9016151
128	0x3e8efe6a	0.27928478
129	0x3ecd23c1	0.4006634
130	0x3ea21b73	0.31661567
131	0x3f0106c6	0.5040096
132	0x3f811d0d	1.008699
133	0x3f6aba0c	0.91690135
134	0x3f434424	0.7627585
135	0x3f5c045a	0.8594414
136	0x3f693697	0.9109892
137	0x3f838998	1.0276365
138	0x3e152d95	0.1456817
139	0x3f6979d5	0.91201526
140	0x3f5ad505	0.8548129
141	0x3f27afed	0.65502816
142	0x3ec67287	0.38759252
143	0x3ee2aafb	0.44271073
144	0x3ea32bc9	0.31869343
145	0x3ed35ca5	0.4128162
146	0x3eb450a8	0.35217786
147	0x3f3c8369	0.73638016
148	0x3f9babcb	1.2161802
149	0x3f095692	0.5364772
150	0x3e47a6bd	0.194972
151	0x3e957924	0.29193985
152	0x3e9abce5	0.3022224
153	0x3e5b3bcd	0.21409531
154	0x3eccaba2	0.39974695
155	0x3e2f822d	0.17139502
156	0x3f74c128	0.95607233
157	0x3f23c193	0.63967246
158	0x3f07619a	0.52883303
159	0x3f2718f1	0.6527243
160	0x3f097f52	0.537099
161	0x3f313b2a	0.692309
162	0x3e827c79	0.2548559
163	0x3f4fad19	0.811235
164	0x3ecd8fbc	0.40148723
165	0x3f268d1e	0.6505908
166	0x3f2a9ed1	0.66648585
167	0x3df5433f	0.11975717
168	0x3f5cd956	0.8626913
169	0x3e8b0a45	0.27156273
170	0x3f2391a9	0.63894135
171	0x3f8cfb9a	1.1014283
172	0x3f085fc1	0.5327111
173	0x3f66b301	0.9011689
174	0x3f65db5a	0.8978783
175	0x3f8ddad2	1.1082404
176	0x3f3d1be5	0.7387069
177	0x3f84e8d4	1.0383554
178	0x3f80c27a	1.005935
179	0x3f7a1249	0.9768415
180	0x3e958009	0.29199246
181	0x3ee11671	0.43962434
182	0x3f055293	0.52079123
183	0x3f52ba36	0.82315385
184	0x3ea839d3	0.32856616
185	0x3f62810f	0.8847818
186	0x3e7ffa89	0.24997915
187	0x3e82b922	0.2553187
188	0x3eda5f47	0.42650816
189	0x3e9e102a	0.30871707
190	0x3f850b7e	1.0394132
191	0x3e663ce4	0.22484165
192	0x3f7bc9f5	0.98355037
193	0x3f25240e	0.6450814
194	0x3f9f12ab	1.2427572
195	0x3f42299f	0.7584476
196	0x3f5e3093	0.8679287
197	0x3e964431	0.293489
198	0x3f824589	1.017747
199	0x3f65378a	0.8953787
200	0xbe755166	-0.23956832
201	0x3f250ec9	0.64475685
202	0x3ee772bd	0.45204726
203	0x3f2190a0	0.63111305
204	0x3f768730	0.9630003
205	0x3f8305e0	1.0236168
206	0x3f785fee	0.9702138
207	0x3effa37c	0.49929416
208	0x3f4e01ec	0.8047168
209	0x3ea74187	0.3266718
210	0x3f2db73b	0.6785771
211	0x3f262374	0.6489785
212	0x3f8a9995	1.082812
213	0x3f8859ad	1.0652367
214	0x3f567f40	0.8378792
215	0x3ec09c29	0.3761914
216	0x3f6d4a08	0.9269109
217	0x3ef87f09	0.4853442
218	0x3f0b4086	0.5439533
219	0x3f0b6f7d	0.5446699
220	0x3f549722	0.8304311
221	0x3f692f77	0.9108805
222	0x3e966d06	0.29380053
223	0x3f444933	0.76674193
224	0x3f5a0d88	0.851769
225	0x3f3a652b	0.7281062
226	0x3f7a3637	0.97738975
227	0x3f0f99ac	0.5609386
228	0x3f522d72	0.82100594
229	0x3f8add3d	1.0848767
230	0x3f322cfd	0.69599897
231	0x3f89576c	1.0729804
232	0x3ef691c0	0.48158073
233	0x3f80d364	1.0064511
234	0x3f00f6d6	0.5037664
235	0x3f3cd437	0.73761314
236	0x3f2a5ba5	0.6654609
237	0x3eabe1a4	0.33570588
238	0x3f014691	0.504983
239	0x3f3813f9	0.71905476
240	0x3ec2d1c9	0.38050678
241	0x3f0f652e	0.5601376
242	0x3f882a67	1.063794
243	0x3f236c64	0.63837266
244	0x3e99199b	0.29902348
245	0x3f051b7b	0.51995057
246	0x3edf417d	0.4360465
247	0x3f91ed09	1.1400462
248	0x3e9a6e7c	0.30162418
249	0x3f6ac6a7	0.9170937
250	0x3ee72939	0.45148638
251	0x3efc5806	0.49285907
252	0x3e9c10cd	0.30481568
253	0x3f85015a	1.0391037
254	0x3eb00de5	0.343856
255	0x3e4ac3b0	0.19801211

bn.bias f4 [256]
0	0xbdebc9d3	-0.11513104
1	0x3ce6a97f	0.028156994
2	0x3ba619cb	0.0050689927
3	0x3a792964	0.0009504764
4	0x3c92a620	0.01790148
5	0x3d59a94a	0.053139962
6	0xbc2b89e5	-0.010469888
7	0x3e1f86ef	0.15578817
8	0xbda8804d	-0.082275964
9	0xbc1cd82c	-0.009573024
10	0x3c9264bc	0.0178703
11	0x3c9d26d3	0.019183552
12	0x3da8063c	0.08204314
13	0x3dae480c	0.085098356
14	0xbd5de7bd	-0.05417608
15	0x3daad421	0.08341242
16	0x3d0274e2	0.03184975
17	0xbca69b58	-0.020337746
18	0xbd92f4ce	-0.07175599
19	0x3c91ad52	0.01778284
20	0xbd250e15	-0.040296633
21	0xbd2f5458	-0.042805046
22	0xbd919641	-0.07108737
23	0x3d225cfe	0.039639466
24	0xbcfe2287	-0.031022323
25	0xbc63b416	-0.013897916
26	0xbd9aac30	-0.075523734
27	0x3d979bdc	0.07402775
28	0x3c348266	0.011017418
29	0x3da73d50	0.08165991
30	0x3cfa2b50	0.030538231
31	0x3c347cc0	0.011016071
32	0xbb5af2b7	-0.003340883
33	0x3c699685	0.014257078
34	0xbd1bebd1	-0.03806669
35	0x3d8e22b2	0.06940211
36	0xbd9b3b2c	-0.075796455
37	0x3be91062	0.0071125487
38	0x3d41016b	0.047120493
39	0x3d89bb56	0.067251846
40	0x3bcf4ec2	0.0063265273
41	0x3cec317c	0.02883219
42	0x3cd84265	0.026398847
43	0x3dedb709	0.11607177
44	0x3b6dcc32	0.003628504
45	0x3cb76000	0.022384644
46	0x3d089db2	0.033353515
47	0x3d59efeb	0.05320732
48	0xbcfb3c66	-0.030668449
49	0x3bdcc7dd	0.0067376927
50	0x3c0fd8a9	0.008779683
51	0xbce81ccb	-0.028334042
52	0x3d953f8e	0.07287513
53	0xbc99f218	-0.018792197
54	0xbca013bc	-0.01954066
55	0x3a930497	0.0011216578
56	0xbd2a7fd7	-0.041625824
57	0x3c813cf5	0.015776137
58	0xbd7ea5f4	-0.062169984
59	0xbd3fc8b5	-0.04682227
60	0xbd6a5ac0	-0.057215452
61	0x3d3fece9	0.046856795
62	0xbdbbe489	-0.09174449
63	0x3d4b55f9	0.049642537
64	0x3d9698b1	0.07353342
65	0x3c341084	0.010990266
66	0xbc948084	-0.018127687
67	0x3c9b1cb1	0.01893458
68	0xbb90bd9e	-0.0044171354
69	0x3d413f36	0.047179423
70	0x3da69f7a	0.081358865
71	0xbb3f0071	-0.002914455
72	0x3ca38b14	0.019963779
73	0x3c483c82	0.012221457
74	0x3cea288d	0.02858379
75	0x3cea6c9a	0.028616238
76	0xbc5f9c54	-0.013648111
77	0xbd153042	-0.036422975
78	0xbb8a643e	-0.0042233756
79	0xbcd9cef1	-0.026587935
80	0x3dfc3c2c	0.123161644
81	0x3c31dac3	0.0108553795
82	0x3d2984cd	0.041386414
83	0x3cf3ceaf	0.02976164
84	0xbcf852a8	-0.030312851
85	0x3cbc178c	0.022960447
86	0xbd4d0a17	-0.05005845
87	0x3c7a0afc	0.015261408
88	0x3d3cf9f8	0.046136826
89	0xbc5893c8	-0.013218828
90	0x3cbfadc0	0.02339828
91	0x3c88eb16	0.01671366
92	0x3cf9c3c6	0.03048886
93	0xbd97adf4	-0.07406226
94	0xbcbc1e73	-0.022963738
95	0x3cc7815b	0.024353674
96	0xbb529fd5	-0.0032138724
97	0xbc0411ae	-0.008060856
98	0x3ca3727a	0.019952048
99	0x3c740791	0.014894382
100	0x3c681edb	0.014167513
101	0xbd7d8b90	-0.061900675
102	0x3d3d3e0e	0.046201758
103	0x3daee77d	0.08540247
104	0x3d09d9e7	0.033655073
105	0x3b514ab7	0.0031935403
106	0xbca91236	-0.020638566
107	0x3cce3c4c	0.025175236
108	0xbc76ceb8	-0.015063934
109	0x3bb2d136	0.005457069
110	0xbc0fee70	-0.008784875
111	0x3d323532	0.043507762
112	0x3dc461b3	0.09588947
113	0xbd9d5004	-0.076812774
114	0x3a93e617	0.0011283782
115	0x3db45db7	0.08806937
116	0xba85e897	-0.0010216412
117	0x3ce21864	0.027599521
118	0xbb94db41	-0.0045427387
119	0x3dbac257	0.09119099
120	0x3d1dc585	0.038518447
121	0xbc2a4870	-0.010393247
122	0xbbf9f8ec	-0.0076285508
123	0x3b4352b7	0.002980394
124	0xbd1bf0ae	-0.038071327
125	0xbd800b23	-0.06252124
126	0x3da5110a	0.080598906
127	0xbc89ac02	-0.016805653
128	0x3e007747	0.125455
129	0xbd95edcc	-0.07320747
130	0x3cb6d276	0.022317152
131	0x3cc96069	0.024582105
132	0xbcdc079d	-0.026859099
133	0x3d7b05e7	0.061284926
134	0xbc8f96d7	-0.01752798
135	0xbbcadcce	-0.0061908728
136	0x3ca29feb	0.019851645
137	0xbc87a9ef	-0.016560523
138	0xbcaa5e0c	-0.020796798
139	0x3cabedb1	0.020987364
140	0x3d0fd874	0.035118535
141	0x3d5b2b3e	0.053508036
142	0x3d838eb1	0.064237006
143	0xbb277d06	-0.0025556698
144	0x3bd2e7cb	0.0064363233
145	0xbc927eb1	-0.017882677
146	0x3dc914fe	0.09818457
147	0xbcfb1c1d	-0.030653054
148	0x3d69050f	0.05688959
149	0x3c4980a0	0.012298733
150	0x3cdf7b07	0.027280344
151	0xbe0c28a1	-0.13687374
152	0xbd3f1700	-0.046652794
153	0xbe001444	-0.1250773
154	0x3b80b4af	0.003927789
155	0x3df8f34e	0.12155782
156	0x3cd5c4c6	0.026094805
157	0x3d2eab88	0.042644054
158	0xbe06784e	-0.1313183
159	0x3d3f60c4	0.046723142
160	0x3c87dca4	0.016584702
161	0xbd107260	-0.035265326
162	0xbe268f08	-0.162655
163	0xbd15846b	-0.036503237
164	0xbcae51fd	-0.02127933
165	0x3c9ffe42	0.01953042
166	0xbd98e288	-0.074650824
167	0xbd823937	-0.06358569
168	0x3c62beec	0.013839465
169	0xbcdf0130	-0.027222246
170	0x3c87ffcb	0.016601464
171	0x3c1468dc	0.009058204
172	0x3cef57a0	0.029216588
173	0xbd6ff6c7	-0.058584955
174	0x3c1830b7	0.009288958
175	0x3d04ea76	0.032450162
176	0x3caf737a	0.021417368
177	0x3d2dca44	0.042429224
178	0xbc78287d	-0.015146372
179	0x3c012b0b	0.007883797
180	0xbcdb63f0	-0.026781052
181	0xbc9c4718	-0.019076869
182	0x3ca84acf	0.020543484
183	0xbc3d098a	-0.011537919
184	0x3bc76f6b	0.00608628
185	0x3c747419	0.014920258
186	0x3cae0bfd	0.02124595
187	0x3d8efebb	0.0698218
188	0x3d916083	0.07098486
189	0xbcc3a22a	-0.023881037
190	0xbce3fbfb	-0.027830115
191	0x3e04c3b6	0.12965283
192	0x3c855080	0.016273737
193	0x3d248def	0.04017442
194	0xbcc1fdab	-0.023680529
195	0x3b38ad4d	0.0028179467
196	0x3d168500	0.036747932
197	0xbd833bb9	-0.064078756
198	0x3b95f1a4	0.004575925
199	0x3c20096c	0.009767871
200	0x3e2ed670	0.17073989
201	0x3c942350	0.018083245
202	0xbda0411f	-0.07824921
203	0x3ca5aeef	0.020225016
204	0x3cc624af	0.024187414
205	0xbb4a4e9b	-0.0030869606
206	0xbd59e5ae	-0.053197555
207	0xbcb86d17	-0.022512956
208	0xbd4a81b1	-0.04944009
209	0xbd09c8b3	-0.033638667
210	0x3d638fc4	0.055557027
211	0xbdb5e584	-0.08881667
212	0xbdba5477	-0.09098142
213	0x3dc86f41	0.09786845
214	0xbcddd20c	-0.027077697
215	0xbbf3a02e	-0.0074348664
216	0x3ccb6e4b	0.024832865
217	0xbd087947	-0.033318784
218	0x3d08e03f	0.033416983
219	0xbcccf48f	-0.025018958
220	0x3d76f039	0.060287688
221	0x3dd42a61	0.10359646
222	0x3c2f77a5	0.010709678
223	0x3d21592c	0.03939168
224	0xbd910b55	-0.070822395
225	0x3dbcf39b	0.092261516
226	0x3d7fd9c1	0.062463526
227	0xbd99116a	-0.074740246
228	0x3cf54a5a	0.02994268
229	0xbc9081fb	-0.017640105
230	0x3d471bff	0.048610684
231	0xbdd18f54	-0.10232416
232	0x3c19e19f	0.009392171
233	0xbbb6f2cd	-0.0055831433
234	0xbd0423f0	-0.032260835
235	0xbc57eb0f	-0.013178601
236	0x3da42b58	0.0801608
237	0x3df7d06c	0.121003
238	0xbd173dfe	-0.036924355
239	0xbd45c8e3	-0.048287284
240	0xbcba3e4b	-0.022734782
241	0x3bd9404b	0.006629979
242	0x3cd95f49	0.026534693
243	0x3c1dc73a	0.009630019
244	0x3cc4fc63	0.024046129
245	0x3dbbf46e	0.09177481
246	0x3d2b25b9	0.041784022
247	0xbcbcb65d	-0.023036176
248	0xbd61e5c9	-0.05515078
249	0x3c8b5c60	0.017011821
250	0xbd7bc9c3	-0.06147171
251	0x3a30eb5e	0.00067489396
252	0xbe54e4a8	-0.2079035
253	0xbc0c3732	-0.008558081
254	0x3e03c9f5	0.12870009
255	0x3dfc9ce3	0.12334611
