checkpoint_critic_agent_0.pth (torch_old, 324038 bytes, 9 tensors)

fc1.weight f4 [256, 52]
0	0xbe6e951d	-0.2329907
1	0x3ea3d082	0.31995016
2	0xbdbb0ead	-0.091336586
3	0xbedb4ae8	-0.42830586
4	0xbd1a872b	-0.037726562
5	0xbf1b6552	-0.6070148
6	0xbdd5e0ae	-0.10443245
7	0xbed7bd9c	-0.42136848
8	0xbc9e37f2	-0.019313786
9	0xbdf42ced	-0.119226314
10	0x3ddd6812	0.108108655
11	0xbf2b4744	-0.6690562
12	0x3c31975b	0.010839309
13	0xbe8af714	-0.2714163
14	0x3d3a3b1a	0.04546652
15	0xbf23674d	-0.638295
16	0x3e831589	0.25602368
17	0xbf00b88f	-0.50281614
18	0x3e254479	0.16139401
19	0xbf25e00f	-0.6479501
20	0x3cee70f2	0.02910659
21	0xbe42df32	-0.19030455
22	0x3de0c9e1	0.10976005
23	0xbf4205db	-0.75790185
24	0x3e6a4f41	0.22881795
25	0x3f1f567f	0.6224136
26	0x3c54f2e1	0.01299736
27	0xbebaeca8	-0.3650868
28	0x3deb1cb2	0.114800826
29	0xbf190650	-0.5977526
30	0x3d516952	0.051125832
31	0xbec09386	-0.3761255
32	0xbdceba61	-0.10094143
33	0x3f0387b0	0.5137892
34	0xbe51ff19	-0.20507468
35	0x3d7d8460	0.06189382
36	0x3bd2c878	0.006432589
37	0xbe990fe2	-0.2989493
38	0xbe885f5d	-0.26635256
39	0x3d09b2a3	0.033617627
40	0x3d94f749	0.072737284
41	0x3ecefb94	0.40426314
42	0xbe4369e0	-0.19083357
43	0xbe095fa0	-0.13415384
44	0x3d8e37e5	0.06944255
45	0xbe598a50	-0.21244168
46	0xbe3f914a	-0.18707767
47	0xbd82a5cb	-0.06379279
48	0xbf79d250	-0.97586536
49	0x3e243b34	0.16038209
50	0x3fe8396c	1.8142524
51	0xbdcd912e	-0.100374565
52	0x3f218afe	0.6310271
53	0xbe059be6	-0.13047752
54	0xbd41cacf	-0.047312554
55	0xbe0c25c9	-0.13686289
56	0xbec18c52	-0.37802368
57	0xbe6b7fdb	-0.22997992
58	0xbd9232ad	-0.07138572
59	0xbe10371a	-0.1408352
60	0x3f0b1ba4	0.5433905
61	0xbee0e86c	-0.43927324
62	0xbdd4f5b9	-0.103984304
63	0xbf06c9ff	-0.5265197
64	0xbe50ac70	-0.2037828
65	0xbc80c685	-0.015719661
66	0xbdb7667d	-0.08955095
67	0xbefe1e67	-0.4963257
68	0x3f0d036c	0.55083346
69	0xbf383d5e	-0.7196864
70	0x3cb9791f	0.022640763
71	0xbde60433	-0.1123127
72	0xbe617731	-0.22018124
73	0x3e1e1c4a	0.15440479
74	0x3cc10910	0.023563892
75	0xbe17524f	-0.14777492
76	0x3f06e926	0.52699506
77	0xbe65b664	-0.22432858
78	0xbd6035c4	-0.054738775
79	0x3e78be2b	0.24291293
80	0x3ec0839d	0.37600413
81	0xbe93c7a8	-0.28863263
82	0xbd803310	-0.062597394
83	0x3e6c96a6	0.23104343
84	0x3eff456a	0.49857646
85	0xbe496d3d	-0.19670577
86	0xbe1ec6a8	-0.15505469
87	0xbc96b399	-0.018396186
88	0x3e3b7caa	0.18309274
89	0x3cedf404	0.02904702
90	0xbe4b1bd5	-0.19834836
91	0xbd3d5ad7	-0.04622921
92	0x3ee2b02a	0.44275028
93	0xbe837cea	-0.2568124
94	0xbdeddf28	-0.11614829
95	0x3dfedb73	0.124442
96	0x3e63ebe4	0.22257954
97	0x3e6e0200	0.2324295
98	0xbdcc0718	-0.099622905
99	0x3dbf2f71	0.093352206
100	0x3f733d4a	0.95015395
101	0xbf328509	-0.69734246
102	0x3f3804eb	0.71882504
103	0x3fec24b5	1.8448702
104	0x3e1a1d5c	0.15050262
105	0xbf372e47	-0.7155499
106	0xbd82f8b4	-0.063950926
107	0xbe9be7fc	-0.30450428
108	0xbd0c6ef4	-0.0342855
109	0xbf994641	-1.1974565
110	0xbcfafe9d	-0.030638987
111	0xbe93bbbb	-0.28854164
112	0x3e244301	0.16041185
113	0xbf7bb4bd	-0.9832266
114	0xbaa7bd67	-0.0012797535
115	0x3e5c1a5b	0.21494429
116	0xbcae4e25	-0.021277497
117	0xbfcc18e6	-1.5945098
118	0xbc5b680b	-0.013391505
119	0x3e794fde	0.24346873
120	0x3d9201b9	0.07129235
121	0xbf94e186	-1.1631324
122	0xbd656f42	-0.056014307
123	0x3e896d0d	0.26841012
124	0xbe53b484	-0.2067433
125	0xbf2a3a77	-0.6649546
126	0xbd1a4da1	-0.03767169
127	0x3e7cdc85	0.24693497
128	0x3e4789a5	0.19486101
129	0x3e642815	0.22280915
130	0xbd6adbea	-0.057338633
131	0xbd6dbef7	-0.058043446
132	0x3d3ce767	0.04611912
133	0xbf9bf53b	-1.2184213
134	0xbcbc07f1	-0.022953006
135	0x3d13e1fd	0.03610419
136	0x3ea6b877	0.3256261
137	0x3dddb0f7	0.10824769
138	0x3ccc4fbe	0.024940368
139	0xbe1fa20d	-0.15589161
140	0x3d82c45a	0.06385107
141	0xbfcafc80	-1.5858307
142	0xbd297ecc	-0.04138069
143	0xbe5fb50b	-0.21846406
144	0x3e2f21fb	0.17102806
145	0xbd854b5a	-0.06508513
146	0x3cac282f	0.021015255
147	0x3e5f9086	0.21832475
148	0x3e5d5e0f	0.21617912
149	0xbf3437ae	-0.7039746
150	0xbd2c3ef4	-0.042052224
151	0x3e955060	0.29162884
152	0x3e63083c	0.2217111
153	0x3eaa9b92	0.33321816
154	0xbef62bdd	-0.4808034
155	0xbd8f7bbf	-0.070060246
156	0x3e1f764d	0.15572472
157	0x3f273246	0.65311086
158	0xbcabe546	-0.02098335
159	0xbe0f1029	-0.13971008
160	0x3e9fb493	0.31192455
161	0xbf0b5130	-0.5442076
162	0xbd7c6533	-0.06161995
163	0xbdf91c15	-0.12163559
164	0x3c2b8b2c	0.010470193
165	0x3edfd770	0.43719053
166	0x3cc93e77	0.024565918
167	0xbeddff06	-0.4335863
168	0x3d928dec	0.07155976
169	0xbf4ce129	-0.8003107
170	0xbd986a9e	-0.074422106
171	0xbebb2bc7	-0.36556837
172	0x3db81677	0.0898866
173	0x3efabc13	0.48971614
174	0xbde102b6	-0.10986845
175	0x3e373a17	0.17893253
176	0xbe9d6438	-0.30740523
177	0xbfb953b0	-1.4478664
178	0xbe05d230	-0.13068461
179	0x3dc93cc4	0.09826043
180	0x3dea421b	0.1143839
181	0xbec0fd5c	-0.37693298
182	0x3c4cd31d	0.012501505
183	0xbde4db7c	-0.11174676
184	0xbe97e45d	-0.29666415
185	0xbf1ad894	-0.6048672
186	0xbd659115	-0.056046564
187	0xbe473ef2	-0.19457605
188	0x3db54d89	0.08852679
189	0xbe2c628d	-0.16834469
190	0xbd364c92	-0.044506617
191	0xbd3ec878	-0.0465779
192	0x3cb60ef3	0.022223925
193	0xbf3f2a7a	-0.7467419
194	0xbdac9188	-0.084261954
195	0x3d4ff0b7	0.050766673
196	0x3e653855	0.2238477
197	0xbe0c447c	-0.13698
198	0xbcbaf021	-0.02281958
199	0xbd43d569	-0.047810946
200	0x3eafd56e	0.3434252
201	0xbfc13058	-1.5092878
202	0xbc85fb65	-0.016355226
203	0x3cc764e2	0.024340097
204	0xbf812ff0	-1.0092754
205	0x3f07438a	0.5283743
206	0xbe6e2d9c	-0.23259586
207	0x3f8e02a0	1.1094551
208	0x3dacb171	0.08432282
209	0x3eae0b0c	0.33992803
210	0x3d5eacd7	0.05436405
211	0xbe34768b	-0.17623346
212	0xbee269a2	-0.44221216
213	0xbf3be560	-0.73396873
214	0x3b02811c	0.001991338
215	0xbe77d9ec	-0.24204224
216	0x3dd43c39	0.10363049
217	0x3e9d2f62	0.30700213
218	0xbd2ed55c	-0.042683944
219	0xbe30305f	-0.17205952
220	0xbeca12a1	-0.39467338
221	0xbf6bd058	-0.9211478
222	0xbd6dc394	-0.058047846
223	0xbdb16276	-0.08661358
224	0x3e8b65f6	0.27226228
225	0x3e403d9f	0.18773507
226	0x3e57cb08	0.21073544
227	0xbebe288e	-0.37140316
228	0xbe956b1a	-0.29183275
229	0xbee039ba	-0.43794042
230	0x3e0bb044	0.13641459
231	0xbea7fdb7	-0.32810757
232	0x3edf6b88	0.43636727
233	0x3e30400f	0.17211936
234	0x3d118070	0.03552288
235	0xbea73099	-0.32654265
236	0x3ee3dfe8	0.44506764
237	0xbf433352	-0.76250184
238	0xbab2763e	-0.0013615561
239	0xbe7836ed	-0.24239703
240	0x3edc026a	0.42970592
241	0x3e5361b2	0.20642737
242	0xbdb16c51	-0.08663238
243	0x3d74facb	0.059809487
244	0x3ebd4beb	0.36971983
245	0xbf5b8c1b	-0.8576066
246	0xbdad1375	-0.08450977
247	0x3d78dc0f	0.06075674
248	0x3eff02de	0.49806875
249	0x3de49abc	0.11162326
250	0x3cbf424e	0.023347046
251	0x3eae4868	0.34039617
252	0x3e86b863	0.2631255
253	0xbec318c9	-0.38104847
254	0xbc8746e9	-0.016513305
255	0x3eb51ebf	0.3537502

fc1.bias f4 [256]
0	0xbf061009	-0.5236822
1	0xbf612f62	-0.87962925
2	0xbe060a6b	-0.13089912
3	0xbdfb0a2c	-0.122577995
4	0xbf3c9832	-0.7366973
5	0xbe991f5b	-0.29906735
6	0xbf09c82f	-0.5382108
7	0xbef5fb13	-0.48043117
8	0xbf253721	-0.64537245
9	0xbf635ac2	-0.8881036
10	0xbf5737cc	-0.84069514
11	0xbe8e83ff	-0.2783508
12	0xbc9859e2	-0.018597547
13	0xbec72ce3	-0.38901433
14	0x3d85142d	0.06497989
15	0xbe89e8fd	-0.26935568
16	0xbe8d2131	-0.27564386
17	0xbe32b5d2	-0.17452171
18	0xbf47bff7	-0.7802729
19	0xbe92d521	-0.2867823
20	0xbd2f5e9d	-0.04281484
21	0xbec22d06	-0.37924975
22	0x3dccf439	0.10007519
23	0xbe0ad3cf	-0.13557361
24	0xbec0318f	-0.3753781
25	0x3e142d2c	0.14470357
26	0xbd134101	-0.035950664
27	0x3c5ab8bf	0.013349711
28	0xbe114b4b	-0.14188878
29	0xbde56156	-0.11200206
30	0xbe2cac35	-0.16862567
31	0xbed144c6	-0.40872782
32	0xbf0815f2	-0.53158486
33	0x3c39d4f6	0.011342278
34	0xbe566c54	-0.20939761
35	0xbe5627f7	-0.20913683
36	0xbe7a139d	-0.24421544
37	0xbf0c4377	-0.54790443
38	0xbe658cd5	-0.22417004
39	0x3cc4158a	0.023936052
40	0xbd993af4	-0.074819475
41	0xbe7b3d4d	-0.24535103
42	0x3d306f09	0.04307464
43	0xbf01a5ed	-0.5064381
44	0xbea8a627	-0.32939264
45	0xbecdd8d0	-0.40204477
46	0xbe73b144	-0.2379809
47	0xbf136f65	-0.5759185
48	0xbed2b9b3	-0.41157302
49	0xbe0278f2	-0.1274145
50	0xbd666822	-0.056251653
51	0x3e2b5a13	0.1673358
52	0xbf248876	-0.6427072
53	0x3ccb4de1	0.024817409
54	0xbeabdbb2	-0.33566052
55	0x3ddd0333	0.10791626
56	0xbf051f46	-0.52000844
57	0xbddd810d	-0.1081563
58	0xbf650249	-0.8945661
59	0xbeee06f3	-0.46489677
60	0xbd959093	-0.07302966
61	0xbef11376	-0.4708516
62	0xbeff6326	-0.49880332
63	0x3ab91716	0.001412126
64	0xbea8e466	-0.32986754
65	0xbeac8de3	-0.33702
66	0xbf607a26	-0.87686384
67	0xbf0868bd	-0.5328482
68	0xbebe5323	-0.37172803
69	0xbeaf1020	-0.3419199
70	0xbf07cc65	-0.53046256
71	0xbdba31aa	-0.09091504
72	0xbdaf0557	-0.0854594
73	0xbf16c1f3	-0.58889693
74	0xbf1a146e	-0.60187423
75	0xbe166ecd	-0.14690705
76	0xbf07cd27	-0.5304741
77	0xbe120ec5	-0.14263447
78	0xbedf4415	-0.4360663
79	0xbde492f9	-0.11160845
80	0xbedf675a	-0.43633538
81	0x3d0cb54f	0.034352597
82	0x3d21a335	0.039462287
83	0xbdd93985	-0.10606674
84	0xbdf0f781	-0.117659576
85	0xbee80735	-0.45318
86	0xbe81f582	-0.2538262
87	0xbef79fdd	-0.48364154
88	0xbea791f9	-0.32728556
89	0xbdbd55ef	-0.09244906
90	0xbf4b86a0	-0.79502296
91	0xbe08bfef	-0.13354467
92	0xbe966aa6	-0.2937824
93	0x3d4356ef	0.04769033
94	0xbde6b7c1	-0.11265517
95	0xbe5311ae	-0.20612213
96	0xbd95b7ee	-0.073104724
97	0x3dae3121	0.08505464
98	0xbd7ff4d2	-0.06248934
99	0x3c61b3ef	0.01377581
100	0xbea4adbf	-0.32163808
101	0xbf0d7c25	-0.55267555
102	0xbef2dd6a	-0.4743455
103	0xbe6e759b	-0.2328705
104	0xbebcc23a	-0.36866933
105	0xbf00a445	-0.50250655
106	0xbe9e12fb	-0.30873856
107	0xbe038038	-0.1284188
108	0xbea97957	-0.33100387
109	0xbe14ce0a	-0.14531723
110	0xbee06402	-0.438263
111	0xbddcba18	-0.10777682
112	0x3e3ba076	0.1832293
113	0xbf02518b	-0.50905675
114	0xbeeaa0b2	-0.45825726
115	0xbf3bfb62	-0.73430455
116	0xbecb4d85	-0.3970758
117	0xbdeeb170	-0.11654937
118	0xbec6c435	-0.3882157
119	0x3e39ce3e	0.18145081
120	0xbe855f33	-0.26049194
121	0xbf887025	-1.0659224
122	0xbf01659f	-0.50545686
123	0xbe8f0727	-0.27935144
124	0xbed7abcc	-0.42123258
125	0xbcc3dc87	-0.023908867
126	0xbe0aa50f	-0.13539527
127	0xbeecb2c7	-0.46230146
128	0xbeb3c98a	-0.351147
129	0xbe981964	-0.29706872
130	0xbd97b1e5	-0.074069776
131	0xbd532d47	-0.05155685
132	0xbec22b00	-0.3792343
133	0xbe756e2e	-0.23967811
134	0xbca51dc7	-0.0201558
135	0x3cd99963	0.026562398
136	0xbe8df50a	-0.27726012
137	0xbf08afef	-0.53393453
138	0xbea7ac96	-0.3274886
139	0x3e649d1c	0.22325557
140	0xbdab7f19	-0.08373851
141	0xbf00e25a	-0.50345385
142	0x3ea11137	0.31458446
143	0xbed3137e	-0.4122581
144	0xbefed665	-0.49772945
145	0xbeaf8866	-0.3428375
146	0xbeafa07f	-0.34302136
147	0xbead01e8	-0.33790517
148	0xbf1f1491	-0.62140757
149	0xbeca8262	-0.395526
150	0xbf42fdb2	-0.7616836
151	0xbe9c2377	-0.30495808
152	0xbdb2f349	-0.08737809
153	0xbe01ef0b	-0.12688844
154	0xbe8cd1b1	-0.27503732
155	0xba553ad7	-0.0008134073
156	0xbcc8119b	-0.024422457
157	0xbf107d3f	-0.5644111
158	0xbe9e0285	-0.30861297
159	0xbe36906e	-0.17828533
160	0xbdc76fb9	-0.09738106
161	0xbe9f66a2	-0.3113299
162	0xbf31b3c9	-0.69414955
163	0xbea2f785	-0.31829467
164	0xbe234c79	-0.15947141
165	0xbe93f9e6	-0.28901595
166	0xbe3e4afb	-0.1858329
167	0xbd7e849b	-0.06213818
168	0xbec8378d	-0.39104882
169	0xbb9830e2	-0.004644499
170	0xbdad9fc0	-0.084777355
171	0xbf1c0077	-0.6093821
172	0xbdfa9db3	-0.1223711
173	0xbe8ac93c	-0.27106655
174	0x3e311a39	0.1729516
175	0xbc8f0c50	-0.017461926
176	0xbe28ed93	-0.16496877
177	0xbf2f6cc7	-0.68525356
178	0xbf0ea474	-0.55719686
179	0xbe86649d	-0.26248637
180	0xbeb794d5	-0.35855737
181	0xbf3187de	-0.6934794
182	0xbee784e8	-0.45218587
183	0x3e34e280	0.17664528
184	0x3d42124a	0.047380723
185	0xbe9f0d03	-0.31064615
186	0xbeafd3e3	-0.34341344
187	0xbf1150c0	-0.5676384
188	0xbedcfce6	-0.43161696
189	0xbeb33107	-0.34998342
190	0x3e09f653	0.13472871
191	0xbf2744a0	-0.6533909
192	0x3cf2a653	0.029620325
193	0xbe8d58bd	-0.27606764
194	0xbe2d7464	-0.16938931
195	0xbe6759cb	-0.22592847
196	0xbe42ac40	-0.1901102
197	0xbf27da2c	-0.6556728
198	0xbeab0f36	-0.33410043
199	0xbe81d3c0	-0.25356865
200	0xbe72b81b	-0.23703043
201	0xbda60ff4	-0.081085116
202	0xbe4f04f3	-0.20216732
203	0xbd4f5117	-0.050614443
204	0xbc182827	-0.009286917
205	0xbdf8be8e	-0.121457204
206	0xbe73441a	-0.23756447
207	0xbe8b581e	-0.27215666
208	0x3e2458a6	0.16049442
209	0xbf22f486	-0.63654363
210	0xbf01386b	-0.5047671
211	0xbe8808ef	-0.26569316
212	0x3df698db	0.120408736
213	0xbe8db4ab	-0.276769
214	0xbe975bbb	-0.29562172
215	0xbf0b2495	-0.54352695
216	0xbeb096eb	-0.3449014
217	0xbe327189	-0.17426123
218	0xbea9bfa4	-0.33154023
219	0xbe020484	-0.12697035
220	0xbf3eb6c4	-0.7449763
221	0xbe2f48a0	-0.17117548
222	0xbeb5a098	-0.35474086
223	0xbe814802	-0.2525025
224	0xbe17c787	-0.14822207
225	0xbc3ccdb7	-0.011523656
226	0xbe4b573b	-0.19857495
227	0xbe385493	-0.18001013
228	0xbd2390fb	-0.039933186
229	0xbe26b886	-0.16281328
230	0xbeb94c94	-0.36191237
231	0xbe42f82c	-0.19039983
232	0xbe2f88b8	-0.17141998
233	0x3ee6f463	0.45108327
234	0xbb6b1dd4	-0.0035875933
235	0xbefd4f7b	-0.494747
236	0xbe7db6f0	-0.24776816
237	0xbea8452a	-0.32865268
238	0xbefa9776	-0.4894368
239	0xbf05d98b	-0.5228507
240	0xbed2cf6a	-0.4117387
241	0x3da14f61	0.078764684
242	0xbe93b02e	-0.28845352
243	0xbdddbac8	-0.10826641
244	0xbef670ff	-0.48133084
245	0xbf69c965	-0.9132293
246	0xbf0ae11d	-0.54249746
247	0x3e482bda	0.19547978
248	0xbf6aaba4	-0.9166815
249	0xbf5840f4	-0.8447411
250	0xbedb8dd5	-0.42881647
251	0xbe93327f	-0.28749463
252	0xbec4f8b1	-0.38470986
253	0xbe93a6fd	-0.2883834
254	0xbe820e9b	-0.25401768
255	0xbed5edb8	-0.41782928

fc2.weight f4 [256, 256]
0	0x3d122b1d	0.035685647
1	0x3d1417ff	0.036155697
2	0x3ccc5dcf	0.024947075
3	0xbd9c1a35	-0.07622186
4	0xbcea2072	-0.028579924
5	0xbcc0f034	-0.023552038
6	0xbda99a5a	-0.08281393
7	0x3c8a87ae	0.0169104
8	0x3d7ce732	0.061743923
9	0x3d06c0d4	0.03289874
10	0xbdc6334d	-0.096777536
11	0x3cd938fa	0.026516426
12	0x3bcd140f	0.0062584947
13	0xbd89e8c4	-0.0673385
14	0xbc5a86f5	-0.01333784
15	0xbc12931e	-0.008946208
16	0xbc864f44	-0.016395219
17	0xbd4b8e0d	-0.049696017
18	0xbd0cebea	-0.034404673
19	0xbe07b973	-0.13254337
20	0xbe21b5ae	-0.15791962
21	0x3c9b0849	0.01892485
22	0xbe14856f	-0.14504026
23	0xbddefaad	-0.10887656
24	0xbdf71b54	-0.12065759
25	0xbd137f66	-0.03601017
26	0xbd40701a	-0.04698191
27	0x3e71ec8f	0.23625396
28	0x3db31a79	0.08745284
29	0x3c51419d	0.012771991
30	0xbcfd5f00	-0.030929089
31	0x3dbbc429	0.09168274
32	0xbda2604f	-0.07928526
33	0x3d31d446	0.04341533
34	0xbe4dafe9	-0.20086636
35	0xbd93d0cd	-0.0721756
36	0x3d5a3ee5	0.053282637
37	0x3d4d3953	0.050103497
38	0x3da86887	0.08223062
39	0xbe17865e	-0.14797351
40	0xbd8b723d	-0.068088986
41	0xbcfba75c	-0.030719452
42	0xbdf17708	-0.117902815
43	0xbdad9b75	-0.08476917
44	0x3bccbe58	0.0062482767
45	0xbadae845	-0.0016701302
46	0xbcc1a4a3	-0.023638075
47	0x3c140281	0.0090338
48	0x3d6f1d1d	0.058377374
49	0xbd67eb83	-0.056621086
50	0x3da861ef	0.08221804
51	0xbbbceb0e	-0.0057653254
52	0x3d9f1bd5	0.077689804
53	0x3d2127ce	0.0393446
54	0x3d44c01d	0.048034776
55	0xbe11d726	-0.14242229
56	0xbd8cdd06	-0.068780944
57	0xbdb16062	-0.08660962
58	0x3c9ed747	0.019389762
59	0xbda202e3	-0.07910707
60	0xbcb3fe88	-0.021971956
61	0xbcb6ae07	-0.02229978
62	0xbdde9394	-0.10867992
63	0xbd8d46cc	-0.06898269
64	0x3df73488	0.120705664
65	0xbd3d5d71	-0.04623169
66	0x3d0c8ffe	0.03431701
67	0xbdf68e54	-0.12038866
68	0x3d72b65e	0.05925595
69	0xbd7192e9	-0.058977995
70	0xbc87bcee	-0.01656958
71	0x3b6eafa9	0.003642062
72	0xbd7f7eba	-0.062376715
73	0xbc88a1ed	-0.016678775
74	0x3d640184	0.055665508
75	0x3d99dd44	0.07512906
76	0xbca25ebc	-0.019820563
77	0x3e3fa854	0.18716556
78	0xbc57184f	-0.013128354
79	0xbb8d1ae9	-0.0043061865
80	0x3b50f7c0	0.0031885952
81	0xbd923ce4	-0.0714052
82	0xbd9eed5d	-0.07760117
83	0xbda00aaa	-0.07814534
84	0xbe9b14bf	-0.30289266
85	0xbb48ab3b	-0.003061964
86	0xbdc5d4d3	-0.096597336
87	0x3b7bc0e4	0.0038414532
88	0x3cfd859c	0.030947499
89	0xbe27dbff	-0.16392516
90	0x3c02f56e	0.007993085
91	0xbe8e76e5	-0.27825084
92	0xbd0dceed	-0.034621168
93	0x3e05efef	0.13079809
94	0xbe1dd709	-0.1541406
95	0xbe21fccf	-0.15819095
96	0xbb46b4ed	-0.0030320243
97	0xbd862ec2	-0.06551887
98	0xbc896134	-0.016769983
99	0x3e13e5f1	0.14443184
100	0xbe294162	-0.16528848
101	0xbd45dc1b	-0.048305612
102	0x3cec70ea	0.028862435
103	0xbd945410	-0.07242596
104	0xbdc33acd	-0.095327
105	0xbd3ff56b	-0.04686491
106	0xbd96dc77	-0.07366269
107	0xbdcbd2c4	-0.0995231
108	0x3c1c3e39	0.009536319
109	0x3d40a68c	0.04703383
110	0xbe3881a4	-0.18018204
111	0xbd24b2e3	-0.040209662
112	0x3dd52584	0.10407546
113	0xbc237bd9	-0.009978258
114	0x3cda1327	0.02662046
115	0xbc89ba5f	-0.016812501
116	0x3bd32fcc	0.006444907
117	0x3db4003d	0.08789108
118	0xbc95acde	-0.018270906
119	0x3dc99688	0.09843165
120	0xbd11bc1c	-0.035579786
121	0x3c439bd9	0.011939012
122	0xbc32958c	-0.010899913
123	0xbd21c28e	-0.039492182
124	0xbd640e66	-0.055677794
125	0xbe0b10b7	-0.13580595
126	0xbdc29540	-0.095011234
127	0xbde89741	-0.113569744
128	0xbe248fdc	-0.16070503
129	0xbd5c653f	-0.053807493
130	0xbe2192c7	-0.15778647
131	0x3d27683a	0.040870883
132	0xbdd63cd9	-0.104608245
133	0xbbc28362	-0.005936072
134	0x3da319fe	0.07963942
135	0xbd00e397	-0.031467047
136	0xbd5adcde	-0.05343329
137	0xbc875743	-0.016521102
138	0x3ca68433	0.02032671
139	0x3b532b26	0.0032221763
140	0xbde9cd02	-0.11416055
141	0xbbc3e29e	-0.0059779426
142	0xbda90849	-0.082535334
143	0x3e4948a3	0.19656615
144	0xbcf97cc2	-0.030454997
145	0xbd8a8dff	-0.06765365
146	0x3c71fc90	0.014769688
147	0x3c842c74	0.016134478
148	0xbbced7e6	-0.006312358
149	0xbdb70090	-0.08935654
150	0xbd3d33c1	-0.046191934
151	0x3dfe548e	0.12418471
152	0xbdbe559f	-0.09293675
153	0xbe0803d8	-0.13282716
154	0x3d708957	0.058724727
155	0x3c80fa97	0.01574449
156	0x3c53541d	0.012898472
157	0xbde1f808	-0.11033636
158	0xbdaf115c	-0.08548233
159	0xbd4524c0	-0.04813075
160	0xbca1b855	-0.019741217
161	0x3c907833	0.01763544
162	0x3af38bd8	0.0018581105
163	0xbbf910c6	-0.0076008765
164	0xbd5abb82	-0.053401478
165	0x3daa76eb	0.08323463
166	0xbc9a3027	-0.018821789
167	0xbda6629f	-0.08124279
168	0xbc02529c	-0.007954266
169	0xbdc66661	-0.09687496
170	0x3b859e05	0.0040776753
171	0x3bfc1331	0.0076927175
172	0xbdb5f40b	-0.08884438
173	0x3d4a2b8a	0.04935793
174	0xbc3e93c5	-0.011631911
175	0xbd34814c	-0.04406862
176	0x3da9a4fe	0.08283423
177	0xbd283f44	-0.04107596
178	0xbe12ffb9	-0.14355363
179	0xbe06cd23	-0.13164191
180	0xbd9752a3	-0.073888086
181	0xbdb728e1	-0.08943344
182	0xbe132b37	-0.14371954
183	0x3c95784d	0.01824584
184	0xbdbfdcad	-0.093682624
185	0x3c58e4c2	0.013238134
186	0xbd569756	-0.05239042
187	0x3ce4c9a5	0.027928183
188	0xbd9c9663	-0.076458715
189	0xbdbfa9e6	-0.093585774
190	0xbdf18e18	-0.1179468
191	0xbd21f4e7	-0.039540198
192	0xbdd63d8a	-0.104609564
193	0xbc040f84	-0.00806034
194	0x3db780cd	0.08960114
195	0xbe01aa98	-0.12662733
196	0xbd52a6ef	-0.05142873
197	0xbd5eadd9	-0.054365013
198	0xbe7b850f	-0.24562477
199	0x3d07080a	0.03296665
200	0xbd44e056	-0.048065506
201	0xbba4c862	-0.0050287703
202	0x3db7b3f2	0.08969869
203	0x3d91d1bf	0.07120084
204	0xbdc75a4e	-0.09734021
205	0xbdb9f18e	-0.09079276
206	0x3b24b35a	0.0025131316
207	0xbe41519d	-0.18878789
208	0xbe0e2c3b	-0.1388406
209	0x3d01fc63	0.031734835
210	0xbdbf8473	-0.093514346
211	0xbd06b5ca	-0.03288821
212	0xbaac060a	-0.0013124358
213	0x3d474dd5	0.04865821
214	0x3d7af295	0.0612665
215	0x3e0e9ba3	0.13926558
216	0xbdaf708f	-0.08566391
217	0xbb851fec	-0.0040626433
218	0x3cbec1e2	0.02328581
219	0xbdb165b4	-0.086619765
220	0xbdf7e559	-0.121042915
221	0x3c28c937	0.01030188
222	0x3d2064fb	0.039158802
223	0xbac4c980	-0.0015013665
224	0x3d9b6e33	0.07589378
225	0x3d6e4062	0.05816687
226	0x3cd5e153	0.02610842
227	0xbc4a0a29	-0.012331524
228	0x3d11daba	0.035608985
229	0xbd11b1df	-0.03557002
230	0x3d879b8e	0.066214666
231	0xbc43d8d0	-0.011953548
232	0xbe573aa6	-0.21018466
233	0x3d6be767	0.05759373
234	0xbd001477	-0.031269517
235	0xbd91f761	-0.07127262
236	0xbd433cc9	-0.04766539
237	0x3d55050a	0.05200676
238	0x3c924a3e	0.017857667
239	0x3c3d57da	0.01155659
240	0x3b610b29	0.0034338927
241	0x3c473a88	0.012159951
242	0xbd42a961	-0.047524814
243	0xbc28a711	-0.010293738
244	0xbcb0aa47	-0.02156557
245	0xbe365d7f	-0.17809103
246	0x3b116f49	0.0022191575
247	0x3a12ecc4	0.0005604739
248	0xbd1ca9df	-0.03824794
249	0xbd32f26e	-0.04368823
250	0x3cc815c3	0.02442444
251	0x3e0b7212	0.13617733
252	0xbd13e86a	-0.03611032
253	0xbce3b670	-0.027796954
254	0x3d6f9398	0.058490366
255	0xbcf0708c	-0.029350542

fc2.bias f4 [256]
0	0xbe3fe670	-0.18740249
1	0xbe395a5f	-0.1810088
2	0xbe169bbf	-0.1470785
3	0xbe0fae82	-0.14031413
4	0xbe264056	-0.1623548
5	0xbe96efc0	-0.2947979
6	0xbdc0628e	-0.09393798
7	0xbe2ee1d7	-0.17078339
8	0xbe839b4d	-0.25704423
9	0xbdf36ea5	-0.11886338
10	0xbe1ce855	-0.15323003
11	0xbe089981	-0.13339807
12	0xbe0de796	-0.13857874
13	0xbe207e14	-0.15673095
14	0xbe4648f0	-0.19363761
15	0xbe3b7aab	-0.18308513
16	0xbb9d1be4	-0.0047945846
17	0xbe0b0d31	-0.13579251
18	0xbdacd0dd	-0.08438275
19	0xbd7f6d87	-0.062360313
20	0xbe2df5d8	-0.16988313
21	0xbe8b4003	-0.27197275
22	0xbe5b5b1b	-0.21421473
23	0xbdc73780	-0.09727383
24	0xbe812605	-0.2522432
25	0xbe44c65e	-0.19216296
26	0xbe5afe26	-0.21386012
27	0xbdaa6119	-0.08319301
28	0xbe1be033	-0.15222244
29	0xbdf05b17	-0.11736124
30	0xbe128bd8	-0.14311159
31	0xbe17e6b8	-0.14834106
32	0xbdd4b8ee	-0.10386835
33	0xbdb41e7c	-0.08794877
34	0xbe519de2	-0.20470384
35	0xbdde98ea	-0.1086901
36	0xbe3fea91	-0.18741824
37	0xbe1f066c	-0.15529794
38	0xbe2d9f2e	-0.16955253
39	0xbe3a6a1f	-0.18204544
40	0xbe2a951d	-0.16658445
41	0xbde99d51	-0.11406959
42	0xbe1ccd47	-0.15312682
43	0xbe179027	-0.14801084
44	0xbdd796e9	-0.10526831
45	0xbd92ab7d	-0.07161615
46	0xbe51eeb7	-0.20501219
47	0xbe01215b	-0.1261038
48	0xbe387155	-0.18011983
49	0xbe270e37	-0.16314016
50	0xbe7fad1a	-0.24968377
51	0xbe547031	-0.20745923
52	0xbe3342a5	-0.17505892
53	0xbe0e9562	-0.13924173
54	0xbe0c7c70	-0.13719344
55	0xbe5248ef	-0.20535634
56	0xbe33d308	-0.17560971
57	0xbdb13b94	-0.08653942
58	0xbdb92648	-0.09040505
59	0xbe0ceb66	-0.13761672
60	0x3da82a94	0.08211246
61	0xbe373d7a	-0.17894545
62	0xbe0bd333	-0.13654785
63	0xbde627fd	-0.11238096
64	0xbe805f7a	-0.25072843
65	0xbe0f3b05	-0.13987358
66	0xbddf60f3	-0.109071635
67	0xbe06aaf8	-0.13151157
68	0xbe362c96	-0.17790446
69	0xbe3f71f8	-0.1869582
70	0xbe24580c	-0.16049212
71	0xbe0376ae	-0.12838241
72	0xbe09e621	-0.13466693
73	0xbd87f350	-0.06638205
74	0xbda5f915	-0.08104149
75	0xbe41145b	-0.18855421
76	0xbe15fdb5	-0.14647563
77	0xbde3d8d5	-0.11125342
78	0xbe1ff789	-0.15621771
79	0xbe860373	-0.26174507
80	0xbe0f72c8	-0.1400863
81	0xbe440f07	-0.19146357
82	0xbe5af646	-0.21383008
83	0xbe1e5942	-0.15463737
84	0xbebe8720	-0.37212467
85	0xbe96ac57	-0.2942836
86	0xbdc6475a	-0.09681578
87	0xbdfd75fb	-0.123760186
88	0xbdd58140	-0.10425043
89	0x3e143b2c	0.14475697
90	0xbe772ed8	-0.24138963
91	0xbe21be04	-0.15795141
92	0xbe8d512b	-0.2760099
93	0xbdccac83	-0.099938415
94	0xbe57fbe5	-0.21092184
95	0xbdc973a5	-0.098365106
96	0xbe3899eb	-0.18027465
97	0xbe773c85	-0.2414418
98	0xbe06858f	-0.13136886
99	0xbe2a77a4	-0.16647202
100	0xbdf27600	-0.11838913
101	0xbdb9ee61	-0.0907867
102	0xbe230f02	-0.15923694
103	0xbd83b5c3	-0.06431153
104	0xbe7c4187	-0.24634372
105	0xbdb2d37f	-0.08731746
106	0xbe2850fa	-0.1643714
107	0xbdb64948	-0.08900696
108	0xbe007bda	-0.12547246
109	0xbe09c543	-0.13454156
110	0xbe1984d1	-0.14992072
111	0xbe948d68	-0.29014134
112	0xbdb3b3fd	-0.087745644
113	0xbe23a78e	-0.15981886
114	0xbdc8818b	-0.09790333
115	0xbe5f90d5	-0.21832593
116	0xbe21cee8	-0.15801585
117	0xbe31ad16	-0.17351183
118	0xbd80c1c6	-0.06286959
119	0xbe0b7b17	-0.13621174
120	0xbda8313b	-0.08212515
121	0x3c6a60d6	0.014305314
122	0xbdb9d2e3	-0.090734266
123	0xbe4858db	-0.19565146
124	0xbdfeba18	-0.12437838
125	0xbe5f896d	-0.21829768
126	0xbe478a4c	-0.1948635
127	0xbe1d411d	-0.1535687
128	0xbe5b084b	-0.21389882
129	0xbdf69bed	-0.12041459
130	0xbe0820a1	-0.13293697
131	0xbdcebed2	-0.1009499
132	0xbd985642	-0.07438327
133	0xbde85a14	-0.11345306
134	0xbd6dc9d6	-0.058053814
135	0xbde2583d	-0.11051986
136	0xbf0674f1	-0.5252219
137	0xbe476cde	-0.19475123
138	0xbe46055e	-0.19337985
139	0xbd7145ea	-0.058904566
140	0xbe34f1a5	-0.17670305
141	0xbdb50e38	-0.08840603
142	0xbe2fbfea	-0.17163053
143	0xbe17eb7d	-0.14835925
144	0xbe1b7741	-0.1518221
145	0xbdb3b72a	-0.0877517
146	0xbe1b3e8f	-0.15160583
147	0xbdeda794	-0.116042286
148	0xbe03dd9c	-0.12877506
149	0xbe35b75e	-0.1774573
150	0xbe54a0e3	-0.20764498
151	0xbe857f2f	-0.26073596
152	0xbe19df93	-0.15026693
153	0xbd9e86ff	-0.07740592
154	0xbde7a46d	-0.113106586
155	0xbe7e019b	-0.248053
156	0xbe3c43b1	-0.18385197
157	0xbde3c474	-0.11121455
158	0xbe2eaf58	-0.17059076
159	0xbe0b755e	-0.13618991
160	0xbe470e2d	-0.19439001
161	0xbdb4d16e	-0.08829008
162	0xbdde567b	-0.108563386
163	0xbe0a7538	-0.13521278
164	0xbe334aab	-0.17508952
165	0xbdc86d1b	-0.09786435
166	0xbe11f8d4	-0.14255077
167	0xbda422a0	-0.08014417
168	0xbe275bf7	-0.16343676
169	0xbe65c8cd	-0.2243988
170	0xbe85cc28	-0.2613232
171	0xbdc98fa0	-0.098418474
172	0xbe183a07	-0.14865886
173	0xbde32482	-0.11090948
174	0xbddd1d7f	-0.107966416
175	0xbe26b6f0	-0.16280723
176	0xbe32386c	-0.17404336
177	0xbdf2ed05	-0.11861614
178	0xbe54a4a5	-0.20765932
179	0xbe1728a4	-0.14761597
180	0xbd1796a3	-0.037008893
181	0xbd93c65c	-0.072155684
182	0xbdefab7f	-0.11702632
183	0xbe388150	-0.18018079
184	0xbe1c15ef	-0.15242742
185	0xbd6bc6e8	-0.05756274
186	0xbe988135	-0.29786077
187	0xbe4d42b1	-0.20044972
188	0xbe0e4a8e	-0.13895628
189	0xbd519e6a	-0.051176466
190	0xbe2a68a2	-0.16641477
191	0xbe73eccd	-0.23820801
192	0xbdb89827	-0.09013396
193	0xbe2fc21d	-0.17163892
194	0xbe18641d	-0.1488194
195	0xbe0aeebf	-0.13567637
196	0xbe382486	-0.17982683
197	0xbe23d7ca	-0.16000286
198	0xbe03cc44	-0.1287089
199	0xbe70391b	-0.23459284
200	0xbe8709e7	-0.26374742
201	0xbe3ac980	-0.18240929
202	0xbe054a53	-0.13016634
203	0xbe0b6c49	-0.13615526
204	0xbe73e4f7	-0.23817812
205	0xbdfcdc40	-0.12346697
206	0xbe2cf175	-0.16888984
207	0xbea1ceb7	-0.31603023
208	0xbdeeb105	-0.116548575
209	0xbdf06ba6	-0.11739282
210	0xbdc5360b	-0.096294485
211	0xbdbada33	-0.091236494
212	0xbe2afe93	-0.16698675
213	0xbe2c6dee	-0.1683881
214	0xbe4191f3	-0.18903331
215	0xbe31d8b2	-0.17367819
216	0xbd9b0b58	-0.07570523
217	0xbdad39a3	-0.08458259
218	0xbe00e11b	-0.12585871
219	0xbe553ab7	-0.20823179
220	0xbe1bbb7a	-0.15208235
221	0xbe8241dc	-0.25440872
222	0xbe52b0cd	-0.20575257
223	0xbe717682	-0.23580363
224	0xbe1d439f	-0.15357827
225	0xbe8fda34	-0.28096163
226	0xbe30a0b1	-0.17248799
227	0xbe0ed109	-0.13946928
228	0xbdcb74c7	-0.09934383
229	0xbdf7bed4	-0.120969445
230	0xbde513cb	-0.11185416
231	0xbe42168f	-0.18953918
232	0xbea1e594	-0.31620467
233	0xbde14916	-0.11000268
234	0xbe3342e3	-0.17505984
235	0xbe338789	-0.17532171
236	0xbd571111	-0.05250651
237	0xbe12f535	-0.14351352
238	0xbdd7c287	-0.1053515
239	0xbe8e5836	-0.27801675
240	0x3d4ee8c1	0.05051494
241	0x3c9c46c4	0.019076712
242	0xbda7496e	-0.081683025
243	0xbe6d0714	-0.23147231
244	0x3d76f90e	0.06029611
245	0xbe014de9	-0.12627377
246	0xbde1f9e2	-0.110339895
247	0xbe11c658	-0.14235818
248	0x3c1f5088	0.00972379
249	0xbddcbecf	-0.10778581
250	0xbe078928	-0.13235915
251	0xbe04798c	-0.12936991
252	0xbdc64561	-0.09681202
253	0xbd55154e	-0.05202227
254	0xbdea65e3	-0.114452146
255	0xbe00d0b2	-0.12579611

fc3.weight f4 [1, 256]
0	0xbb31102a	-0.0027017691
1	0x3c5f7c4f	0.013640477
2	0xbcac6bf7	-0.021047575
3	0x3ca48ce3	0.020086711
4	0xbce51721	-0.02796513
5	0xbb2a4e9c	-0.0025986796
6	0x3c1ea7e0	0.009683579
7	0xbcb4fc20	-0.022092879
8	0xbd6ea71c	-0.058264837
9	0x3c23e9c7	0.010004467
10	0x3ceec3c4	0.029146083
11	0xbd2db5cf	-0.042409714
12	0xbd284ec2	-0.041090734
13	0x3b298c87	0.0025871114
14	0xbbe26836	-0.0069093956
15	0x3d0c2d9a	0.034223177
16	0x3d341def	0.04397386
17	0x3c4ed57d	0.012624142
18	0xbc92beae	-0.017913189
19	0x3bb9bf93	0.0056685894
20	0xbc1fa59f	-0.009744077
21	0xbbedff01	-0.007263065
22	0xbbc89972	-0.0061218077
23	0x3b2d19a6	0.0026412993
24	0x3bfa36bb	0.007635919
25	0x3ca4f554	0.020136513
26	0x3c2830d2	0.010265546
27	0x3c934e11	0.01798156
28	0xbbb5d8a9	-0.0055495095
29	0x399d7807	0.000300348
30	0xbcf8b3c5	-0.030359158
31	0x3c5d5eb4	0.0135113485
32	0x3c943fca	0.018096823
33	0x3b9b1778	0.0047330223
34	0xbc9cb898	-0.01913099
35	0xbbc0adaa	-0.0058800774
36	0xbcda67be	-0.026660796
37	0xbcbb4aff	-0.02286291
38	0x3bb0f345	0.0054000937
39	0x3c89255e	0.01674145
40	0x3c6a1591	0.014287368
41	0x3c81696d	0.015797341
42	0xbb993b38	-0.004676249
43	0x3cb5b14c	0.022179268
44	0xbbbd9594	-0.0057856534
45	0xbb0c8055	-0.0021438797
46	0xbbec3d21	-0.0072094356
47	0xbca2a797	-0.019855304
48	0xbc151205	-0.0090985345
49	0x3c76bf2a	0.0150602255
50	0xbba6e979	-0.00509375
51	0xbcc48b4b	-0.023992201
52	0xbbbdae30	-0.005788587
53	0xbacaa9ac	-0.0015461943
54	0x3b43d629	0.0029882288
55	0xbc4b343b	-0.012402589
56	0xbc6a4d94	-0.014300723
57	0xbcdadee1	-0.026717605
58	0xbd50be93	-0.050962996
59	0xbc60d0ff	-0.013721704
60	0xbd53a58b	-0.051671546
61	0xbd9a9943	-0.075487636
62	0x3cb35048	0.021888867
63	0xbd8e19b8	-0.06938499
64	0x3cbb4760	0.022861183
65	0x3c0e1401	0.0086717615
66	0x3aa8e696	0.0012886103
67	0xbcf37bfd	-0.029722208
68	0xbc69d189	-0.0142711485
69	0xbc6e1752	-0.014531927
70	0x3c1427bd	0.0090426775
71	0x3beadd10	0.007167466
72	0xbc383d70	-0.011245117
73	0x3ca56ced	0.020193541
74	0x3c3e96ea	0.01163266
75	0xbc803208	-0.015648857
76	0x3cc5206d	0.024063313
77	0xbd8f2649	-0.06989724
78	0x3c9706ae	0.018435802
79	0x3c9c24c3	0.019060498
80	0xbb8d8e94	-0.004319975
81	0x3c567bbd	0.013091025
82	0xbbf24fb9	-0.0073947576
83	0xbbd51e37	-0.006503846
84	0xbdf91e0a	-0.121639326
85	0xbd32b5cc	-0.043630406
86	0xbaf59779	-0.0018737159
87	0x3e785b03	0.24253468
88	0x3ca86524	0.02055604
89	0x3d27d5d5	0.04097541
90	0x3ca53a1b	0.020169308
91	0xb95f95bd	-0.00021322719
92	0x3af9f03b	0.0019068787
93	0x3c6ae50f	0.014336838
94	0x3aa65fd4	0.0012693354
95	0x3c44f2ae	0.01202075
96	0x3c4df139	0.012569719
97	0xbc921369	-0.017831521
98	0x3ca9e453	0.020738756
99	0xbcea3c57	-0.028593225
100	0x3c4cc00e	0.012496961
101	0xbbfbb376	-0.0076813055
102	0xbb1593cd	-0.0022823692
103	0x3d4fd60f	0.05074125
104	0x3c050ace	0.008120252
105	0x3c04edef	0.008113368
106	0xbcd0bd9c	-0.025481038
107	0x3cc239ec	0.02370926
108	0xbb8fdaf2	-0.004390114
109	0xbae34d6f	-0.0017341803
110	0xbbfb5ba1	-0.007670835
111	0x3c04619e	0.008079914
112	0x3c69b804	0.014265064
113	0xba55bde0	-0.0008153599
114	0xbc2e44e0	-0.010636538
115	0x3c8dae9a	0.01729517
116	0x3b89acc5	0.004201504
117	0xbc3ec94a	-0.011644671
118	0xbba87b57	-0.0051416564
119	0xbb3be079	-0.0028667732
120	0xbc7f5913	-0.015585202
121	0x3cb7efb6	0.02245317
122	0xbc812e28	-0.01576908
123	0xbda918b9	-0.082566686
124	0xbdaf018d	-0.08545218
125	0x3bc45ff2	0.005992883
126	0xbe1d39fd	-0.15354152
127	0xbc9c7729	-0.019099789
128	0x3c5d389b	0.013502265
129	0xbc1acf14	-0.009448785
130	0x3c62476a	0.013810972
131	0x3bbf713d	0.0058423565
132	0xbc3dbd6b	-0.011580805
133	0x3c4831b5	0.012218882
134	0xbbc68943	-0.0060588433
135	0xbc4b891c	-0.012422826
136	0x3d21e64e	0.039526276
137	0xbd631891	-0.05544335
138	0x3c61c9e6	0.0137810465
139	0xbc4adc48	-0.012381621
140	0xbc905dd2	-0.017622862
141	0x3b203c25	0.0024449911
142	0x3d119610	0.0355435
143	0x3c533618	0.012891315
144	0xbbceac61	-0.0063071703
145	0x3ab1fe15	0.0013579751
146	0x3c996129	0.018723087
147	0xbc9c6c25	-0.019094536
148	0x3c53dea7	0.012931502
149	0x3caa296c	0.020771705
150	0xbc7cea35	-0.015436699
151	0xba81285c	-0.0009853947
152	0x3d0089b3	0.03138132
153	0xba41e94c	-0.00073971297
154	0xbc2359d6	-0.009970149
155	0xbc7f4366	-0.015580034
156	0xbc4db4a7	-0.012555278
157	0x3ccce9f3	0.0250139
158	0x3c35936a	0.0110825095
159	0x3ae2d50b	0.0017305923
160	0x3b5c5928	0.0033622477
161	0xbafd9829	-0.0019347715
162	0xbc8edf06	-0.01744033
163	0xbbeccd4a	-0.007226621
164	0x3bdf8475	0.00682121
165	0xbccbcf6d	-0.024879182
166	0x381286e7	3.493475e-05
167	0x3c6d90f4	0.014499892
168	0xbca3cc60	-0.019994915
169	0x3c0e50c7	0.008686251
170	0x3d1eb416	0.038745962
171	0x3c92a93b	0.017902961
172	0xbd386b41	-0.04502416
173	0x3c8051ab	0.015663942
174	0x3c263e93	0.010146755
175	0x3bedfe16	0.0072629554
176	0xbbdec26a	-0.0067980783
177	0x3ba82a5c	0.0051320028
178	0x3ce53785	0.027980575
179	0xbccfc2bd	-0.025361413
180	0xbc799036	-0.0152321365
181	0xbc8825b9	-0.01661955
182	0xbb9043c3	-0.004402609
183	0xbc8d73d1	-0.01726714
184	0x3cafd2e2	0.021462861
185	0x3b2ccb16	0.0026366166
186	0x3bc17659	0.0059040007
187	0xbca599e7	-0.020214988
188	0x3cba96eb	0.022777041
189	0xbbf3577f	-0.007426202
190	0xba380be7	-0.00070208166
191	0x3c4b73cb	0.012417744
192	0x3b91a55c	0.004444761
193	0xbc46ca82	-0.012133243
194	0x3cc4d8ef	0.024029223
195	0x3bb7ad99	0.0056054113
196	0x3c4623bb	0.01209348
197	0xbc9cdedd	-0.019149238
198	0xbcf849ee	-0.03030869
199	0x3bef9cd7	0.007312398
200	0x3c2cdb34	0.010550309
201	0xbcfdd2bf	-0.03098428
202	0xbca627bf	-0.020282624
203	0x3d139ddc	0.03603922
204	0x3cded7fb	0.027202597
205	0x3cc40f33	0.023933029
206	0x39f552cb	0.00046791727
207	0xbc8ae4ab	-0.01695474
208	0xbc50526b	-0.0127149625
209	0xbc81b988	-0.015835539
210	0x3cc534f9	0.02407311
211	0x3d02c2de	0.03192412
212	0xbd4d24bb	-0.050083857
213	0x3c3e9d7a	0.011634225
214	0xbc635043	-0.013874116
215	0x3c8c4602	0.017123226
216	0x3a438b40	0.00074594095
217	0x3c4fb20f	0.01267673
218	0xbb4f12fe	-0.0031597014
219	0xbb95911e	-0.0045644185
220	0x3a3c52bb	0.00071839587
221	0xbb402d5f	-0.0029323918
222	0xbc8d22f5	-0.017228583
223	0xbc3fd82e	-0.011709256
224	0x3ba2090c	0.004944926
225	0xbe18fed3	-0.14940958
226	0x3b399aa6	0.0028320937
227	0x3c0ec7b7	0.008714608
228	0xbca109af	-0.019657938
229	0x3c997804	0.018733986
230	0xbce89938	-0.028393373
231	0xbcc2e1be	-0.023789283
232	0xbb4c0c09	-0.0031135103
233	0x3a1e2fdf	0.0006034355
234	0xbc17c0f2	-0.00926231
235	0x3c32d11b	0.010914112
236	0x3bee52f4	0.0072730724
237	0x39726fbb	0.00023120541
238	0x3b85879a	0.004075003
239	0xbb9b4c60	-0.004739329
240	0x3cbdb36f	0.02315685
241	0x3c98098a	0.018559236
242	0xbb555b0e	-0.0032555494
243	0xbdba54a0	-0.09098172
244	0x3c8ab2bd	0.016930932
245	0x3c92cece	0.017920878
246	0xbb00dbbd	-0.0019662224
247	0x3b6bbe92	0.0035971743
248	0x3c8f758c	0.017512105
249	0xbb4ea7e4	-0.0031533176
250	0xbca511b2	-0.02015004
251	0xbc1ad67b	-0.00945055
252	0x3ccd775b	0.025081327
253	0x3c562d04	0.013072256
254	0x3bd59957	0.0065185237
255	0x3c89541b	0.016763737

bn1.weight f4 [256]
0	0x3e0c0b54	0.13676196
1	0x3dcc1000	0.09963989
2	0x3dcfd48a	0.101479605
3	0x3e793600	0.24337006
4	0x3e362170	0.17786193
5	0x3de55168	0.11197168
6	0x3d822cdf	0.06356215
7	0x3f1d6966	0.6148895
8	0xbdf2dd6e	-0.118586406
9	0x3d83979c	0.064254016
10	0x3e42d84b	0.19027822
11	0x3aa074a7	0.0012241796
12	0x3dcb6c02	0.0993271
13	0x3dcdb57b	0.1004438
14	0x3e95de95	0.2927138
15	0x3ea53a4c	0.3227104
16	0xbe40e94b	-0.18838994
17	0x3e23eccc	0.160083
18	0x3d9d33ad	0.07675872
19	0x3ddcb71e	0.10777114
20	0x3e657694	0.22408515
21	0x3e9ec448	0.31009126
22	0x3f023a2b	0.5087001
23	0x3e3b0975	0.18265326
24	0x3e321491	0.17390658
25	0x3f921d6f	1.1415232
26	0x3e3d73b1	0.18501164
27	0x3edd5a50	0.43232965
28	0x3e10b71d	0.14132352
29	0x3e472cc9	0.19450678
30	0xbd1f42e5	-0.038882155
31	0x3e187d46	0.14891538
32	0x3ea96c1b	0.3309029
33	0x3f1ae027	0.6049828
34	0x3e0ad569	0.13557972
35	0x3f12c66e	0.5733403
36	0x3e83e7b7	0.25762722
37	0x3e903fdc	0.2817372
38	0x3e9057a5	0.28191867
39	0x3ea70bb7	0.32626125
40	0x3df0b3da	0.11753054
41	0x3d65852c	0.056035206
42	0x3eeb41ad	0.45948544
43	0x3d401412	0.04689414
44	0x3df9634e	0.12177144
45	0x3e846097	0.25854942
46	0x3f38f99b	0.7225587
47	0x3e074474	0.13209707
48	0xbe9d7766	-0.30755156
49	0x3e09579f	0.13412331
50	0x3e2f28ba	0.1710538
51	0x3d83f029	0.06442291
52	0x3e8899b4	0.26679766
53	0x3df0e5cb	0.117625795
54	0x3d0b3586	0.03398659
55	0xbc88ad0d	-0.01668408
56	0x3e6173d6	0.22016844
57	0x3e16d076	0.14727959
58	0x3e416089	0.18884481
59	0x3e3a7876	0.18210015
60	0x3e602d6a	0.21892324
61	0x3f17fe57	0.59372467
62	0x3eff6da2	0.4988833
63	0x3de84ac9	0.11342389
64	0xbdc6258a	-0.09675129
65	0x3ef42b1c	0.4768914
66	0x3e5f53a3	0.21809249
67	0x3e95c940	0.29255104
68	0xbe005af4	-0.12534696
69	0x3e946b6c	0.28988206
70	0x3e522e9d	0.20525594
71	0x3e2ecf89	0.17071356
72	0x3e33cd2e	0.17558739
73	0x3bbc39f5	0.0057442137
74	0x3dddc026	0.10827665
75	0x3e6f024d	0.23340721
76	0x3ec25ade	0.3795995
77	0xbdb10f7c	-0.086455315
78	0x3e2f7037	0.1713265
79	0x3f313bad	0.69231683
80	0x3dd96a00	0.10615921
81	0xbd2d0437	-0.042240348
82	0x3e0894d0	0.13338017
83	0x3e796af1	0.24357201
84	0x3ea2ba6f	0.31782863
85	0x3e24b421	0.16084339
86	0x3e1c1601	0.15242769
87	0x3ed87857	0.42279312
88	0x3e10e798	0.14150846
89	0x3ea3e304	0.32009137
90	0x3c1836d6	0.009290418
91	0x3e8f9f43	0.28051195
92	0x3dabada8	0.08382732
93	0xbdd3c13e	-0.103395924
94	0x3eb908a6	0.3613941
95	0x3e73a59c	0.23793644
96	0x3e12bf70	0.1433084
97	0x3dfcb77b	0.123396836
98	0x3daa0162	0.08301045
99	0xbd900048	-0.07031304
100	0x3e5bf46d	0.2147996
101	0x3e092106	0.13391504
102	0x3f0e57db	0.55602807
103	0x3e49fcbc	0.19725317
104	0x3e921a05	0.28535476
105	0xbe328aed	-0.17435808
106	0x3eda45db	0.4263142
107	0x3d9f9a28	0.07793075
108	0x3eb71dce	0.35764927
109	0xbe0a48c7	-0.13504325
110	0xbb80e237	-0.003933217
111	0x3e41b3bf	0.18916224
112	0x39a0a66a	0.00030641566
113	0x3e6e91c1	0.23297788
114	0x3e80cecc	0.25157773
115	0x3e439a27	0.19101773
116	0x3dc72bff	0.097251885
117	0x3f23d594	0.6399777
118	0x3da9ba0a	0.08287437
119	0x3f3d3c3f	0.73920053
120	0x3e971e6c	0.29515398
121	0x3f28ea70	0.65982723
122	0x3dcfbebd	0.10143802
123	0x3dfa253f	0.122141354
124	0x3dfdb0ba	0.123872235
125	0x3ea600bc	0.32422435
126	0x3f1353da	0.5754982
127	0x3e00e117	0.12585865
128	0x3e227e88	0.1586858
129	0x3e10951f	0.14119385
130	0x3dc245fa	0.09486003
131	0x3e244ed4	0.16045696
132	0x3deb41bf	0.114871494
133	0x3db674e5	0.089090146
134	0x3eee690d	0.46564522
135	0x3efdadc9	0.4954665
136	0x3d8237bb	0.06358286
137	0x3e0f0ac5	0.13968952
138	0x3e890f77	0.2676961
139	0x3e605d8e	0.21910688
140	0x3e2cf6e3	0.16891055
141	0x3e0a4b1a	0.13505211
142	0x3e19c76c	0.1501748
143	0x3d4b1ccc	0.04958801
144	0x3e8b7138	0.27234817
145	0x3d2dad1a	0.04240141
146	0x3e0b0134	0.13574678
147	0x3e8b6266	0.2722351
148	0x3ef83d23	0.48484144
149	0x3e84c3a0	0.259305
150	0x3e800796	0.25005788
151	0x3ea9c5f0	0.33158827
152	0x3e63cb77	0.22245584
153	0x3e10142b	0.14070193
154	0xbe1d7e94	-0.15380317
155	0x3e3c6542	0.18398002
156	0x3de5ac16	0.112144634
157	0x3f1f3bfb	0.622009
158	0x3d8d6abb	0.06905123
159	0x3dd912a5	0.10599259
160	0x3e5738a5	0.21017702
161	0x3e8d92e4	0.2765113
162	0x3f0b3c2e	0.543887
163	0x3e647400	0.22309875
164	0x3ed17e3c	0.40916622
165	0xbded5b89	-0.115897246
166	0x3e107c7b	0.14109986
167	0x3e968f7f	0.29406354
168	0x3ddb4b18	0.10707682
169	0xbdf1aefe	-0.11800955
170	0xb94ab3a9	-0.0001933115
171	0x3e5e39ad	0.21701689
172	0x3dbe938b	0.09305485
173	0x3e2124ad	0.15736647
174	0x3dc2485b	0.09486457
175	0x3e3d962f	0.18514322
176	0x3e117df3	0.14208202
177	0x3eae2f95	0.34020677
178	0x3e9d8c8b	0.30771288
179	0xbda465cf	-0.08027231
180	0x3eeb39c4	0.4594251
181	0xbe5554cf	-0.20833133
182	0x3e4d53f5	0.20051558
183	0x3e4b7db1	0.19872166
184	0x3f15f4b8	0.58576536
185	0x3e7569d6	0.23966154
186	0x3dbd1d2a	0.09234078
187	0x3e2aa15c	0.16663116
188	0x3d49896d	0.049203325
189	0x3e82fec8	0.25585008
190	0x3e156bdc	0.14591926
191	0x3e05d74e	0.13070413
192	0x3e61b9f9	0.22043599
193	0xbe552d65	-0.20818098
194	0x3dfb4c57	0.1227042
195	0x3dbcf29b	0.09225961
196	0x3df5bed6	0.1199929
197	0x3da9a5bd	0.08283565
198	0x3e1a4527	0.15065442
199	0x3e185799	0.14877166
200	0x3d96e4c7	0.073678546
201	0x3e8e5818	0.27801585
202	0x3e02be4a	0.12767902
203	0x3e124d87	0.14287387
204	0x3eb2b00b	0.34899935
205	0x3d97b1b8	0.07406944
206	0x3e20d030	0.15704417
207	0x3e8219e8	0.2541039
208	0x3e82e430	0.25564718
209	0x3f2945c8	0.661221
210	0x3e01f07e	0.12689397
211	0x3e10b595	0.14131768
212	0x3e480475	0.1953295
213	0x3e8086cb	0.2510284
214	0x3e17ec42	0.14836219
215	0x3e89465f	0.268115
216	0x3d728ae1	0.059214476
217	0x3dbe9692	0.09306063
218	0x3eb42e20	0.3519144
219	0x3f3ecc6b	0.7453067
220	0x3e1097ee	0.14120457
221	0x3e063f27	0.13110028
222	0xbe3286e3	-0.17434268
223	0x3e0a40eb	0.13501327
224	0x3e63f747	0.22262298
225	0x3f14de0c	0.58151317
226	0xbe0da710	-0.1383326
227	0x3e1a971f	0.1509671
228	0x3e8afd23	0.27146253
229	0x3dd78376	0.10523121
230	0x3d71557a	0.058919407
231	0x3e9bb8aa	0.30414325
232	0x3e22758d	0.15865155
233	0x3e99ed3e	0.30063814
234	0x3e038db9	0.12847032
235	0x3e3e1cfd	0.18565746
236	0x3e264109	0.16235746
237	0x3e099373	0.13435154
238	0x3e251847	0.16122542
239	0x3e0f67b0	0.14004397
240	0x3e1284d0	0.14308476
241	0x3ea019e9	0.31269768
242	0x3e22c6e9	0.1589619
243	0x3dd6faeb	0.104970776
244	0x3e624a71	0.2209871
245	0x3e3a640b	0.18202226
246	0x3d13d878	0.036095113
247	0x3ec3c813	0.38238582
248	0x3ecbf19a	0.39832765
249	0x3e8ca9d8	0.2747333
250	0x3e1246b7	0.14284788
251	0x3dd56020	0.10418725
252	0x3eef6ae6	0.46761245
253	0x3e77d1dd	0.2420115
254	0xbdaa3445	-0.08310751
255	0x3deb888c	0.115006536

bn1.bias f4 [256]
0	0x3d2ef4c8	0.04271391
1	0xbb1bf41c	-0.0023796624
2	0x3a7837f8	0.0009468789
3	0xbb98259a	-0.0046431543
4	0x3d0e245d	0.034702647
5	0xba35f916	-0.0006941719
6	0x3c34c017	0.011032126
7	0x3e9768a6	0.29572028
8	0xbcb15895	-0.021648685
9	0x3d962a57	0.073322944
10	0x3d953717	0.07285898
11	0x3b01c27a	0.0019799755
12	0x3d06016d	0.032716203
13	0x3df065e8	0.11738187
14	0x3d4e8a01	0.05042458
15	0x3d1d9e29	0.03848091
16	0xbd3904da	-0.045170642
17	0x3cbb3a66	0.022854995
18	0x3cb54d9d	0.022131735
19	0x3d9e9132	0.077425376
20	0x3d97f7cd	0.07420311
21	0x3dced2b7	0.100987844
22	0x3e1a1d33	0.15050201
23	0x3d7f583e	0.062340014
24	0x3dad906b	0.08474811
25	0x3e339061	0.17535545
26	0x3da9d347	0.08292251
27	0x3e44bad2	0.19211891
28	0x3ce15d20	0.027510226
29	0x3dc3fff6	0.09570305
30	0xbc86956d	-0.016428674
31	0xbd40688a	-0.046974696
32	0x3e04ba7c	0.12961763
33	0x3e8ea259	0.27858236
34	0x3c511e49	0.012763568
35	0x3eabc17b	0.3354605
36	0x3daf3f03	0.085569404
37	0x3dafbaf1	0.08580578
38	0x3e188647	0.14894973
39	0x3de26cca	0.11055906
40	0x3d2a8d10	0.041638434
41	0xbb02ad30	-0.0019939654
42	0x3e4dd638	0.20101249
43	0x3d54ba8e	0.051935725
44	0x3d93a162	0.07208516
45	0x3db77e7a	0.0895967
46	0x3d4d60bc	0.05014108
47	0x3bcd6c4c	0.0062690135
48	0xbd8d7916	-0.06907861
49	0x3ceebd69	0.029143052
50	0xbe4ff17a	-0.2030696
51	0x3d50c47d	0.050968636
52	0x3e2335d6	0.15938506
53	0x3c641972	0.013922082
54	0x399d755f	0.00030032822
55	0x3e1c3b6f	0.15257047
56	0x3e0834ee	0.13301441
57	0x3dbd712c	0.092501014
58	0xbc0bb74f	-0.008527591
59	0x3c92734f	0.017877249
60	0x3e34f981	0.17673303
61	0x3e0e3e56	0.13890967
62	0x3e036008	0.12829602
63	0x3dc1bba6	0.09459619
64	0xbc3cda4c	-0.011526655
65	0x3e365733	0.17806701
66	0x3e01d95c	0.12680572
67	0x3dd5c3ac	0.10437712
68	0x3a8f229e	0.0010920351
69	0xbd361add	-0.044459213
70	0x3d967630	0.07346761
71	0xbd145bab	-0.036220234
72	0x3c33c05f	0.010971158
73	0x3ab8bfb4	0.0014095218
74	0x3d6003eb	0.054691236
75	0x3e0833e1	0.1330104
76	0x3e1785e1	0.14797164
77	0xbca3730d	-0.019952321
78	0x3cbf459d	0.023348624
79	0x3dbf7c8b	0.093499266
80	0x3c9442cb	0.018098256
81	0x3bde690b	0.0067874244
82	0x3cc15fb3	0.023605203
83	0x3d4d41b7	0.0501115
84	0x3d993fde	0.07482885
85	0x3dc3de01	0.09563828
86	0x3d9f1b20	0.077688456
87	0x3db82546	0.08991484
88	0x3d466554	0.048436478
89	0x3e0eb574	0.13936406
90	0xbb01c322	-0.0019800146
91	0x3e0abe1e	0.13549086
92	0x3c339efe	0.0109632
93	0xbc6ddb10	-0.014517561
94	0x3e5d28be	0.21597573
95	0x3e62b0bb	0.2213773
96	0x3c81f6e0	0.01586479
97	0x3d2252a1	0.039629582
98	0x3ce89387	0.028390659
99	0xbd006ed0	-0.03135568
100	0x3db809f0	0.089862704
101	0x3d096c69	0.033550654
102	0x3d64c3b1	0.05585069
103	0x3ddab575	0.106791414
104	0x3b774bf7	0.0037734488
105	0x3b177222	0.00231088
106	0x3e436252	0.19080475
107	0x3d171d98	0.036893457
108	0x3db9cd27	0.09072333
109	0xbc62f37b	-0.013851996
110	0x3da4784b	0.080307566
111	0x3d43553f	0.04768872
112	0x3a03fc65	0.0005034863
113	0x3d4e6efc	0.05039881
114	0x3d92f68e	0.07175933
115	0x3d2e95bb	0.042623263
116	0x3d896950	0.0670954
117	0x3e91c8d1	0.28473523
118	0x3ae2cf71	0.0017304254
119	0x3e81acec	0.2532724
120	0x3da740a0	0.08166623
121	0x3e4b987b	0.19882385
122	0x3cc4534c	0.0239655
123	0x3bdafc29	0.006682892
124	0x3d1fd7d2	0.03902418
125	0x3e1db8ee	0.15402576
126	0x3de1543c	0.110023946
127	0x3cd90709	0.026492612
128	0x3db5d58c	0.088786215
129	0xbcc686b9	-0.024234163
130	0x3d625837	0.05525991
131	0x3d222988	0.03959039
132	0x3e1b9943	0.15195183
133	0x3d40bfd8	0.047057956
134	0x3e67f46e	0.22651836
135	0x3e8d553c	0.2760409
136	0x3b96cb4d	0.004601872
137	0x3cda40c6	0.026642215
138	0x3d9bcab9	0.07607026
139	0x3db2f029	0.08737213
140	0x3d34d650	0.044149697
141	0x3d81a5c7	0.06330448
142	0x3ced1e16	0.02894501
143	0xbd809572	-0.062785044
144	0x3e1fbd74	0.15599614
145	0xba991b88	-0.0011681179
146	0x3d31a383	0.043368828
147	0x3d9f904a	0.07791193
148	0x3dafdafe	0.08586691
149	0x3d945bf6	0.07244103
150	0x3de38b9f	0.11110615
151	0x3d3bdf47	0.04586723
152	0x3d3a413b	0.045472365
153	0x3dc3b193	0.09555354
154	0xbd5c0660	-0.053717017
155	0x3ddb838a	0.107184485
156	0x3cfe4bb8	0.031041965
157	0x3e29ffb7	0.16601454
158	0x3d2208d1	0.03955919
159	0x3d85564b	0.065106
160	0x3da748f8	0.081682146
161	0x3e00e7cc	0.12588423
162	0x3e3da9c2	0.18521789
163	0x3d60f089	0.054916892
164	0x3d0347f3	0.032051038
165	0xbd105a00	-0.03524208
166	0x3d3f3c41	0.046688322
167	0x3e61f226	0.22065029
168	0x3cb483cc	0.022035502
169	0xbcf56496	-0.02995519
170	0x3b1ef257	0.0024253333
171	0x3c5f22ac	0.013619106
172	0x3da932d1	0.082616456
173	0x3d01fe9e	0.031736962
174	0x3d67a876	0.05655714
175	0x3d4b4e5e	0.049635284
176	0x3cf5227a	0.029923666
177	0x3dca42c7	0.09876018
178	0x3dcdf3d3	0.100562714
179	0x3e2d3d0b	0.16917817
180	0x3d957e8a	0.07299526
181	0xb91bd432	-0.00014861001
182	0x3d6cf490	0.05785042
183	0x3da0240e	0.07819377
184	0x3e83ce3f	0.2574329
185	0x3d81f5dd	0.06345723
186	0x3cbf72b5	0.023370126
187	0x3d950851	0.07276977
188	0x3bc5121a	0.0060141208
189	0x3e482452	0.19545105
190	0x3be26bd0	0.006909825
191	0x3d8aff48	0.06786972
192	0x3da4f660	0.08054805
193	0xbcb944f7	-0.022615893
194	0x3dc2e645	0.09516577
195	0x39ce29e5	0.00039322596
196	0x3d466848	0.048439294
197	0x3b4beee9	0.0031117743
198	0x3e0b12c4	0.13581377
199	0x3d625c6f	0.055263933
200	0x3ce3a177	0.027786953
201	0x3e3d0485	0.18458755
202	0xbb483a06	-0.0030552163
203	0x3da881f0	0.082279086
204	0x3e195586	0.14974031
205	0x3d9a4be4	0.07534006
206	0x3c0b1bf6	0.008490553
207	0x3e1437ac	0.14474362
208	0x3de0e5d5	0.10981337
209	0x3e743aa0	0.23850489
210	0x3c85b1c7	0.016320122
211	0xbc266333	-0.010155487
212	0x3d95985c	0.07304451
213	0x3d6b821b	0.057497125
214	0x3cd493af	0.025949327
215	0x3e759967	0.239843
216	0xbb2a43de	-0.0025980393
217	0xbd94be8d	-0.07262907
218	0xbdb65a90	-0.08903992
219	0x3e8263f1	0.25466874
220	0x3d2695b7	0.040670123
221	0x3cdfd7a1	0.0273245
222	0xbd1bbe0e	-0.038023047
223	0x3c9d05ec	0.019167863
224	0x3d6fa0f0	0.05850309
225	0x3de700f0	0.11279476
226	0xbcca3e2c	-0.024687849
227	0x3d70f6a4	0.058828965
228	0x3e57f149	0.21088137
229	0x3d0f0837	0.034919944
230	0x3d451d26	0.0481235
231	0x3df4fdde	0.11962484
232	0x3e1bd3c8	0.15217507
233	0x3e5452e7	0.2073475
234	0x3cf7e30d	0.030259633
235	0x3dd75708	0.10514647
236	0x3d3e290f	0.046425875
237	0xbe0ed7ca	-0.13949504
238	0x3cf46e3f	0.029837726
239	0x3b5bf065	0.0033560034
240	0x3d19e3fd	0.037570942
241	0x3dc7699f	0.097369425
242	0x3d1ee2d3	0.038790535
243	0x3dbf9f11	0.093565114
244	0x3d82f943	0.06395199
245	0x3d11f794	0.0356365
246	0x3b0b042f	0.002121221
247	0xbc2415db	-0.010014976
248	0x3e85a07d	0.26099005
249	0xbd93e19c	-0.07220766
250	0x3bd76990	0.0065738633
251	0xb98c8c13	-0.00026807244
252	0x3e1d63ee	0.15370151
253	0x3daa22d9	0.08307428
254	0xbccb4237	-0.024811847
255	0x3d429b1f	0.047511216
