p3_submit/checkpoint_actor_agent_1.pth (torch_old, 296377 bytes, 10 tensors)

fc1.weight f4 [256, 24]
0.031025395 0.08395331 -0.048603266 -0.023276398 -0.0046265647 -0.10559184 -0.012221753 -0.056699727
0.039277058 0.09789267 0.0057189693 0.03422653 0.009882125 -0.07067911 0.014298705 0.056906994
0.02410958 0.07579304 -0.014119899 0.023502568 0.025266862 -0.0032988277 0.035640027 0.026622994
0.0792411 0.0013690566 0.036195427 -0.022830198 0.1304619 -0.026725143 -0.0505639 0.06043815
0.02839983 0.060863044 -0.01977712 0.014039914 0.0778195 0.052985784 -0.022487853 0.066161245
0.0015861039 0.071884766 0.00048489 0.09818685 0.07271379 -0.050767604 0.027580084 0.08768359
-0.016079523 -0.03796648 -0.0095961625 0.046694465 0.09967775 -0.014707116 0.03365849 -0.015630033
0.025047192 -0.05855987 0.02666441 -0.044207398 0.11153314 0.078378715 -0.009242475 -0.055134155
-0.008151638 -0.09774573 -0.022096805 -0.10147939 0.065818414 0.044633713 0.03016907 -0.06581208
0.017511556 -0.012560102 -0.0048710965 -0.025918037 0.078848265 0.028744161 -0.0035079576 0.061636038
-0.0042966274 -0.045690157 0.021079827 -0.014911842 -0.025447968 0.108564995 -0.043715846 0.058309373
0.11859781 0.07180092 0.016895428 -0.00078048836 0.004605801 0.25215533 -0.028803056 -0.034485262
-0.082122736 -0.08212591 -0.00010391263 0.005995521 0.021273376 0.037528194 0.039052367 -0.016715638
-0.025715204 -0.09116036 0.051366944 0.0513124 -0.047474183 0.054763712 -0.0045533003 0.026553825
-0.056962274 -0.018465746 0.06375434 -0.029553907 -0.011390898 0.037173647 0.04824191 -0.049771234
0.018550554 -0.083742745 -0.030340338 -0.01254033 -0.07778091 0.124460876 0.032240983 0.019825676
0.031032156 -0.0076301866 -0.011559105 0.08147994 0.052103434 0.13268907 -0.0072461553 0.024761975
0.05795299 0.024857147 0.049202796 0.10864481 0.020927144 0.12700438 -0.021849466 0.039156415
-0.026181415 -0.098969795 -0.08254259 0.051557686 -0.056888565 0.048937798 -0.021438638 0.033362802
-0.06444271 -0.0816993 0.004113122 0.03250095 -0.030307148 -0.026145624 -0.004844258 -0.008723995
-0.0051935664 -0.0054275324 0.021029804 0.017156906 -0.06802691 -0.102792084 -0.06277834 -0.03395795
-0.01259152 0.09438439 -0.063921005 0.014135164 -0.021480234 -0.009860721 -0.05068675 -0.05242416
0.022261983 0.021079628 0.017319867 0.0055257734 0.010174164 0.030442707 -0.030025028 0.012213101
0.0077421004 0.024346368 -0.0336527 -0.06784322 0.076356746 -0.06846059 0.07134592 -0.011152002
-0.021682538 -0.012693742 -0.057321467 0.011830936 -0.032809008 -0.10623272 0.04128782 0.04041601
0.0019684562 -0.011808884 -0.036817912 -0.00041468826 0.018935805 -0.1757728 0.028798364 -0.009512809
0.0585623 0.02573009 -0.004615957 -0.03276209 0.064671 -0.09413187 -0.015370871 -0.028361099
-0.026876472 0.022336923 0.020250887 0.00082041725 0.01875069 0.0149812605 -0.030037878 0.02426566
0.053139523 -0.052817527 0.008580982 0.06025608 -0.029885963 -0.06736662 -0.034026545 -0.024892436
0.08260166 0.04599763 0.038263742 -0.011511826 -0.10134867 -0.13773976 -0.0016816054 -0.045154534
0.09440235 -0.07850365 -0.0148673495 0.088499755 0.015926244 -0.10362289 -0.021453917 0.114907146
0.0091472985 -0.089077786 -0.051937226 0.043235973 -0.023129605 -0.120305344 0.029722234 0.022974242
00000000: f828 fe3c b7ef ab3d 3814 47bd 25ae bebc
00000010: 709a 97bb 8940 d8bd bf3d 48bc f93d 68bd
00000020: fbe0 203d f47b c83d 3166 bb3b 1e31 0c3d
00000030: a3e8 213c 36c0 90bd 1e45 6a3c 4f17 693d
00000040: 7481 c53c 6239 9b3d 2657 67bc 7588 c03c
00000050: 73fc ce3c 2531 58bb 47fb 113d 7718 da3c
00000060: 2849 a23d eb71 b33a a841 143d 6506 bbbc
00000070: ce97 053e b0ee dabc 181c 4fbd fe8d 773d
00000080: c3a6 e83c 874b 793d a003 a2bc ab07 663c
00000090: d45f 9f3d 9f07 593d 7238 b8bc 8c7f 873d
000000a0: d1e4 cf3a 5238 933d d638 fe39 3016 c93d
000000b0: f8ea 943d b1f1 4fbd a1ef e13c 7493 b33d
000000c0: 34b9 83bc bd82 1bbd 3939 1dbc b242 3f3d
000000d0: d923 cc3d 1ef6 70bc 7cdd 093d 8e0a 80bc
000000e0: c52f cd3c 79dc 6fbd 526f da3c d112 35bd
000000f0: 7d6b e43d 0585 a03d c06d 17bc 5ad4 61bd
00000100: 738e 05bc ea2e c8bd 5c04 b5bc 6dd4 cfbd
00000110: cecb 863d d7d1 363d 2025 f73c 7cc8 86bd
00000120: 6574 8f3c e3c8 4dbc b89d 9fbb 1052 d4bc
00000130: 337b a13d e078 eb3c c3e5 65bb 1276 7c3d
00000140: b9ca 8cbb 9a25 3bbd 9aaf ac3c cc50 74bc
00000150: 4278 d0bc 5357 de3d 630f 33bd cfd5 6e3d
00000160: 69e3 f23d 5c0c 933d 4868 8a3c b099 4cba
00000170: 42ec 963b 811a 813e 63f4 ebbc 6b40 0dbd
00000180: f72f a8bd a131 a8bd abeb d9b8 1376 c43b
00000190: 8145 ae3c 2ab7 193d 60f5 1f3d 3cef 88bc
000001a0: b1a8 d2bc 48b2 babd 2566 523d f32c 523d
000001b0: 4a74 42bd ea4f 603d da33 95bb 6887 d93c
000001c0: 4651 69bd 7a45 97bc a391 823d 091b f2bc
000001d0: e4a0 3abc 6543 183d 4f99 453d ecdc 4bbd
000001e0: 55f7 973c 5181 abbd 4d8c f8bc f575 4dbc
000001f0: 994b 9fbd 58e5 fe3d 1f0f 043d 7569 a23c
00000200: 2637 fe3c a506 fabb 6662 3dbc f4de a63d
00000210: 696a 553d a5df 073e 2871 edbb a0d9 ca3c
00000220: 1d60 6d3d 37a1 cb3c df88 493d 2c81 de3d
00000230: 676f ab3c 700d 023e a7fd b2bc 7a62 203d
00000240: 687a d6bc adb0 cabd 170c a9bd 272e 533d
00000250: fc03 69bd 0073 483d 15a0 afbc 6fa7 083d
00000260: 8afa 83bd f651 a7bd 5ec7 863b b71f 053d
00000270: b246 f8bc 592f d6bc 95bc 9ebb 16ef 0ebc
00000280: cb2e aabb 71d9 b1bb b246 ac3c a48c 8c3c
00000290: b151 8bbd a884 d2bd ee91 80bd 7e17 0bbd
000002a0: aa4c 4ebc 9a4c c13d 04e9 82bd 2d97 673c
000002b0: 51f7 afbc dd8e 21bc e99c 4fbd b7ba 56bd
000002c0: c35e b63c 2faf ac3c 65e2 8d3c 8c11 b53b
000002d0: 89b1 263c fc62 f93c 0cf7 f5bc 7519 483c
000002e0: 72b1 fd3b 0972 c73c 6ad7 09bd 63f1 8abd
000002f0: ed60 9c3d 1135 8cbd cf1d 923d e3b6 36bc
00000300: 949f b1bc 6af9 4fbc eac9 6abd 8bd6 413c
00000310: bd62 06bd 8a90 d9bd 6b1d 293d 428b 253d
00000320: 3701 013b 0d7a 41bc 61ce 16bd 846a d9b9
00000330: 431f 9b3c c9fd 33be 8cea eb3c 9ddb 1bbc
00000340: 06df 6f3d e9c7 d23c 7441 97bb 8b31 06bd
00000350: 3b72 843d 36c8 c0bd 1bd6 7bbc 8955 e8bc
00000360: 0c2c dcbc ecfb b63c 30e5 a53c 4511 573a
00000370: 0c9b 993c f673 753c ff11 f6bc c7c8 c63c
00000380: d4a8 593d 3157 58bd 3f97 0c3c 14cf 763d
00000390: 68d3 f4bc 83f7 89bd 6b5f 0bbd 39eb cbbc
000003a0: 0f2b a93d 0368 3c3d 71ba 1c3d 199c 3cbc
000003b0: e48f cfbd a70b 0dbe 5069 dcba f6f3 38bd
000003c0: 0556 c13d 86c6 a0bd 2f96 73bc 5c3f b53d
000003d0: c177 823c 3d38 d4bd 20c0 afbc 7054 eb3d
000003e0: 8dde 153c 6a6e b6bd 21bc 54bd 3418 313d
000003f0: 4c7a bdbc a662 f6bd 0b7c f33c 7a34 bc3c

fc1.bias f4 [256]
-0.13233472 0.032400135 0.027563682 -0.03287583 0.024092145 -0.22518973 -0.17699595 -0.01386263
-0.27224836 -0.2246536 0.03645184 -0.07895918 0.0049527907 -0.22108677 0.065817505 0.23220508
-0.08970816 -0.03874485 -0.070497975 -0.28900212 0.12014179 -0.22133711 -0.075942814 -0.25372443
-0.04252259 -0.2639044 0.075582586 -0.08145208 -0.20884208 -0.04540328 -0.10298824 -0.084297344
-0.102445446 -0.05901422 -0.12660459 -0.0023799823 -0.26094294 0.15437557 -0.1801933 0.0384802
-0.15051337 -0.1939591 -0.13368091 -0.15868932 -0.094204344 -0.19309731 -0.08303983 -0.18166494
0.16628866 0.13818543 -0.15113354 0.15774028 -0.15979049 -0.276115 0.090305716 -0.14364311
0.06189418 -0.14094463 -0.11370816 -0.027631678 0.08250512 0.0344514 -0.025522895 -0.19758797
0.09415086 -0.052240066 -0.192534 0.06151652 -0.19985677 -0.18587463 -0.07214665 -0.19650084
-0.28474817 -0.10339813 -0.11805742 0.10092484 0.019054506 0.17072701 -0.0020047585 -0.053562753
-0.119657636 -0.108984105 -0.231265 -0.25716802 0.11479796 -0.13456881 -0.1413676 0.03827053
-0.2561436 -0.06411854 0.013939235 0.011159901 -0.18286109 0.058386568 -0.17723955 -0.18942973
0.12955366 -0.1952498 0.10539488 -0.023434093 0.005195399 -0.0023562957 -0.057623178 0.07845344
-0.24145101 0.044911496 0.11728301 0.016038945 0.05504728 -0.07671239 -0.07863012 -0.16274324
-0.15690507 -0.16592227 -0.10032365 0.09904289 0.17178273 -0.31492758 -0.25827834 0.08101682
-0.014480435 0.01721181 0.050513323 0.15272872 0.08526632 0.04236491 -0.06355896 -0.021571511
0.048433147 -0.22826216 -0.21714579 0.02155852 -0.2808988 0.06968811 0.14247885 0.10201434
-0.0004641 -0.0011334014 0.07034343 0.087620765 -0.1439696 -0.1965167 0.1139066 0.017293587
0.14457124 -0.22251453 -0.035700034 -0.10732879 -0.031831432 0.13323463 -0.07626115 0.09855175
0.06862307 -0.10102378 0.16460939 -0.01434079 0.09829564 -0.09451701 -0.11679425 0.26645324
-0.21193524 0.017383644 -0.08624716 -0.06860441 -0.17291678 0.12991397 0.010261412 0.045801807
0.005142795 0.14041507 0.09766448 -0.2854149 -0.3461802 -0.27767608 -0.2851363 -0.21597333
-0.014685516 0.08143179 -0.152182 -0.040139947 -0.18880506 0.12793723 0.08580301 0.009181775
0.21980135 -0.13742098 -0.2743044 -0.17317483 -0.09932177 0.006849755 0.056142725 0.004559439
-0.10292158 -0.26210362 0.18366462 -0.20237176 -0.14527398 0.06126627 0.031577326 -0.037591416
-0.108880654 -0.1385453 0.02141815 -0.1917374 0.18700759 0.009142497 -0.16495143 0.025900474
-0.0051865904 -0.23313443 -0.09102033 -0.05213051 0.17712626 -0.027207399 -0.15654433 -0.2649319
0.046551947 0.005743603 0.051981766 0.014726023 -0.09144897 0.020203229 0.09696011 -0.110850886
-0.027311655 -0.21019123 -0.033445723 -0.21263434 -0.062190454 -0.15800431 0.11627598 0.2904446
-0.06814956 -0.048931878 -0.009674972 0.10185711 -0.13924362 0.049722373 0.032679733 -0.051795382
-0.2962554 -0.2643081 0.08080446 0.017867267 -0.10872199 0.094515085 -0.13673101 -0.21457213
-0.038434077 -0.16412951 -0.12170914 -0.16177668 0.18758793 0.07732644 -0.25280875 0.042840242
00000000: c182 07be 01b6 043d 3bcd e13c cea8 06bd
00000010: e45c c53c 2398 66be 6d3e 35be 1620 63bc
00000020: 2364 8bbe 980b 66be 864e 153d 5ab5 a1bd
00000030: 054b a23b 9264 62be 54cb 863d 2bc7 6d3e
00000040: e9b8 b7bd ebb2 1ebd 3e61 90bd 16f8 93be
00000050: e60c f63d 32a6 62be e887 9bbd 2be8 81be
00000060: 2b2c 2ebd 7a1e 87be 0bcb 9a3d 59d0 a6bd
00000070: b3da 55be caf8 39bd 80eb d2bd 16a4 acbd
00000080: ebce d1bd e5b8 71bd a2a4 01be 7af9 1bbb
00000090: 509a 85be a114 1e3e 9884 38be 6a9d 1d3d
000000a0: 2d20 1abe 379d 46be a6e3 08be 747f 22be
000000b0: 35ee c0bd 4dbb 45be c910 aabd 6006 3abe
000000c0: 9347 2a3e 7b80 0d3e c0c2 1abe ab86 213e
000000d0: 1ea0 23be f25e 8dbe 34f2 b83d 2e17 13be
000000e0: c084 7d3d ca53 10be d3df e8bd d45b e2bc
000000f0: 72f8 a83d e91c 0d3d 6415 d1bc 8054 4abe
00000100: 2bd2 c03d aef9 55bd a227 45be bff8 7b3d
00000110: 41a7 4cbe eb55 3ebe 9fc1 93bd 8437 49be
00000120: 83ca 91be 66c2 d3bd 17c8 f1bd afb1 ce3d
00000130: 3218 9c3c 10d3 2e3e 4462 03bb 9e64 5bbd
00000140: 100f f5bd 0f33 dfbd bbd0 6cbe 87ab 83be
00000150: 311b eb3d 68cc 09be abc2 10be 8fc1 1c3d
00000160: 4125 83be 9550 83bd 6461 643c 04d8 363c
00000170: f03f 3bbe c126 6f3d 497e 35be def9 41be
00000180: b7a9 043e 90ef 47be 45d9 d73d dbf8 bfbc
00000190: 2a3e aa3b 156c 1abb 4806 6cbd 32ac a03d
000001a0: ef3e 77be 1ef5 373d 1332 f03d 1b64 833c
000001b0: 4279 613d 631b 9dbd d408 a1bd 2aa6 26be
000001c0: b9ab 20be 87e7 29be 7c76 cdbd 00d7 ca3d
000001d0: d0e7 2f3e 303e a1be 0f3d 84be 26ec a53d
000001e0: 593f 6dbc c8ff 8c3c 0fe7 4e3d eb64 1c3e
000001f0: 1ca0 ae3d d486 2d3d 332b 82bd bdb6 b0bc
00000200: d661 463d 8ebd 69be 775b 5ebe 7e9b b03c
00000210: f8d1 8fbe a4b8 8e3d fae5 113e e5ec d03d
00000220: 7352 f3b9 a48e 94ba 3710 903d 8472 b33d
00000230: c46c 13be ac3b 49be dd47 e93d 48ab 8d3c
00000240: 7c0a 143e d9da 63be 333a 12bd 32cf dbbd
00000250: ad61 02bd a96e 083e ce2e 9cbd 80d5 c93d
00000260: 418a 8c3d 8ee5 cebd 5d8f 283e a2f5 6abc
00000270: 394f c93d 2292 c1bd d331 efbd 8f6c 883e
00000280: 8d05 59be 2568 8e3c 5aa2 b0bd 7880 8cbd
00000290: 1911 31be 2b08 053e 7b1f 283c ad9a 3b3d
000002a0: e484 a83b f8c8 0f3e 5104 c83d e721 92be
000002b0: 883e b1be 8f2b 8ebe 63fd 91be 1d28 5dbe
000002c0: 859b 70bc b6c5 a63d 99d5 1bbe c969 24bd
000002d0: 1d56 41be fa01 033e 7db9 af3d 286f 163c
000002e0: 9b13 613e 16b8 0cbe a071 8cbe be54 31be
000002f0: 3669 cbbd e973 e03b eaf5 653d 5967 953b
00000300: 8dc8 d2bd 7232 86be 9412 3c3e 8b3a 4fbe
00000310: b4c2 14be 57f2 7a3d 3a57 013d 75f9 19bd
00000320: d2fc debd d2de 0dbe 1e75 af3c cf56 44be
00000330: eb7e 3f3e 69ca 153c 07e9 28be 3b2d d43c
00000340: 46f4 a9bb cbba 6ebe de68 babd cd86 55bd
00000350: 9660 353e 0de2 debc 284d 20be 27a5 87be
00000360: 41ad 3e3d d634 bc3b d5ea 543d 6b45 713c
00000370: 9949 bbbd 3e81 a53c 0693 c63d ca05 e3bd
00000380: b1bc dfbc 5f3c 57be 62fe 08bd d1bc 59be
00000390: 6bbb 7ebd e2cb 21be 1a22 ee3d 28b5 943e
000003a0: ff91 8bbd cb6c 48bd c683 1ebc 769a d03d
000003b0: e195 0ebe b0a9 4b3d 2fdb 053d 6527 54bd
000003c0: caae 97be 6453 87be cf7c a53d 605e 923c
000003d0: a2a9 debd 2091 c13d 3703 0cbe ccb8 5bbe
000003e0: 0d6d 1dbd 9111 28be a442 f9bd c9a8 25be
000003f0: 0d17 403e 535d 9e3d 2670 81be 4079 2f3d

fc2.weight f4 [256, 256]
0.07233974 0.08953125 0.072153665 0.16673654 0.03670429 0.11280556 -0.13080797 0.11781565
-0.06387219 -0.025345836 -0.042472184 -0.028681416 -0.14668499 0.09369566 -0.033128582 0.009705816
0.10288427 0.1257454 -0.033963155 -0.02597934 0.025183355 -0.11410586 0.16641952 -0.045400515
-0.14717838 0.016373957 0.0354672 -0.061167747 -0.051222324 -0.047671698 0.050382916 0.012654453
0.047210097 -0.0580566 -0.066339865 -0.03641183 -0.002828822 0.042533297 -0.0055774916 -0.043005977
-0.04504126 -0.13398579 -0.09566226 0.061160397 0.18492 0.078888595 -0.014356629 -0.02990341
-0.10885326 -0.04803484 0.045165822 0.13984507 -0.050994378 -0.16726315 0.019106055 0.0006438771
0.02698157 -0.12786114 -0.11705295 -0.16896588 0.014864907 0.05769511 -0.07733023 -0.07367492
0.029440245 -0.003270651 0.050008304 -0.014855758 -0.05045345 0.020453287 -0.032378286 0.0569163
-0.022394476 0.061114494 -0.09099971 0.0028981394 0.088144846 0.061413962 0.1521356 -0.055986606
-0.06782091 0.01398433 0.16958521 -0.064523995 0.06899256 0.093358904 0.013996654 0.20942079
0.30234724 -0.1367165 0.12232213 0.11078996 0.1639821 -0.07553642 -0.15744585 0.0013983182
-0.033903435 -0.03155806 0.05451463 -0.11297957 0.23039377 -0.06452221 -0.18632054 0.10532223
-0.103440754 0.048205614 -0.033123408 0.05564046 -0.016532991 -0.13021067 0.0020441972 0.00780382
-0.046966143 0.06808142 -0.030732732 0.0012327072 0.010471244 0.047425 -0.1024305 -0.10622204
-0.008877402 0.08545212 0.12938629 -0.22735637 0.017969707 -0.023084797 0.111365795 0.11653802
-0.0162058 0.048355177 0.092842795 -0.036214318 0.023231503 -0.047227245 -0.09898973 -0.06766945
0.03334217 -0.008238401 0.12588295 -0.083102345 0.044068187 0.07983633 0.12289261 0.03427135
-0.090679616 -0.09752555 -0.03689935 -0.07218248 0.042282842 -0.13697053 -0.23339242 -0.035163414
-0.07613212 -0.1715738 0.062421605 -0.09084688 -0.02808665 -0.06353824 -0.01104266 0.10192779
0.11539086 0.016760562 -0.09156881 0.034122404 0.03414244 0.05057968 -0.07866734 -0.14377916
-0.20312376 0.120699376 0.035670757 0.034660775 -0.14430825 0.038083598 0.012450485 0.03710355
-0.042430952 0.01959516 -0.002291365 0.066036284 -0.056218978 0.071267456 0.0043247957 0.054327495
0.07578377 0.0015380939 -0.071596086 0.0011023043 0.046206366 -0.14218844 0.05236698 -0.107824795
0.11697527 -0.10284112 0.055767395 -0.043762337 0.03410747 -0.08121976 -0.02865973 -0.040996365
0.17485718 0.124876834 -0.018210096 0.08774424 -0.08795185 0.005814757 0.1591652 -0.03460965
0.14412445 -0.009903473 0.10059313 0.024568738 -0.07846336 -0.13917445 -0.061573777 -0.051219657
-0.006338605 -0.028215256 0.048933934 -0.03626615 -0.01407531 -0.08351154 0.17106698 -0.049915522
0.14973554 -0.12951294 -0.025122004 -0.077092 -0.08326217 -0.19903739 -0.14275424 -0.10940342
-0.05318272 -0.12477708 -0.16380024 0.06791118 0.022029359 -0.07100534 0.07723956 0.14026867
-0.10068334 -0.24715428 -0.0917144 0.07477704 -0.038007494 -0.09433204 0.26993588 -0.013377375
-0.16027956 0.012544313 0.009902065 0.06335242 -0.0749758 0.123942874 0.02500045 0.076685354
00000000: dc26 943d 295c b73d 4dc5 933d fcbc 2a3e
00000010: 3d57 163d 9a06 e73d 86f2 05be 5549 f13d
00000020: 6ccf 82bd 12a2 cfbc 50f7 2dbd 4af5 eabc
00000030: 9734 16be 83e3 bf3d d6b1 07bd 2505 1f3c
00000040: fdb4 d23d 67c3 003e f31c 0bbd a0d2 d4bc
00000050: 534d ce3c 55b0 e9bd e169 2a3e e4f5 39bd
00000060: eeb5 16be ad22 863c 0e46 113d 088b 7abd
00000070: 80ce 51bd 6643 43bd 515e 4e3d 9f54 4f3c
00000080: 605f 413d c2cc 6dbd 32dd 87bd 9224 15bd
00000090: c263 39bb 6537 2e3d 64c3 b6bb 0927 30bd
000000a0: 2f7d 38bd 9233 09be 93ea c3bd 5383 7a3d
000000b0: ab5b 3d3e 5890 a13d 1138 6bbc fff7 f4bc
000000c0: 75ee debd 2ec0 44bd ccff 383d 8c33 0f3e
000000d0: 7bdf 50bd 0847 2bbe 4d84 9c3c dcc9 283a
000000e0: 7408 dd3c 08ee 02be 75b9 efbd 6405 2dbe
000000f0: f08b 733c b551 6c3d 505f 9ebd e0e2 96bd
00000100: ab2c f13c 6b58 56bb 82d5 4c3d 9165 73bc
00000110: 47a8 4ebd a78d a73c 189f 04bd 1121 693d
00000120: 9f74 b7bc 3153 7a3d 0e5e babd b6ee 3d3b
00000130: 4985 b43d 358d 7b3d 6fc9 1b3e 3652 65bd
00000140: b0e5 8abd 881e 653c bfa7 2d3e 2825 84bd
00000150: f94b 8d3d f432 bf3d 3952 653c 6772 563e
00000160: 42cd 9a3e 69ff 0bbe 0684 fa3d d9e5 e23d
00000170: ecea 273e d7b2 9abd 7c39 21be c647 b73a
00000180: 54de 0abd 0643 01bd bc4a 5f3d d561 e7bd
00000190: 58ec 6b3e 3824 84bd d0ca 3ebe 2eb3 d73d
000001a0: bfd8 d3bd 4073 453d 69ac 07bd 40e7 633d
000001b0: 3270 87bc f255 05be f0f7 053b 30b7 ff3b
000001c0: 925f 40bd 466e 8b3d 36c3 fbbc ca92 a13a
000001d0: 958f 2b3c b840 423d 15c7 d1bd f18a d9bd
000001e0: 8672 11bc 8501 af3d d77d 043e 1cd0 68be
000001f0: 3535 933c 541c bdbc c013 e43d 7cab ee3d
00000200: 07c2 84bc 1410 463d 5d24 be3d 7755 14bd
00000210: fe4f be3c 5b71 41bd 21bb cabd 4896 8abd
00000220: cd91 083d 5cfa 06bc 76e7 003e 9031 aabd
00000230: d880 343d 3b81 a33d 1faf fb3d 1d60 0c3d
00000240: 3cb6 b9bd 7abb c7bd c623 17bd 68d4 93bd
00000250: c630 2d3d 0142 0cbe 6cfe 6ebe 8307 10bd
00000260: 28eb 9bbd 0bb1 2fbe ccad 7f3d ee0d babd
00000270: f915 e6bc 5620 82bd 46ec 34bc 84bf d03d
00000280: 0b52 ec3d 724d 893c 6e88 bbbd efc3 0b3d
00000290: f1d8 0b3d a32c 4f3d 581c a1bd d83a 13be
000002a0: adff 4fbe 3c31 f73d 801b 123d 75f8 0d3d
000002b0: 8bc5 13be 8cfd 1b3d 1efd 4b3c e4f9 173d
000002c0: 14cc 2dbd 0786 a03c ba2a 16bb 083e 873d
000002d0: df45 66bd acf4 913d 04b7 8d3b 8286 5e3d
000002e0: 8534 9b3d de99 c93a f8a0 92bd 327b 903a
000002f0: e342 3d3d d999 11be c27e 563d 3fd3 dcbd
00000300: bb90 ef3d 5d9e d2bd 5a6c 643d 2340 33bd
00000310: 46b4 0b3d 8c56 a6bd cfc7 eabc ceeb 27bd
00000320: c30d 333e 6dbf ff3d 572d 95bc 41b3 b33d
00000330: 1920 b4bd b889 be3b 34fc 223e d9c2 0dbd
00000340: 5c95 133e 2d42 22bc c503 ce3d 6144 c93c
00000350: 66b1 a0bd bf83 0ebe c934 7cbd b4cb 51bd
00000360: 13b4 cfbb ae23 e7bc f36e 483d d18b 14bd
00000370: 219c 66bc 1908 abbd 2f2c 2f3e 3874 4cbd
00000380: 4654 193e 0a9f 04be a9cc cdbc 69e2 9dbd
00000390: 5b85 aabd 75d0 4bbe 2b2e 12be e60e e0bd
000003a0: 20d6 59bd 208b ffbd 40bb 27be 0415 8b3d
000003b0: ea76 b43c 3f6b 91bd c62f 9e3d 97a2 0f3e
000003c0: 1133 cebd 0316 7dbe c2d4 bbbd b424 993d
000003d0: bfad 1bbd 2831 c1bd 0935 8a3e c72c 5bbc
000003e0: 5320 24be aa86 4d3c 453c 223c eabe 813d
000003f0: ea8c 99bd c3d5 fd3d becd cc3c 360d 9d3d

fc2.bias f4 [256]
0.13273273 0.16727361 -0.005637161 0.007184938 -0.041670118 0.094578005 0.08725907 -0.030269582
0.06751189 0.0226833 -0.023254419 0.09258536 0.07273774 0.15687267 -0.022189047 -0.06699944
-0.008877841 0.072740495 0.08502487 0.09735586 -0.009477639 0.022846512 0.041310444 0.08536876
0.11183544 0.014333445 -0.04137403 0.122693315 0.019252585 -0.015270113 0.050292622 0.0026288417
0.074196205 0.1084476 -0.020390173 0.11613467 0.2050991 0.11601719 0.12717207 0.019186798
0.010211719 0.07755987 0.061214488 0.094375804 -0.050689463 0.06250689 0.09510409 0.06551017
0.068741545 -0.00041200803 0.088655986 0.07203304 -0.047418855 0.0013717539 0.19007045 0.07887207
0.07160676 -0.022472091 0.03595934 0.035162024 0.005907735 0.15913211 0.008597824 0.008163361
-0.026459359 0.040264014 0.07021705 0.005985193 0.17236228 0.16983615 0.106695786 0.0706724
0.033817936 0.06046197 0.019160567 0.08674385 -0.00027465145 0.0923677 0.14686118 0.017786674
-0.012146161 0.14787006 -0.008160829 -0.007931787 0.085440315 0.19483627 0.011253215 0.033821154
0.05310858 0.01005079 -0.01316835 0.08741743 -0.013883252 0.07356741 0.04791922 0.046935607
0.027746988 -0.028476225 0.04365455 -0.070884794 0.05011405 0.10615739 0.023312503 -0.03997941
0.025670279 -0.056625873 0.027217947 -0.06348407 0.05075838 -0.01897722 -0.009417984 0.01689685
0.054823574 0.014537543 0.0034801892 0.032104395 0.1507231 0.047485974 0.08336115 0.093943626
0.07672272 0.071295165 0.06163819 0.082394026 -0.042843275 -0.019310487 0.12693176 0.033531006
0.018198606 0.091925636 0.08603496 0.052454595 0.043654904 0.10275522 0.050765052 0.09742423
0.05267547 0.108001254 0.12033879 -0.044753123 0.08655913 0.03593464 0.075664565 -0.005366371
0.12579873 0.01580944 0.01530726 0.018763276 -0.024392601 0.10032029 0.07814793 -0.08643916
0.09377806 0.02576764 0.12376228 0.119783364 0.104368836 0.098102234 0.085641704 0.08220523
0.0839601 0.08303937 -0.02799788 0.14483714 -0.048309833 0.09536046 0.048570175 0.02849493
0.15713026 0.17174771 -0.018211368 0.042950016 0.041124742 0.0565503 0.02797508 0.026211286
-0.007833244 -0.016672391 0.16427757 0.09323493 0.078308254 0.18123288 0.12781906 0.21496111
0.094645105 0.021356957 -0.04148569 0.005099779 0.17316902 0.09836909 0.041066457 0.032540694
0.095501974 0.08806317 0.06880714 0.1278202 0.07396204 0.04698451 0.003191603 0.121685006
-0.00067709247 0.005430747 -0.015437399 0.122580394 0.06479174 0.002152609 -0.027823405 0.021446252
0.029857503 0.106255755 0.07649363 0.044158008 0.040807355 0.044598483 0.096159525 -0.06825332
-0.06605292 -0.013852006 0.061364084 0.049512185 -0.030875795 0.031039158 0.011952278 0.04252432
-0.0152903525 0.12527366 0.10989017 -0.011966539 0.13720526 0.10731984 0.04992524 0.11464328
0.091516055 0.06286269 0.15056704 0.0042284126 0.10473189 0.18603358 0.09011278 0.049640022
-0.09222995 0.048127268 0.09970833 0.21703231 0.048040997 0.1176043 0.038619712 0.030374138
0.09935297 0.029692886 0.11658182 0.060949724 -0.04762217 0.043846916 0.10282925 0.11620313
00000000: 17eb 073e c649 2b3e efb7 b8bb a16f eb3b
00000010: 49ae 2abd 1db2 c13d e2b4 b23d eaf7 f7bc
00000020: ac43 8a3d 54d2 b93c 0d80 bebc 659d bd3d
00000030: 86f7 943d 3ba3 203e cec5 b5bc 0137 89bd
00000040: 5d74 11bc f8f8 943d 8521 ae3d 8262 c73d
00000050: 1948 1bbc 9c28 bb3c 2435 293d d1d5 ae3d
00000060: fb09 e53d d3d6 6a3c d177 29bd a246 fb3d
00000070: 99b7 9d3c 7f2f 7abc a3ff 4d3d a548 2c3b
00000080: 2ef4 973d c619 de3d 4b09 a7bc 04d8 ed3d
00000090: 8005 523e 6c9a ed3d 6539 023e a22d 9d3c
000000a0: 0e4f 273c b6d7 9e3d 0bbc 7a3d 1a48 c13d
000000b0: c19f 4fbd 9d03 803d efc5 c23d 322a 863d
000000c0: 5ec8 8c3d c802 d8b9 4591 b53d 0f86 933d
000000d0: 463a 42bd 6ccc b33a d4a1 423e ae87 a13d
000000e0: 91a6 923d 6417 b8bc 1a4a 133d 0e06 103d
000000f0: ac95 c13b 87f3 223e e3dd 0c3c 9ebf 053c
00000100: 4cc1 d8bc e1eb 243d f5cd 8f3d 701f c43b
00000110: bd7f 303e 87e9 2d3e 5283 da3d b1bc 903d
00000120: ad84 0a3d f8a6 773d 9ff6 9c3c c2a6 b13d
00000130: 18ff 8fb9 472b bd3d c762 163e 5cb5 913c
00000140: b100 47bc 406b 173e ffb4 05bc 53f4 01bc
00000150: 55fb ae3d 2983 473e 685f 383c 0d88 0a3d
00000160: 6288 593d 12ac 243c 10c0 57bc e907 b33d
00000170: 9476 63bc 83aa 963d f246 443d 8d3f 403d
00000180: a74d e33c f946 e9bc 1dcf 323d 0c2c 91bd
00000190: 6444 4d3d 0c69 d93d ddf9 be3c 73c1 23bd
000001a0: 7a4a d23c 88f0 67bd 2cf8 de3c f003 82bd
000001b0: 05e8 4f3d 1d76 9bbc e34d 1abc 436b 8a3c
000001c0: af8e 603d e02e 6e3c e313 643b e67f 033d
000001d0: 2857 1a3e a780 423d 40b9 aa3d 8465 c03d
000001e0: cd20 9d3d 3303 923d 5478 7c3d 33be a83d
000001f0: 6e7c 2fbd 0731 9ebc 66fa 013e cf57 093d
00000200: 3e15 953c 8243 bc3d 1933 b03d a1da 563d
00000210: 7ccf 323d 5471 d23d 04ef 4f3d 5b86 c73d
00000220: 3cc2 573d c32f dd3d 2f74 f63d 0d4f 37bd
00000230: ea45 b13d 3330 133d 06f6 9a3d 62d8 afbb
00000240: 62d1 003e cc82 813c 4dcb 7a3c 71b5 993c
00000250: fed2 c7bc b974 cd3d 060c a03d 0407 b1bd
00000260: b60e c03d a816 d33c 1477 fd3d fb50 f53d
00000270: 54bf d53d d3e9 c83d eb64 af3d 375b a83d
00000280: 46f3 ab3d 8c10 aa3d cf5b e5bc 3050 143e
00000290: 88e0 45bd 584c c33d 85f1 463d 336e e93c
000002a0: c1e6 203e a2de 2f3e 0230 95bc 5bec 2f3d
000002b0: 6b72 283d 4aa1 673d ff2b e53c 0db9 d63c
000002c0: 0257 00bc 8a94 88bc 6138 283e f4f1 be3d
000002d0: 1460 a03d 1d95 393e 00e3 023e c41e 5c3e
000002e0: 4bd5 c13d c9f4 ae3c e6ec 29bd 0c1c a73b
000002f0: 3853 313e bc75 c93d 4d35 283d 6449 053d
00000300: 8a96 c33d 775a b43d c2ea 8c3d 4ce3 023e
00000310: 6979 973d d472 403d 372a 513b fd35 f93d
00000320: e87e 31ba 68f4 b13b 25ed 7cbc 6e0b fb3d
00000330: 88b1 843d c912 0d3b e9ed e3bc 0db0 af3c
00000340: b997 f43c 9e9c d93d b1a8 9c3d 07df 343d
00000350: 9d25 273d e6ac 363d 49ef c43d 66c8 8bbd
00000360: c146 87bd 86f3 62bc e858 7b3d 4acd 4a3d
00000370: 3cef fcbc d545 fe3c 7dd3 433c fb2d 2e3d
00000380: 6384 7abc bd47 003e 190e e13d 4d0f 44bc
00000390: 897f 0c3e 81ca db3d 697e 4c3d 19ca ea3d
000003a0: c56c bb3d 27be 803d 3f2e 1a3e 7f8e 8a3b
000003b0: ac7d d63d 967f 3e3e 0d8d b83d 5653 4b3d
000003c0: 0ee3 bcbd 1921 453d e233 cc3d b83d 5e3e
000003d0: a3c6 443d 86da f03d b42f 1e3d 2fd3 f83c
000003e0: 9279 cb3d 7f3e f33c 73c2 ee3d 6ba6 793d
000003f0: 770f 43bd d398 333d 2498 d23d e8fb ed3d

fc3.weight f4 [2, 256]
0.17803416 0.23024291 -0.16748822 -0.2033982 -0.20979959 0.24504322 0.020803805 -0.21263796
0.178508 0.18010944 -0.09734142 0.1522972 0.1425529 -0.09895073 -0.22402379 -0.19259247
-0.20292185 0.13371311 0.15104555 -0.13996111 -0.2189121 -0.21426092 -0.08190172 0.1795406
0.24906015 -0.09962286 -0.19688316 -0.11443749 -0.2925563 0.103100814 -0.2187059 -0.16686253
-0.07711013 0.100806795 -0.086040914 0.2069763 0.1913758 -0.05925008 0.2529887 -0.19587319
-0.1473299 -0.03149902 0.15880415 -0.0125311855 -0.14197284 0.085716225 0.1404315 -0.11696182
-0.07943488 -0.13274011 0.15360843 -0.28308663 -0.20055534 0.12062069 0.1875368 -0.15740424
0.09842134 -0.06664624 -0.28871483 0.29222015 -0.21302782 0.11375903 0.041703355 -0.19446367
-0.15261184 -0.22315031 -0.010345657 -0.2427865 -0.16293527 0.20748347 -0.18550262 0.13050364
-0.12566286 -0.21819037 0.083911166 -0.14473577 -0.26890844 -0.1759982 -0.03480702 -0.18104184
0.20353156 -0.056702673 -0.035481095 -0.14447643 -0.22855309 -0.027773637 0.15839602 -0.26115274
-0.17414306 -0.07735173 0.21414752 0.10034449 -0.09138382 -0.21660693 0.1297072 0.2608531
0.1790255 0.27265626 0.12934235 -0.1393588 0.16749658 0.21299942 -0.064314544 -0.07577467
-0.066448234 -0.15927671 0.17826068 -0.082817666 0.11521033 0.09649398 -0.2331778 -0.09609622
-0.023911951 0.2391537 0.24496205 -0.121929586 -0.16837879 -0.05396768 -0.15534197 -0.012978209
-0.23550019 -0.2118785 0.11991131 0.12604688 -0.17921893 -0.27012515 -0.046768837 -0.16869627
-0.030529067 0.21311398 0.2083034 -0.18453886 -0.095734544 0.20271975 -0.16802002 -0.19120461
-0.14578934 0.025571996 0.113607205 -0.2105139 -0.21238689 -0.13855748 0.02565244 0.16986601
-0.056373026 0.12124745 -0.2025391 0.14228874 -0.09423359 0.17909835 0.08924756 -0.16360632
0.3244141 0.18263726 0.23083155 0.18979657 0.06386836 0.14053604 0.13571686 0.17154795
-0.052560847 -0.12222795 -0.15845974 -0.07491527 0.0029088194 0.02340228 -0.23043983 -0.1285852
-0.16233347 0.13236512 0.011386732 -0.08521178 -0.2967162 0.046915878 0.19452862 0.006391981
-0.07172405 -0.14086401 0.18618363 -0.16007459 -0.14040467 0.16987137 -0.0800326 0.24124792
-0.12938933 -0.16721359 -0.23222339 0.094909325 -0.15003853 0.16020258 0.06645546 -0.03636029
-0.10246425 0.33995166 0.104383335 0.16286777 -0.065785095 0.10456715 -0.0066821324 0.08471386
-0.15514833 -0.08560974 -0.14048864 0.13746415 0.17606477 -0.1008094 -0.24313566 -0.15725684
0.17420588 -0.20516227 0.13618962 0.012450598 0.16448045 -0.047177736 0.08916358 -0.1903808
-0.20573665 0.10330509 -0.20634045 0.11983715 -0.21551797 0.21497524 -0.10374729 -0.117620245
-0.2566196 0.11182256 0.10485732 -0.1690662 0.14228864 0.127383 -0.15774702 0.20298436
0.28684703 0.16880745 0.17115588 -0.20042059 0.2613728 0.042452373 -0.1223248 -0.212015
-0.18791668 -0.1648668 0.11920395 -0.044439718 -0.21973696 0.06526718 -0.23999357 -0.10820112
0.038192745 -0.1297097 0.16763315 0.259207 -0.16404887 -0.18951465 -0.24763584 0.223238
00000000: 964e 363e ccc4 6b3e 0882 2bbe 9e47 50be
00000010: b4d5 56be 9cec 7a3e be6c aa3c c4bd 59be
00000020: cdca 363e 9c6e 383e f05a c7bd ccf3 1b3e
00000030: 63f9 113e aea6 cabd 7e66 65be f636 45be
00000040: bfca 4fbe 17ec 083e afab 1a3e f751 0fbe
00000050: 7e2a 60be 3767 5bbe 17bc a7bd 7ed9 373e
00000060: a009 7f3e 1207 ccbd bd9b 49be 345e eabd
00000070: f0c9 95be 8526 d33d 70f4 5fbe 03de 2abe
00000080: eaeb 9dbd cb73 ce3d 3836 b0bd 98f1 533e
00000090: 05f8 433e 36b0 72bd bc87 813e fb92 48be
000000a0: a6dd 16be 1e05 01bd 8e9d 223e 9a4f 4dbc
000000b0: 5461 11be fd8b af3d 46cd 0f3e ae89 efbd
000000c0: c1ae a2bd 06ed 07be 874b 1d3e bbf0 90be
000000d0: 615e 4dbe fb07 f73d a609 403e 942e 21be
000000e0: 2191 c93d d37d 88bd 6ed2 93be e19d 953e
000000f0: f723 5abe 7ffa e83d 23d1 2a3d 7c21 47be
00000100: 4746 1cbe 8481 64be d580 29bc 069d 78be
00000110: 81d8 26be 8c76 543e 66f4 3dbe bfa2 053e
00000120: c4ad 00be 4c6d 5fbe 9ed9 ab3d 9d35 14be
00000130: 5eae 89be df38 34be ce91 0ebd 0863 39be
00000140: 946a 503e 1041 68bd a054 11bd a1f1 13be
00000150: d209 6abe 8a85 e3bc 9132 223e d0b5 85be
00000160: 8f52 32be 956a 9ebd 7d49 5b3e 6981 cd3d
00000170: 7127 bbbd 35ce 5dbe f7d1 043e 8a8e 853e
00000180: 7652 373e 9a99 8b3e 5272 043e 13b4 0ebe
00000190: 3984 2b3e 851c 5a3e 58b7 83bd c02f 9bbd
000001a0: 0316 88bd 6f19 23be f889 363e 4f9c a9bd
000001b0: 65f3 eb3d a39e c53d 29c6 6ebe 18ce c4bd
000001c0: ffe2 c3bc b5e4 743e 55d7 7a3e 38b6 f9bd
000001d0: 7d6b 2cbe 370d 5dbd f711 1fbe 8ea2 54bc
000001e0: f626 71be adf6 58be 1094 f53d 6f12 013e
000001f0: 2b85 37be d84d 8abe ae90 3fbd b7be 2cbe
00000200: 1818 fabc 8d3a 5a3e 7d4d 553e c1f7 3cbe
00000210: 7910 c4bd c495 4f3e 710d 2cbe 24cb 43be
00000220: cd49 15be 5d7c d13c e5aa e83d f590 57be
00000230: f37b 59be 03e2 0dbe 1125 d23c 5bf1 2d3e
00000240: 67e7 66bd 9550 f83d 6966 4fbe 24b4 113e
00000250: 8afd c0bd 8f65 373e 6dc7 b63d 6a88 27be
00000260: 9b19 a63e 4305 3b3e 1b5f 6c3e 085a 423e
00000270: 6acd 823d aee8 0f3e 5cf9 0a3e 44aa 2f3e
00000280: 0b4a 57bd a652 fabd 4543 22be 2d6d 99bd
00000290: e4a1 3e3b 23b6 bf3c 6bf8 6bbe d7ab 03be
000002a0: bf3a 26be b98a 073e 6a8f 3a3c 8483 aebd
000002b0: 30eb 97be dd2a 403d 8332 473e d373 d13b
000002c0: 0fe4 92bd a83e 10be eca6 3e3e 98ea 23be
000002d0: 3ec6 0fbe c3f2 2d3e 22e8 a3bd b209 773e
000002e0: a37e 04be 0a3a 2bbe f8cb 6dbe d25f c23d
000002f0: b3a3 19be 250c 243e cd19 883d 87ee 14bd
00000300: c7d8 d1bd 250e ae3e eec6 d53d cfc6 263e
00000310: 56ba 86bd 4d27 d63d caf5 dabb 767e ad3d
00000320: 34df 1ebe 2954 afbd 41dc 0fbe 67c3 0c3e
00000330: 534a 343e 2975 cebd 8ef8 78be f007 21be
00000340: 0763 323e 0f16 52be 4b75 0b3e 98fd 4b3c
00000350: 906d 283e 713d 41bd 659b b63d 2ff3 42be
00000360: a1ac 52be 9e91 d33d e94a 53be 2e6d f53d
00000370: beb0 5cbe 7822 5c3e 7679 d4bd e2e2 f0bd
00000380: a563 83be 3a03 e53d 6fbf d63d b11f 2dbe
00000390: 1db4 113e b070 023e 6f88 21be 22db 4f3e
000003a0: 9ddd 923e dcdb 2c3e 7d43 2f3e 0e3b 4dbe
000003b0: a8d2 853e 8ae2 2d3d 6d85 fabd 761a 59be
000003c0: 3b6d 40be d8d2 28be 3321 f43d 6c06 36bd
000003d0: ba02 61be cdaa 853d e0c0 75be 8c98 ddbd
000003e0: ff6f 1c3d 9fd2 04be 06a8 2b3e c8b6 843e
000003f0: 6dfc 27be 2110 42be 4094 7dbe 8198 643e

fc3.bias f4 [2]
0.04969947 0.036894143
00000000: ac91 4b3d 501e 173d

bn.weight f4 [256]
1.0446756 0.5949569 0.68821454 1.146786 0.6914663 0.3488574 1.044645 0.1921253
0.6388631 1.0072635 0.41273582 0.6177153 0.44058886 0.40615985 0.6533191 0.23521945
0.7807188 0.66591614 0.2314779 0.31350252 0.41999194 0.6318341 0.48322567 0.95207113
0.7929806 0.33582246 0.9758852 0.9109241 0.7921412 0.30220938 0.7976222 0.28798047
0.65807056 0.34048662 1.0015186 1.0594794 1.1437086 0.8830016 0.53735566 0.2807915
0.43980047 0.43906343 1.1304219 0.17757851 1.0377467 0.98420256 0.49152312 0.20030802
0.49642822 0.87453204 0.55549586 0.56018287 1.0179862 1.1148531 0.8952732 0.45814657
0.6242161 1.0213704 0.78945225 0.3070519 0.7022534 0.51308155 0.2062715 0.35777742
0.8789754 0.45459187 0.3276813 0.71774447 0.6147756 0.26459652 0.9427808 0.51523215
1.0960588 1.0099111 0.26534733 0.3659444 0.82726777 0.48881337 0.86483544 0.40941575
0.28838438 0.3659945 0.48841116 0.35748893 0.89741963 0.5547551 0.77957433 0.26341653
0.52086323 0.74021137 0.45903388 0.9864433 0.3631722 0.34117475 0.32087114 0.61741984
0.33558002 0.70571655 0.92522347 0.39599293 1.1794676 0.8894949 0.61792195 0.3211149
0.6456647 0.32927683 0.6555204 0.9732913 1.0042655 1.1445193 0.551791 0.8278517
0.30287638 0.3039942 1.1223841 0.4056705 0.41427857 0.6559339 1.0174232 1.1377168
0.90629363 0.6846497 0.9630029 1.0415691 0.46677676 0.8961479 0.96516466 0.88132197
0.14564261 0.25578672 0.36654538 0.45815468 1.0521039 0.8833362 0.7235045 0.730213
0.98572904 1.1334559 0.13119164 0.91477257 0.7767489 0.723647 0.24056184 0.4857803
0.3009796 0.49858662 0.34924746 0.6178365 1.0513554 0.6413155 0.5062249 0.21090592
0.22108236 0.28056177 0.38071737 0.3345811 0.9715881 0.77958304 0.54062074 0.5571207
0.72820866 0.7131102 0.18229842 0.82994264 0.3883653 0.68680006 0.5996555 0.23884508
0.8303098 0.4203055 0.6223422 1.1251124 0.7401218 0.88238364 0.78337586 1.0704602
0.81310165 1.0312821 1.0345658 1.1069865 0.36796346 0.35942248 0.4490264 0.8172498
0.25087178 0.84853643 0.28667784 0.3327261 0.25148448 0.5567649 1.0664912 0.26621014
1.0392327 0.68319875 1.0763627 0.8625063 0.9033987 0.25837937 1.1275301 0.9907286
0.38926563 0.6248417 0.45524815 0.6481085 1.1190418 1.1516169 1.0442914 0.62834173
0.87928736 0.25575638 0.7725138 0.6092997 1.0169669 1.0893945 0.84798497 0.41847706
0.84896725 0.6444852 0.51892877 0.5484094 0.77458483 0.8070122 0.40303677 0.8332289
0.929467 0.75040907 1.0204339 0.66468036 0.78780955 1.1998943 0.89042526 0.94847465
0.45039716 1.1012344 0.63212276 0.6142227 0.7326603 0.3152804 0.5359649 0.79210496
0.41362706 0.7142522 1.0869524 0.62718 0.4492414 0.56770253 0.6233366 1.1490363
0.38006914 0.9300697 0.46710503 0.4022134 0.17505613 0.99270135 0.12306629 0.38237536
00000000: eeb7 853f 184f 183f d42e 303f e2c9 923f
00000010: ef03 313f 709d b23e edb6 853f 7fbc 443e
00000020: 888c 233f 03ee 803f 1c52 d33e 9722 1e3f
00000030: dd94 e13e 2ff4 cf3e ec3f 273f 5edd 703e
00000040: 30dd 473f 7b79 2a3f 8b08 6d3e 6783 a03e
00000050: 2f09 d73e e1bf 213f 5b69 f73e efba 733f
00000060: c700 4b3f ecf0 ab3e 9dd3 793f 5232 693f
00000070: c4c9 4a3f 30bb 9a3e f830 4c3f 2d72 933e
00000080: 5077 283f 4354 ae3e c331 803f 059d 873f
00000090: 0b65 923f 650c 623f 2490 093f e7c3 8f3e
000000a0: 872d e13e eccc e03e aab1 903f 24d7 353e
000000b0: e2d4 843f b3f4 7b3f eba8 fb3e 8c1d 4d3e
000000c0: d72b fe3e 55e1 5f3f fa34 0e3f 2568 0f3f
000000d0: 5f4d 823f 82b3 8e3f a030 653f 3092 ea3e
000000e0: a0cc 1f3f 44bc 823f 8b19 4a3f e835 9d3e
000000f0: e1c6 333f 5059 033f d638 533e 9a2e b73e
00000100: 8804 613f 44c0 e83e d8c5 a73e 1abe 373f
00000110: ef61 1d3f 3279 873e 155a 713f 41e6 033f
00000120: a84b 8c3f c444 813f 9bdb 873e 105d bb3e
00000130: d2c7 533f bf45 fa3e db65 5d3f f19e d13e
00000140: 1ea7 933e a263 bb3e 0711 fa3e ca08 b73e
00000150: 4bbd 653f 6e04 0e3f 2f92 473f 88de 863e
00000160: 4b57 053f 7e7e 3d3f 7d06 eb3e 8c87 7c3f
00000170: b5f1 b93e 75ae ae3e 3949 a43e 3a0f 1e3f
00000180: 25d1 ab3e d7a9 343f 72db 6c3f 96bf ca3e
00000190: cbf8 963f f0b5 633f 2230 1e3f 2c69 a43e
000001a0: 484a 253f f996 a83e 2fd0 273f 9e29 793f
000001b0: c68b 803f 9c7f 923f 2d42 0d3f 17ee 533f
000001c0: 9d12 9b3e 21a5 9b3e 48aa 8f3f 0bb4 cf3e
000001d0: 521c d43e 49eb 273f ec3a 823f b4a0 913f
000001e0: dc02 683f 3445 2f3f 5c87 763f 2352 853f
000001f0: 5dfd ee3e f369 653f 0815 773f 519e 613f
00000200: 5623 153e 7af6 823e d6ab bb3e 4093 ea3e
00000210: 57ab 863f 5222 623f 9737 393f 3def 3a3f
00000220: bd58 7c3f 1515 913f 1a57 063e 892e 6a3f
00000230: 04d9 463f ee40 393f d855 763e 32b8 f83e
00000240: 001a 9a3e bf46 ff3e 90d0 b23e 882a 1e3f
00000250: d092 863f 412d 243f f497 013f b9f7 573e
00000260: 6a63 623e cba5 8f3e 63ed c23e 374e ab3e
00000270: ffb9 783f c192 473f 1f66 0a3f 769f 0e3f
00000280: e26b 3a3f 648e 363f 70ac 3a3e 1f77 543f
00000290: d1d7 c63e 21d2 2f3f 0683 193f ce93 743e
000002a0: 2f8f 543f 4832 d73e d251 1f3f af03 903f
000002b0: 9f78 3d3f e5e3 613f 528b 483f d704 893f
000002c0: 6e27 503f 0d01 843f a76c 843f bcb1 8d3f
000002d0: b565 bc3e 3906 b83e cae6 e53e 4837 513f
000002e0: 4472 803e af39 593f 70c7 923e 135b aa3e
000002f0: 93c2 803e 2588 0e3f c982 883f b24c 883e
00000300: 9405 853f 1de6 2e3f 41c6 893f 36cd 5c3f
00000310: 2345 673f 4d4a 843e e852 903f 64a0 7d3f
00000320: d34d c73e a0f5 1f3f 4916 e93e 70ea 253f
00000330: c33c 8f3f 2f68 933f 57ab 853f 01db 203f
00000340: fa18 613f 80f2 823e 77c3 453f 11fb 1b3f
00000350: f92b 823f 4771 8b3f 8b15 593f a042 d63e
00000360: eb55 593f fbfc 243f 84d8 043f 8f64 0c3f
00000370: 314b 463f 5a98 4e3f d65a ce3e 7d4e 553f
00000380: 8df1 6d3f cf1a 403f 949d 823f 7e28 2a3f
00000390: e3ad 493f 2396 993f e9f2 633f 3ccf 723f
000003a0: 759a e63e 40f5 8c3f ccd2 213f b33d 1d3f
000003b0: a08f 3b3f 6f6c a13e ff34 093f 64c7 4a3f
000003c0: edc6 d33e 3bd9 363f 4221 8b3f de8e 203f
000003d0: f802 e63e f454 113f fd92 1f3f 9f13 933f
000003e0: 6c98 c23e 0c19 6e3f 6428 ef3e eaee cd3e
000003f0: ea41 333e ad21 7e3f 2e0a fc3d b4c6 c33e

bn.bias f4 [256]
0.0049217166 0.009121086 0.02910253 -0.0051365136 0.072457135 0.036842056 -0.011554042 0.06481437
-0.054226305 -0.05830676 0.06807095 0.059197176 0.08470262 -0.0136305485 -0.0029697884 0.046374585
-0.028705174 -0.0005900208 -0.051383287 -0.056578632 -0.01429912 -0.05937949 -0.06933777 -0.03632179
-0.008629625 0.06387847 -0.037075926 -0.031834356 0.01238185 0.01001849 0.04659585 0.06057084
0.011465985 -0.010014624 -0.046616472 0.051327266 0.009690852 0.009699423 -0.01804718 0.08858135
0.049734958 -0.032396846 0.03905663 0.11371128 0.016930103 -0.025537329 0.036747765 0.015362242
-0.028563563 0.022008272 -0.007498308 0.0007174419 0.03728902 0.009484539 -0.011463569 -0.02087437
-0.008389716 -0.032851633 -0.01948238 -0.08698749 0.093292646 0.022436006 0.0070777927 -0.002914077
0.012165513 -0.032937124 -0.06897068 0.0054905815 0.017211504 0.031868633 0.05507608 0.0614602
0.06290323 -0.06674012 0.057136197 0.029364824 0.01848869 0.040226564 -0.01766925 -0.01918423
-0.02317718 -0.00012227897 0.03155083 -0.012975676 0.025469502 -0.012529819 -0.011040618 0.04615509
-0.021615282 -0.11527787 -0.03421044 -0.0044767708 0.053328816 -0.07818593 -0.081418626 0.0368108
-0.041604813 -0.024370778 -0.015786776 0.0004765783 0.020405367 -0.07289277 -0.029244423 0.021827681
0.015153091 0.05277847 -0.0074923746 -0.03500702 0.04525175 -0.054391686 -0.06625108 0.01916382
-0.009817492 -0.011449857 -0.012625471 -0.019086236 -0.04631449 -0.04056996 0.02026297 -0.0032765546
0.042224836 0.06079877 0.052759305 -0.020567715 0.004418488 -0.004044009 0.012743319 -0.0012784668
0.009484499 0.01253966 -0.003946938 -0.041563485 -0.035069827 -0.027560141 0.04293396 -0.03683892
-0.021599153 0.057678826 0.09248736 -0.020765193 0.039236557 -0.050142553 0.08645661 -0.0043919273
-0.09124123 -0.12082982 0.06775742 0.01728181 0.053099133 -0.011621284 -0.034974784 0.045889363
-0.0387082 0.017196143 -0.055676654 -0.015811449 -0.04391952 0.030824322 -0.021633437 0.044479653
-0.024455303 -0.021880591 -0.076152384 -0.047564622 0.004434849 0.022504231 -0.019103017 -0.06641754
0.025522176 -0.009251285 -0.018303959 -0.022859577 -0.05765016 0.027626796 -0.017258385 0.037462175
-0.025553945 -0.0072127874 -0.007863859 -0.048308436 -0.00974965 -0.053808577 0.024247276 0.018389754
0.00429379 0.002285525 -0.06881677 -0.05593646 -0.04410901 -0.033666745 -0.0067652753 0.057770308
0.047007624 0.015852233 -0.025002288 0.055379502 -0.0030033083 -0.036531165 0.0036359522 -0.03285346
0.12420648 0.008301445 -0.009713304 -0.028833037 0.031706825 -0.024160983 -0.01870355 -0.0566084
-0.011648196 0.064675294 0.08391527 0.037662417 -0.014740073 0.027210085 0.022804094 -0.050182045
-0.01469902 -0.006158938 -0.042765874 -0.026417626 -0.001791098 0.057555325 0.073671244 0.0061699464
0.0064026355 0.009029898 -0.03363506 -0.009376361 0.056818124 -0.052655436 -0.043890994 -0.042967476
0.076869085 -0.028126338 -0.052444793 0.0110479705 -0.010544061 0.03896257 -0.023464095 0.02469521
0.005538516 -0.030218111 0.06998534 -0.0020583684 -0.012878089 0.057477053 -0.022465216 0.038457245
-0.06748062 -0.054930855 0.014682626 -0.05253733 -0.05753486 -0.07817456 0.07069349 0.03162252
00000000: 5a46 a13b 9c70 153c 6e68 ee3c 3350 a8bb
00000010: 6864 943d b2e7 163d 2a4d 3dbc 65bd 843d
00000020: 671c 5ebd 12d3 6ebd c868 8b3d bd78 723d
00000030: 9178 ad3d aa52 5fbc c8a0 42bb 47f3 3d3d
00000040: 1d27 ebbc a0ab 1aba 4877 52bd ffbe 67bd
00000050: db46 6abc e837 73bd f600 8ebd 28c6 14bd
00000060: 4563 0dbc b7d2 823d eddc 17bd be64 02bd
00000070: 3edd 4a3c 9824 243c 4adb 3e3d 2119 783d
00000080: d4db 3b3c 6114 24bc eaf0 3ebd 8a3c 523d
00000090: 61c6 1e3c 54ea 1e3c aed7 93bc 246a b53d
000000a0: e2b6 4b3d 8eb2 04bd d8f9 1f3d 76e1 e83d
000000b0: 00b1 8a3c a933 d1bc d384 163d eab1 7b3c
000000c0: 22fe e9bc b14a b43c 5eb4 f5bb b612 3c3a
000000d0: 5fbc 183d 0a65 1b3c b1d1 3bbc ba00 abbc
000000e0: 0575 09bc 6f8f 06bd 8399 9fbc 7f26 b2bd
000000f0: 3710 bf3d b7cb b73c d4ec e73b 19fa 3ebb
00000100: dc51 473c 14e9 06bd 8040 8dbd 56ea b33b
00000110: 24ff 8c3c af88 023d 7597 613d b1bd 7b3d
00000120: 69d3 803d 0baf 88bd a507 6a3d 808e f03c
00000130: 9875 973c 9cc4 243d 1abf 90bc 3f28 9dbc
00000140: 12de bdbc 0338 00b9 713b 013d ee97 54bc
00000150: 6ba5 d03c df49 4dbc b5e3 34bc 1f0d 3d3d
00000160: 8812 b1bc ce16 ecbd 3f20 0cbd e0b1 92bb
00000170: 516f 5a3d f21f a0bd cfbe a6bd ecc6 163d
00000180: cf69 2abd 3aa5 c7bc 4553 81bc 42dd f939
00000190: 2829 a73c ce48 95bd 0092 efbc f7cf b23c
000001a0: ac44 783c 3d2e 583d 9882 f5bb 8563 0fbd
000001b0: e659 393d d1c9 5ebd a5ae 87bd 72fd 9c3c
000001c0: 8cd9 20bc 2e98 3bbc 10db 4ebc bd5a 9cbc
000001d0: 43b4 3dbd b02c 26bd 87fe a53c 77bb 56bb
000001e0: f3f3 2c3d 2208 793d 241a 583d a07d a8bc
000001f0: f7c8 903b 9b83 84bb 5bc9 503c 3a92 a7ba
00000200: df64 1b3c 2573 4d3c 5155 81bb 793e 2abd
00000210: 61a5 0fbd cec5 e1bc 85db 2f3d 68e4 16bd
00000220: b5f0 b0bc a240 6c3d 036a bd3d c41b aabc
00000230: 83b6 203d 4762 4dbd 2a10 b13d 28ea 8fbb
00000240: afdc babd a075 f7bd 67c4 8a3d 9592 8d3c
00000250: 7a7e 593d 3367 3ebc b841 0fbd 7cf6 3b3d
00000260: 7d8c 1ebd edde 8c3c 340d 64bd 0387 81bc
00000270: f4e4 33bd 4a83 fc3c 9b38 b1bc 4c30 363d
00000280: 7d56 c8bc ed3e b3bc c8f5 9bbd 1fd3 42bd
00000290: 3652 913b cb5a b83c ee7d 9cbc eb05 88bd
000002a0: e213 d13c b492 17bc 2ff2 95bc 0244 bbbc
000002b0: 9322 6cbd 9751 e23c 7561 8dbc f071 193d
000002c0: 8256 d1bc 3f59 ecbb 6ad7 00bc 11df 45bd
000002d0: ffbc 1fbc 6266 5cbd 39a2 c63c 1ca6 963c
000002e0: ecb2 8c3b bfc8 153b cfef 8cbd a11d 65bd
000002f0: a6ab 34bd 24e6 09bd 3eaf ddbb 8fa0 6c3d
00000300: 118b 403d 8bdc 813c 99d1 ccbc 9ed5 623d
00000310: 27d3 44bb b4a1 15bd 2849 6e3b 5a91 06bd
00000320: f85f fe3d c902 083c 8d24 1fbc 4333 ecbc
00000330: 04df 013d 41ed c5bc 3038 99bc 36de 67bd
00000340: 13d8 3ebc 7b74 843d c5db ab3d e843 1a3d
00000350: 5980 71bc afe7 de3c a7cf ba3c b08b 4dbd
00000360: 29d4 70bc ebd0 c9bb 452b 2fbd c769 d8bc
00000370: 47c3 eaba 22bf 6b3d f3e0 963d 432d ca3b
00000380: 33cd d13b 23f2 133c ebc4 09bd 4f9f 19bc
00000390: 1fba 683d 3aad 57bd 0bc7 33bd aafe 2fbd
000003a0: 8a6d 9d3d 3569 e6bc 5ad0 56bd 8c02 353c
000003b0: ffc0 2cbc 3797 1f3d c637 c0bc 9c4d ca3c
000003c0: 717c b53b f98b f7bc 7954 8f3d b1e5 06bb
000003d0: 9ffe 52bc 0f6d 6b3d f908 b8bc 5885 1d3d
000003e0: 4833 8abd 2dff 60bd 668f 703c 6231 57bd
000003f0: aca9 6bbd fc19 a0bd c0c7 903d 9e86 013d

bn.running_mean f4 [256]
0.1653093 0.54137504 1.9685137 0.75113815 4.556066 1.4540743 0.586652 0.5323577
9.971596e-06 0.047342926 0.060277287 0.7080441 0.022239566 0.50738305 2.3756034 0.8820568
0.17589189 0.566686 0.81263894 1.154997 5.4460864 0.51892155 0.0066206185 0.6082249
0.32982898 1.1093373 0.14041796 0.1781502 0.116290756 0.89032114 2.1557474 2.647938
0.00029549585 0.058159117 0.72812486 6e-45 0.685756 0.7812726 2.0821006 0.2482073
0.45203915 1.0316687 5.732113e-05 0.0067233713 1.2245418 1.1621968 2.494742 0.23406985
0.691407 1.7385006 0.23462617 0.7213305 1.0007868 0.3229637 1.2872465 0.28939277
2.4813996e-17 0.16184427 3.6673431 0.36465466 2.287545 4.438707 1.4462978 0.632679
0.79379827 1.0004038 0.2275001 0.4705679 0.39155036 0.0006024523 3.1493034 2.1723526
0.11802718 0.3719222 0.777786 0.5329621 1.5081581 0.5572889 1.8784622 0.14934108
0.00026788603 0.32322744 0.3790499 0.50879985 1.1119556 0.6479381 0.0044724783 0.45100313
0.16295889 0.3460601 0.18867925 0.73726755 0.44777724 0.83523697 0.6936032 0.8967175
0.35182932 0.57746196 0.074171804 0.19951676 0.6496034 0.57936054 0.20932814 3.646177
0.45239577 1.0338848 1.6733352 3.2987819 1.9718856 0.2533651 0.57784235 2.3900607
0.04441221 2.5339494 0.26835737 0.46489358 1.5452741 6e-45 0.013769012 0.00017694011
1.9283215 1.2556652 1.9051529 0.20695604 0.1716484 0.25257662 0.3149322 0.41425243
0.8851042 1.5857545 0.20192017 0.62569964 0.014623251 0.34645894 0.2550856 0.372031
1.2267991 0.022924025 1.7268116 0.58747345 0.5002226 2.2067664 0.87775636 1.0735995
1.7583207 0.02998431 1.8148725 0.46661362 0.28064987 0.123501934 0.13056833 1.0447536
0.00080141827 1.2336257 0.3131963 0.013232525 0.04595841 0.7174144 0.20688745 2.7956316
0.8959013 1.7985833 6e-45 9.580891e-05 0.39740068 1.1218513 1.0404854 0.09866492
0.40696105 0.17424008 1.088013 0.6185264 0.06927506 0.37119517 4.12906e-05 0.15803763
0.47854364 0.057705883 0.13451996 0.32331246 8.324818e-32 1.2313813 1.0973246 0.23649116
1.8683007 2.4694016 0.025936482 1.9760692 1.3590202 0.034372684 4.8449285e-05 0.1417089
0.13648674 0.027610285 0.095310934 1.9174491 0.30385125 0.12423921 0.8738238 1.9129486
0.016124899 0.1164417 2.560829 0.2973068 0.81655544 0.074004896 0.5865057 1.5333211
0.53994066 1.0727223 0.37954167 0.4952967 2.5935009 0.0004543895 0.5631059 0.006953149
0.68178564 0.15971887 0.32936987 0.64915764 1.9714389 0.17108215 0.09859628 1.3625346
0.4112077 1.8005561e-34 1.2367043 0.05981068 0.15191625 0.570316 0.5328036 2.094396
1.5341786 1.134833 0.59795445 3.246297 1.5015342 0.121985905 0.21134824 0.34742036
0.048782397 0.015956061 0.005308149 3.549579 0.010889683 0.7224959 0.07658084 0.69174194
1.0190068 6e-45 0.13577794 3.9525182 0.643986 0.015521143 6e-45 0.0004429895
00000000: d746 293e 8e97 0a3f 42f8 fb3f 974a 403f
00000010: 4bcb 9140 1b1f ba3f d32e 163f 9848 083f
00000020: ae4b 2737 a8ea 413d 51e5 763d 6142 353f
00000030: c02f b63c dbe3 013f e309 1840 79ce 613f
00000040: 011d 343e 5512 113f 1b09 503f f1d6 933f
00000050: 5746 ae40 0bd8 043f c6f1 d83b a1b4 1b3f
00000060: 58df a83e c4fe 8d3f bac9 0f3e 026d 363e
00000070: d929 ee3d 16ec 633f c4f7 0940 d177 2940
00000080: c8ec 9a39 4138 6e3d 6466 3a3f 0400 0000
00000090: b58d 2f3f 7b01 483f 2341 0540 0e2a 7e3e
000000a0: ad71 e73e b80d 843f 186c 7038 ba4f dc3b
000000b0: c9bd 9c3f ddc2 943f daa9 1f40 02b0 6f3e
000000c0: 0d00 313f 3087 de3f d841 703e 1ea9 383f
000000d0: c819 803f 805b a53e 7ec4 a43f 4a2b 943e
000000e0: 64de e423 81ba 253e c0b5 6a40 04b4 ba3e
000000f0: 2367 1240 e309 8e40 4920 b93f 40f7 213f
00000100: 5d36 4b3f 3b0d 803f c9f5 683e 47ee f03e
00000110: 4a79 c83e e4ed 1d3a 308e 4940 d307 0b40
00000120: 3cb8 f13d 966c be3e fc1c 473f 3470 083f
00000130: 530b c13f 7caa 0e3f 7371 f03f deec 183e
00000140: 0e73 8c39 117e a53e d412 c23e b540 023f
00000150: 9054 8e3f 45df 253f de8d 923b e2e9 e63e
00000160: b2de 263e ca2e b13e 2235 413e 91bd 3c3f
00000170: 0f43 e53e 17d2 553f fb8f 313f 478f 653f
00000180: f922 b43e 8cd4 133f 63e7 973d 1f4e 4c3e
00000190: 694c 263f f950 143f 1e5a 563e f75a 6940
000001a0: 6ba0 e73e 5656 843f d92f d63f 3e1f 5340
000001b0: bf66 fc3f 12b9 813e 7aed 133f c1f6 1840
000001c0: 94e9 353d 3a2c 2240 2366 893e 8806 ee3e
000001d0: 8bcb c53f 0400 0000 6c97 613c 0089 3939
000001e0: 3dd3 f63f a3b9 a03f 0ddc f33f 49ec 533e
000001f0: 99c4 2f3e b951 813e cb3e a13e e518 d43e
00000200: 3096 623f 01fa ca3f 29c4 4e3e da2d 203f
00000210: 5c96 6f3c 1163 b13e 949a 823e d97a be3e
00000220: c107 9d3f 2acb bb3c 2a08 dd3f a964 163f
00000230: 970e 003f a93b 0d40 a4b4 603f b56b 893f
00000240: a710 e13f a8a1 f53c be4d e83f fbe7 ee3e
00000250: 57b1 8f3e 95ee fc3d b4b3 053e 7cba 853f
00000260: 4516 523a 72e7 9d3f 445b a03e 3ccd 583c
00000270: e33e 3c3d 78a8 373f 4eda 533e a1eb 3240
00000280: ca59 653f fa37 e63f 0400 0000 04ed c838
00000290: 1a78 cb3e d398 8f3f a02e 853f d510 ca3d
000002a0: 335d d03e fe6b 323e 0344 8b3f bf57 1e3f
000002b0: 15e0 8d3d 4b0d be3e 722f 2d38 9ed4 213e
000002c0: ac03 f53e 015d 6c3d 9abf 093e 3689 a53e
000002d0: e81f d80b e79d 9d3f 2275 8c3f bd2a 723e
000002e0: 7a24 ef3f ad0a 1e40 bf78 d43c d6ef fc3f
000002f0: 60f4 ad3f 5fca 0c3d 0636 4b38 231c 113e
00000300: 2ec3 0b3e f72e e23c 6132 c33d f96e f53f
00000310: 6492 9b3e 2071 fe3d ebb2 5f3f 80db f43f
00000320: 5d18 843c fc78 ee3d 9fe4 2340 9938 983e
00000330: c709 513f e18f 973d 3d25 163f de43 c43f
00000340: 8d39 0a3f f74e 893f 4953 c23e 8797 fd3e
00000350: ebfb 2540 203b ee39 b527 103f 3ed7 e33b
00000360: 8189 2e3f 588d 233e 2ba3 a83e 322f 263f
00000370: 1c58 fc3f 2930 2f3e d9ec c93d 8967 ae3f
00000380: d189 d23e c055 6f07 544c 9e3f 0bfc 743d
00000390: ef8f 1b3e 3b00 123f d165 083f 960a 0640
000003a0: f75f c43f 3542 913f 8b13 193f 54c3 4f40
000003b0: 4632 c03f bfd3 f93d ac6b 583e 15e1 b13e
000003c0: 0dd0 473d 49b6 823c fbef ad3b 4d2c 6340
000003d0: a46a 323c 7ef5 383f 6ad6 9c3d 0016 313f
000003e0: d16e 823f 0400 0000 5f09 0b3e 0ff6 7c40
000003f0: 44dc 243f 644c 7e3c 0400 0000 0b41 e839
